…
stepsize: 80000
snapshot: 0
snapshot_prefix: "resnet101_rfcn_ohem"
iter_size: 2
I1030 13:22:48.243423 27292 solver.cpp:81] Creating training net from train_net file: models/vehicle/ResNet-101/rfcn_end2end/train_agonistic_ohem.prototxt
I1030 13:22:48.251155 27292 net.cpp:58] Initializing net from parameters: 
name: "ResNet-101"
state {
  phase: TRAIN
}
layer {
  name: "input-data"
  type: "Python"
  top: "data"
  top: "im_info"
  top: "gt_boxes"
  python_param {
    module: "roi_data_layer.layer"
    layer: "RoIDataLayer"
    param_str: "\'num_classes\': 2"
  }
}
layer {
  name: "conv1"
  type: "Convolution"
  bottom: "data"
  top: "conv1"
  param {
    lr_mult: 0
  }
  convolution_param {
    num_output: 64
    bias_term: false
    pad: 3
    kernel_size: 7
    stride: 2
  }
}
layer {
  name: "bn_conv1"
  type: "BatchNorm"
  bottom: "conv1"
  top: "conv1"
  param {
    lr_mult: 0
    decay_mult: 0
  }
  param {
    lr_mult: 0
    decay_mult: 0
  }
  param {
    lr_mult: 0
    decay_mult: 0
  }
  batch_norm_param {
    use_global_stats: true
  }
}
layer {
  name: "scale_conv1"
  type: "Scale"
  bottom: "conv1"
  top: "conv1"
  param {
    lr_mult: 0
    decay_mult: 0
  }
  param {
    lr_mult: 0
    decay_mult: 0
  }
  scale_param {
    bias_term: true
  }
}
layer {
  name: "conv1_relu"
  type: "ReLU"
  bottom: "conv1"
  top: "conv1"
}
layer {
  name: "pool1"
  type: "Pooling"
  bottom: "conv1"
  top: "pool1"
  pooling_param {
    pool: MAX
    kernel_size: 3
    stride: 2
  }
}
layer {
  name: "res2a_branch1"
  type: "Convolution"
  bottom: "pool1"
  top: "res2a_branch1"
  param {
    lr_mult: 0
  }
  convolution_param {
    num_output: 256
    bias_term: false
    pad: 0
    kernel_size: 1
    stride: 1
  }
}
layer {
  name: "bn2a_branch1"
  type: "BatchNorm"
  bottom: "res2a_branch1"
  top: "res2a_branch1"
  param {
    lr_mult: 0
    decay_mult: 0
  }
  param {
    lr_mult: 0
    decay_mult: 0
  }
  param {
    lr_mult: 0
    decay_mult: 0
  }
  batch_norm_param {
    use_global_stats: true
  }
}
layer {
  name: "scale2a_branch1"
  type: "Scale"
  bottom: "res2a_branch1"
  top: "res2a_branch1"
  param {
    lr_mult: 0
    decay_mult: 0
  }
  param {
    lr_mult: 0
    decay_mult: 0
  }
  scale_param {
    bias_term: true
  }
}
layer {
  name: "res2a_branch2a"
  type: "Convolution"
  bottom: "pool1"
  top: "res2a_branch2a"
  param {
    lr_mult: 0
  }
  convolution_param {
    num_output: 64
    bias_term: false
    pad: 0
    kernel_size: 1
    stride: 1
  }
}
layer {
  name: "bn2a_branch2a"
  type: "BatchNorm"
  bottom: "res2a_branch2a"
  top: "res2a_branch2a"
  param {
    lr_mult: 0
    decay_mult: 0
  }
  param {
    lr_mult: 0
    decay_mult: 0
  }
  param {
    lr_mult: 0
    decay_mult: 0
  }
  batch_norm_param {
    use_global_stats: true
  }
}
layer {
  name: "scale2a_branch2a"
  type: "Scale"
  bottom: "res2a_branch2a"
  top: "res2a_branch2a"
  param {
    lr_mult: 0
    decay_mult: 0
  }
  param {
    lr_mult: 0
    decay_mult: 0
  }
  scale_param {
    bias_term: true
  }
}
layer {
  name: "res2a_branch2a_relu"
  type: "ReLU"
  bottom: "res2a_branch2a"
  top: "res2a_branch2a"
}
layer {
  name: "res2a_branch2b"
  type: "Convolution"
  bottom: "res2a_branch2a"
  top: "res2a_branch2b"
  param {
    lr_mult: 0
  }
  convolution_param {
    num_output: 64
    bias_term: false
    pad: 1
    kernel_size: 3
    stride: 1
  }
}
layer {
  name: "bn2a_branch2b"
  type: "BatchNorm"
  bottom: "res2a_branch2b"
  top: "res2a_branch2b"
  param {
    lr_mult: 0
    decay_mult: 0
  }
  param {
    lr_mult: 0
    decay_mult: 0
  }
  param {
    lr_mult: 0
    decay_mult: 0
  }
  batch_norm_param {
    use_global_stats: true
  }
}
layer {
  name: "scale2a_branch2b"
  type: "Scale"
  bottom: "res2a_branch2b"
  top: "res2a_branch2b"
  param {
    lr_mult: 0
    decay_mult: 0
  }
  param {
    lr_mult: 0
    decay_mult: 0
  }
  scale_param {
    bias_term: true
  }
}
layer {
  name: "res2a_branch2b_relu"
  type: "ReLU"
  bottom: "res2a_branch2b"
  top: "res2a_branch2b"
}
layer {
  name: "res2a_branch2c"
  type: "Convolution"
  bottom: "res2a_branch2b"
  top: "res2a_branch2c"
  param {
    lr_mult: 0
  }
  convolution_param {
    num_output: 256
    bias_term: false
    pad: 0
    kernel_size: 1
    stride: 1
  }
}
layer {
  name: "bn2a_branch2c"
  type: "BatchNorm"
  bottom: "res2a_branch2c"
  top: "res2a_branch2c"
  param {
    lr_mult: 0
    decay_mult: 0
  }
  param {
    lr_mult: 0
    decay_mult: 0
  }
  param {
    lr_mult: 0
    decay_mult: 0
  }
  batch_norm_param {
    use_global_stats: true
  }
}
layer {
  name: "scale2a_branch2c"
  type: "Scale"
  bottom: "res2a_branch2c"
  top: "res2a_branch2c"
  param {
    lr_mult: 0
    decay_mult: 0
  }
  param {
    lr_mult: 0
    decay_mult: 0
  }
  scale_param {
    bias_term: true
  }
}
layer {
  name: "res2a"
  type: "Eltwise"
  bottom: "res2a_branch1"
  bottom: "res2a_branch2c"
  top: "res2a"
}
layer {
  name: "res2a_relu"
  type: "ReLU"
  bottom: "res2a"
  top: "res2a"
}
layer {
  name: "res2b_branch2a"
  type: "Convolution"
  bottom: "res2a"
  top: "res2b_branch2a"
  param {
    lr_mult: 0
  }
  convolution_param {
    num_output: 64
    bias_term: false
    pad: 0
    kernel_size: 1
    stride: 1
  }
}
layer {
  name: "bn2b_branch2a"
  type: "BatchNorm"
  bottom: "res2b_branch2a"
  top: "res2b_branch2a"
  param {
    lr_mult: 0
    decay_mult: 0
  }
  param {
    lr_mult: 0
    decay_mult: 0
  }
  param {
    lr_mult: 0
    decay_mult: 0
  }
  batch_norm_param {
    use_global_stats: true
  }
}
layer {
  name: "scale2b_branch2a"
  type: "Scale"
  bottom: "res2b_branch2a"
  top: "res2b_branch2a"
  param {
    lr_mult: 0
    decay_mult: 0
  }
  param {
    lr_mult: 0
    decay_mult: 0
  }
  scale_param {
    bias_term: true
  }
}
layer {
  name: "res2b_branch2a_relu"
  type: "ReLU"
  bottom: "res2b_branch2a"
  top: "res2b_branch2a"
}
layer {
  name: "res2b_branch2b"
  type: "Convolution"
  bottom: "res2b_branch2a"
  top: "res2b_branch2b"
  param {
    lr_mult: 0
  }
  convolution_param {
    num_output: 64
    bias_term: false
    pad: 1
    kernel_size: 3
    stride: 1
  }
}
layer {
  name: "bn2b_branch2b"
  type: "BatchNorm"
  bottom: "res2b_branch2b"
  top: "res2b_branch2b"
  param {
    lr_mult: 0
    decay_mult: 0
  }
  param {
    lr_mult: 0
    decay_mult: 0
  }
  param {
    lr_mult: 0
    decay_mult: 0
  }
  batch_norm_param {
    use_global_stats: true
  }
}
layer {
  name: "scale2b_branch2b"
  type: "Scale"
  bottom: "res2b_branch2b"
  top: "res2b_branch2b"
  param {
    lr_mult: 0
    decay_mult: 0
  }
  param {
    lr_mult: 0
    decay_mult: 0
  }
  scale_param {
    bias_term: true
  }
}
layer {
  name: "res2b_branch2b_relu"
  type: "ReLU"
  bottom: "res2b_branch2b"
  top: "res2b_branch2b"
}
layer {
  name: "res2b_branch2c"
  type: "Convolution"
  bottom: "res2b_branch2b"
  top: "res2b_branch2c"
  param {
    lr_mult: 0
  }
  convolution_param {
    num_output: 256
    bias_term: false
    pad: 0
    kernel_size: 1
    stride: 1
  }
}
layer {
  name: "bn2b_branch2c"
  type: "BatchNorm"
  bottom: "res2b_branch2c"
  top: "res2b_branch2c"
  param {
    lr_mult: 0
    decay_mult: 0
  }
  param {
    lr_mult: 0
    decay_mult: 0
  }
  param {
    lr_mult: 0
    decay_mult: 0
  }
  batch_norm_param {
    use_global_stats: true
  }
}
layer {
  name: "scale2b_branch2c"
  type: "Scale"
  bottom: "res2b_branch2c"
  top: "res2b_branch2c"
  param {
    lr_mult: 0
    decay_mult: 0
  }
  param {
    lr_mult: 0
    decay_mult: 0
  }
  scale_param {
    bias_term: true
  }
}
layer {
  name: "res2b"
  type: "Eltwise"
  bottom: "res2a"
  bottom: "res2b_branch2c"
  top: "res2b"
}
layer {
  name: "res2b_relu"
  type: "ReLU"
  bottom: "res2b"
  top: "res2b"
}
layer {
  name: "res2c_branch2a"
  type: "Convolution"
  bottom: "res2b"
  top: "res2c_branch2a"
  param {
    lr_mult: 0
  }
  convolution_param {
    num_output: 64
    bias_term: false
    pad: 0
    kernel_size: 1
    stride: 1
  }
}
layer {
  name: "bn2c_branch2a"
  type: "BatchNorm"
  bottom: "res2c_branch2a"
  top: "res2c_branch2a"
  param {
    lr_mult: 0
    decay_mult: 0
  }
  param {
    lr_mult: 0
    decay_mult: 0
  }
  param {
    lr_mult: 0
    decay_mult: 0
  }
  batch_norm_param {
    use_global_stats: true
  }
}
layer {
  name: "scale2c_branch2a"
  type: "Scale"
  bottom: "res2c_branch2a"
  top: "res2c_branch2a"
  param {
    lr_mult: 0
    decay_mult: 0
  }
  param {
    lr_mult: 0
    decay_mult: 0
  }
  scale_param {
    bias_term: true
  }
}
layer {
  name: "res2c_branch2a_relu"
  type: "ReLU"
  bottom: "res2c_branch2a"
  top: "res2c_branch2a"
}
layer {
  name: "res2c_branch2b"
  type: "Convolution"
  bottom: "res2c_branch2a"
  top: "res2c_branch2b"
  param {
    lr_mult: 0
  }
  convolution_param {
    num_output: 64
    bias_term: false
    pad: 1
    kernel_size: 3
    stride: 1
  }
}
layer {
  name: "bn2c_branch2b"
  type: "BatchNorm"
  bottom: "res2c_branch2b"
  top: "res2c_branch2b"
  param {
    lr_mult: 0
    decay_mult: 0
  }
  param {
    lr_mult: 0
    decay_mult: 0
  }
  param {
    lr_mult: 0
    decay_mult: 0
  }
  batch_norm_param {
    use_global_stats: true
  }
}
layer {
  name: "scale2c_branch2b"
  type: "Scale"
  bottom: "res2c_branch2b"
  top: "res2c_branch2b"
  param {
    lr_mult: 0
    decay_mult: 0
  }
  param {
    lr_mult: 0
    decay_mult: 0
  }
  scale_param {
    bias_term: true
  }
}
layer {
  name: "res2c_branch2b_relu"
  type: "ReLU"
  bottom: "res2c_branch2b"
  top: "res2c_branch2b"
}
layer {
  name: "res2c_branch2c"
  type: "Convolution"
  bottom: "res2c_branch2b"
  top: "res2c_branch2c"
  param {
    lr_mult: 0
  }
  convolution_param {
    num_output: 256
    bias_term: false
    pad: 0
    kernel_size: 1
    stride: 1
  }
}
layer {
  name: "bn2c_branch2c"
  type: "BatchNorm"
  bottom: "res2c_branch2c"
  top: "res2c_branch2c"
  param {
    lr_mult: 0
    decay_mult: 0
  }
  param {
    lr_mult: 0
    decay_mult: 0
  }
  param {
    lr_mult: 0
    decay_mult: 0
  }
  batch_norm_param {
    use_global_stats: true
  }
}
layer {
  name: "scale2c_branch2c"
  type: "Scale"
  bottom: "res2c_branch2c"
  top: "res2c_branch2c"
  param {
    lr_mult: 0
    decay_mult: 0
  }
  param {
    lr_mult: 0
    decay_mult: 0
  }
  scale_param {
    bias_term: true
  }
}
layer {
  name: "res2c"
  type: "Eltwise"
  bottom: "res2b"
  bottom: "res2c_branch2c"
  top: "res2c"
}
layer {
  name: "res2c_relu"
  type: "ReLU"
  bottom: "res2c"
  top: "res2c"
}
layer {
  name: "res3a_branch1"
  type: "Convolution"
  bottom: "res2c"
  top: "res3a_branch1"
  param {
    lr_mult: 1
  }
  convolution_param {
    num_output: 512
    bias_term: false
    pad: 0
    kernel_size: 1
    stride: 2
  }
}
layer {
  name: "bn3a_branch1"
  type: "BatchNorm"
  bottom: "res3a_branch1"
  top: "res3a_branch1"
  param {
    lr_mult: 0
    decay_mult: 0
  }
  param {
    lr_mult: 0
    decay_mult: 0
  }
  param {
    lr_mult: 0
    decay_mult: 0
  }
  batch_norm_param {
    use_global_stats: true
  }
}
layer {
  name: "scale3a_branch1"
  type: "Scale"
  bottom: "res3a_branch1"
  top: "res3a_branch1"
  param {
    lr_mult: 0
    decay_mult: 0
  }
  param {
    lr_mult: 0
    decay_mult: 0
  }
  scale_param {
    bias_term: true
  }
}
layer {
  name: "res3a_branch2a"
  type: "Convolution"
  bottom: "res2c"
  top: "res3a_branch2a"
  param {
    lr_mult: 1
  }
  convolution_param {
    num_output: 128
    bias_term: false
    pad: 0
    kernel_size: 1
    stride: 2
  }
}
layer {
  name: "bn3a_branch2a"
  type: "BatchNorm"
  bottom: "res3a_branch2a"
  top: "res3a_branch2a"
  param {
    lr_mult: 0
    decay_mult: 0
  }
  param {
    lr_mult: 0
    decay_mult: 0
  }
  param {
    lr_mult: 0
    decay_mult: 0
  }
  batch_norm_param {
    use_global_stats: true
  }
}
layer {
  name: "scale3a_branch2a"
  type: "Scale"
  bottom: "res3a_branch2a"
  top: "res3a_branch2a"
  param {
    lr_mult: 0
    decay_mult: 0
  }
  param {
    lr_mult: 0
    decay_mult: 0
  }
  scale_param {
    bias_term: true
  }
}
layer {
  name: "res3a_branch2a_relu"
  type: "ReLU"
  bottom: "res3a_branch2a"
  top: "res3a_branch2a"
}
layer {
  name: "res3a_branch2b"
  type: "Convolution"
  bottom: "res3a_branch2a"
  top: "res3a_branch2b"
  param {
    lr_mult: 1
  }
  convolution_param {
    num_output: 128
    bias_term: false
    pad: 1
    kernel_size: 3
    stride: 1
  }
}
layer {
  name: "bn3a_branch2b"
  type: "BatchNorm"
  bottom: "res3a_branch2b"
  top: "res3a_branch2b"
  param {
    lr_mult: 0
    decay_mult: 0
  }
  param {
    lr_mult: 0
    decay_mult: 0
  }
  param {
    lr_mult: 0
    decay_mult: 0
  }
  batch_norm_param {
    use_global_stats: true
  }
}
layer {
  name: "scale3a_branch2b"
  type: "Scale"
  bottom: "res3a_branch2b"
  top: "res3a_branch2b"
  param {
    lr_mult: 0
    decay_mult: 0
  }
  param {
    lr_mult: 0
    decay_mult: 0
  }
  scale_param {
    bias_term: true
  }
}
layer {
  name: "res3a_branch2b_relu"
  type: "ReLU"
  bottom: "res3a_branch2b"
  top: "res3a_branch2b"
}
layer {
  name: "res3a_branch2c"
  type: "Convolution"
  bottom: "res3a_branch2b"
  top: "res3a_branch2c"
  param {
    lr_mult: 1
  }
  convolution_param {
    num_output: 512
    bias_term: false
    pad: 0
    kernel_size: 1
    stride: 1
  }
}
layer {
  name: "bn3a_branch2c"
  type: "BatchNorm"
  bottom: "res3a_branch2c"
  top: "res3a_branch2c"
  param {
    lr_mult: 0
    decay_mult: 0
  }
  param {
    lr_mult: 0
    decay_mult: 0
  }
  param {
    lr_mult: 0
    decay_mult: 0
  }
  batch_norm_param {
    use_global_stats: true
  }
}
layer {
  name: "scale3a_branch2c"
  type: "Scale"
  bottom: "res3a_branch2c"
  top: "res3a_branch2c"
  param {
    lr_mult: 0
    decay_mult: 0
  }
  param {
    lr_mult: 0
    decay_mult: 0
  }
  scale_param {
    bias_term: true
  }
}
layer {
  name: "res3a"
  type: "Eltwise"
  bottom: "res3a_branch1"
  bottom: "res3a_branch2c"
  top: "res3a"
}
layer {
  name: "res3a_relu"
  type: "ReLU"
  bottom: "res3a"
  top: "res3a"
}
layer {
  name: "res3b1_branch2a"
  type: "Convolution"
  bottom: "res3a"
  top: "res3b1_branch2a"
  param {
    lr_mult: 1
  }
  convolution_param {
    num_output: 128
    bias_term: false
    pad: 0
    kernel_size: 1
    stride: 1
  }
}
layer {
  name: "bn3b1_branch2a"
  type: "BatchNorm"
  bottom: "res3b1_branch2a"
  top: "res3b1_branch2a"
  param {
    lr_mult: 0
    decay_mult: 0
  }
  param {
    lr_mult: 0
    decay_mult: 0
  }
  param {
    lr_mult: 0
    decay_mult: 0
  }
  batch_norm_param {
    use_global_stats: true
  }
}
layer {
  name: "scale3b1_branch2a"
  type: "Scale"
  bottom: "res3b1_branch2a"
  top: "res3b1_branch2a"
  param {
    lr_mult: 0
    decay_mult: 0
  }
  param {
    lr_mult: 0
    decay_mult: 0
  }
  scale_param {
    bias_term: true
  }
}
layer {
  name: "res3b1_branch2a_relu"
  type: "ReLU"
  bottom: "res3b1_branch2a"
  top: "res3b1_branch2a"
}
layer {
  name: "res3b1_branch2b"
  type: "Convolution"
  bottom: "res3b1_branch2a"
  top: "res3b1_branch2b"
  param {
    lr_mult: 1
  }
  convolution_param {
    num_output: 128
    bias_term: false
    pad: 1
    kernel_size: 3
    stride: 1
  }
}
layer {
  name: "bn3b1_branch2b"
  type: "BatchNorm"
  bottom: "res3b1_branch2b"
  top: "res3b1_branch2b"
  param {
    lr_mult: 0
    decay_mult: 0
  }
  param {
    lr_mult: 0
    decay_mult: 0
  }
  param {
    lr_mult: 0
    decay_mult: 0
  }
  batch_norm_param {
    use_global_stats: true
  }
}
layer {
  name: "scale3b1_branch2b"
  type: "Scale"
  bottom: "res3b1_branch2b"
  top: "res3b1_branch2b"
  param {
    lr_mult: 0
    decay_mult: 0
  }
  param {
    lr_mult: 0
    decay_mult: 0
  }
  scale_param {
    bias_term: true
  }
}
layer {
  name: "res3b1_branch2b_relu"
  type: "ReLU"
  bottom: "res3b1_branch2b"
  top: "res3b1_branch2b"
}
layer {
  name: "res3b1_branch2c"
  type: "Convolution"
  bottom: "res3b1_branch2b"
  top: "res3b1_branch2c"
  param {
    lr_mult: 1
  }
  convolution_param {
    num_output: 512
    bias_term: false
    pad: 0
    kernel_size: 1
    stride: 1
  }
}
layer {
  name: "bn3b1_branch2c"
  type: "BatchNorm"
  bottom: "res3b1_branch2c"
  top: "res3b1_branch2c"
  param {
    lr_mult: 0
    decay_mult: 0
  }
  param {
    lr_mult: 0
    decay_mult: 0
  }
  param {
    lr_mult: 0
    decay_mult: 0
  }
  batch_norm_param {
    use_global_stats: true
  }
}
layer {
  name: "scale3b1_branch2c"
  type: "Scale"
  bottom: "res3b1_branch2c"
  top: "res3b1_branch2c"
  param {
    lr_mult: 0
    decay_mult: 0
  }
  param {
    lr_mult: 0
    decay_mult: 0
  }
  scale_param {
    bias_term: true
  }
}
layer {
  name: "res3b1"
  type: "Eltwise"
  bottom: "res3a"
  bottom: "res3b1_branch2c"
  top: "res3b1"
}
layer {
  name: "res3b1_relu"
  type: "ReLU"
  bottom: "res3b1"
  top: "res3b1"
}
layer {
  name: "res3b2_branch2a"
  type: "Convolution"
  bottom: "res3b1"
  top: "res3b2_branch2a"
  param {
    lr_mult: 1
  }
  convolution_param {
    num_output: 128
    bias_term: false
    pad: 0
    kernel_size: 1
    stride: 1
  }
}
layer {
  name: "bn3b2_branch2a"
  type: "BatchNorm"
  bottom: "res3b2_branch2a"
  top: "res3b2_branch2a"
  param {
    lr_mult: 0
    decay_mult: 0
  }
  param {
    lr_mult: 0
    decay_mult: 0
  }
  param {
    lr_mult: 0
    decay_mult: 0
  }
  batch_norm_param {
    use_global_stats: true
  }
}
layer {
  name: "scale3b2_branch2a"
  type: "Scale"
  bottom: "res3b2_branch2a"
  top: "res3b2_branch2a"
  param {
    lr_mult: 0
    decay_mult: 0
  }
  param {
    lr_mult: 0
    decay_mult: 0
  }
  scale_param {
    bias_term: true
  }
}
layer {
  name: "res3b2_branch2a_relu"
  type: "ReLU"
  bottom: "res3b2_branch2a"
  top: "res3b2_branch2a"
}
layer {
  name: "res3b2_branch2b"
  type: "Convolution"
  bottom: "res3b2_branch2a"
  top: "res3b2_branch2b"
  param {
    lr_mult: 1
  }
  convolution_param {
    num_output: 128
    bias_term: false
    pad: 1
    kernel_size: 3
    stride: 1
  }
}
layer {
  name: "bn3b2_branch2b"
  type: "BatchNorm"
  bottom: "res3b2_branch2b"
  top: "res3b2_branch2b"
  param {
    lr_mult: 0
    decay_mult: 0
  }
  param {
    lr_mult: 0
    decay_mult: 0
  }
  param {
    lr_mult: 0
    decay_mult: 0
  }
  batch_norm_param {
    use_global_stats: true
  }
}
layer {
  name: "scale3b2_branch2b"
  type: "Scale"
  bottom: "res3b2_branch2b"
  top: "res3b2_branch2b"
  param {
    lr_mult: 0
    decay_mult: 0
  }
  param {
    lr_mult: 0
    decay_mult: 0
  }
  scale_param {
    bias_term: true
  }
}
layer {
  name: "res3b2_branch2b_relu"
  type: "ReLU"
  bottom: "res3b2_branch2b"
  top: "res3b2_branch2b"
}
layer {
  name: "res3b2_branch2c"
  type: "Convolution"
  bottom: "res3b2_branch2b"
  top: "res3b2_branch2c"
  param {
    lr_mult: 1
  }
  convolution_param {
    num_output: 512
    bias_term: false
    pad: 0
    kernel_size: 1
    stride: 1
  }
}
layer {
  name: "bn3b2_branch2c"
  type: "BatchNorm"
  bottom: "res3b2_branch2c"
  top: "res3b2_branch2c"
  param {
    lr_mult: 0
    decay_mult: 0
  }
  param {
    lr_mult: 0
    decay_mult: 0
  }
  param {
    lr_mult: 0
    decay_mult: 0
  }
  batch_norm_param {
    use_global_stats: true
  }
}
layer {
  name: "scale3b2_branch2c"
  type: "Scale"
  bottom: "res3b2_branch2c"
  top: "res3b2_branch2c"
  param {
    lr_mult: 0
    decay_mult: 0
  }
  param {
    lr_mult: 0
    decay_mult: 0
  }
  scale_param {
    bias_term: true
  }
}
layer {
  name: "res3b2"
  type: "Eltwise"
  bottom: "res3b1"
  bottom: "res3b2_branch2c"
  top: "res3b2"
}
layer {
  name: "res3b2_relu"
  type: "ReLU"
  bottom: "res3b2"
  top: "res3b2"
}
layer {
  name: "res3b3_branch2a"
  type: "Convolution"
  bottom: "res3b2"
  top: "res3b3_branch2a"
  param {
    lr_mult: 1
  }
  convolution_param {
    num_output: 128
    bias_term: false
    pad: 0
    kernel_size: 1
    stride: 1
  }
}
layer {
  name: "bn3b3_branch2a"
  type: "BatchNorm"
  bottom: "res3b3_branch2a"
  top: "res3b3_branch2a"
  param {
    lr_mult: 0
    decay_mult: 0
  }
  param {
    lr_mult: 0
    decay_mult: 0
  }
  param {
    lr_mult: 0
    decay_mult: 0
  }
  batch_norm_param {
    use_global_stats: true
  }
}
layer {
  name: "scale3b3_branch2a"
  type: "Scale"
  bottom: "res3b3_branch2a"
  top: "res3b3_branch2a"
  param {
    lr_mult: 0
    decay_mult: 0
  }
  param {
    lr_mult: 0
    decay_mult: 0
  }
  scale_param {
    bias_term: true
  }
}
layer {
  name: "res3b3_branch2a_relu"
  type: "ReLU"
  bottom: "res3b3_branch2a"
  top: "res3b3_branch2a"
}
layer {
  name: "res3b3_branch2b"
  type: "Convolution"
  bottom: "res3b3_branch2a"
  top: "res3b3_branch2b"
  param {
    lr_mult: 1
  }
  convolution_param {
    num_output: 128
    bias_term: false
    pad: 1
    kernel_size: 3
    stride: 1
  }
}
layer {
  name: "bn3b3_branch2b"
  type: "BatchNorm"
  bottom: "res3b3_branch2b"
  top: "res3b3_branch2b"
  param {
    lr_mult: 0
    decay_mult: 0
  }
  param {
    lr_mult: 0
    decay_mult: 0
  }
  param {
    lr_mult: 0
    decay_mult: 0
  }
  batch_norm_param {
    use_global_stats: true
  }
}
layer {
  name: "scale3b3_branch2b"
  type: "Scale"
  bottom: "res3b3_branch2b"
  top: "res3b3_branch2b"
  param {
    lr_mult: 0
    decay_mult: 0
  }
  param {
    lr_mult: 0
    decay_mult: 0
  }
  scale_param {
    bias_term: true
  }
}
layer {
  name: "res3b3_branch2b_relu"
  type: "ReLU"
  bottom: "res3b3_branch2b"
  top: "res3b3_branch2b"
}
layer {
  name: "res3b3_branch2c"
  type: "Convolution"
  bottom: "res3b3_branch2b"
  top: "res3b3_branch2c"
  param {
    lr_mult: 1
  }
  convolution_param {
    num_output: 512
    bias_term: false
    pad: 0
    kernel_size: 1
    stride: 1
  }
}
layer {
  name: "bn3b3_branch2c"
  type: "BatchNorm"
  bottom: "res3b3_branch2c"
  top: "res3b3_branch2c"
  param {
    lr_mult: 0
    decay_mult: 0
  }
  param {
    lr_mult: 0
    decay_mult: 0
  }
  param {
    lr_mult: 0
    decay_mult: 0
  }
  batch_norm_param {
    use_global_stats: true
  }
}
layer {
  name: "scale3b3_branch2c"
  type: "Scale"
  bottom: "res3b3_branch2c"
  top: "res3b3_branch2c"
  param {
    lr_mult: 0
    decay_mult: 0
  }
  param {
    lr_mult: 0
    decay_mult: 0
  }
  scale_param {
    bias_term: true
  }
}
layer {
  name: "res3b3"
  type: "Eltwise"
  bottom: "res3b2"
  bottom: "res3b3_branch2c"
  top: "res3b3"
}
layer {
  name: "res3b3_relu"
  type: "ReLU"
  bottom: "res3b3"
  top: "res3b3"
}
layer {
  name: "res4a_branch1"
  type: "Convolution"
  bottom: "res3b3"
  top: "res4a_branch1"
  param {
    lr_mult: 1
  }
  convolution_param {
    num_output: 1024
    bias_term: false
    pad: 0
    kernel_size: 1
    stride: 2
  }
}
layer {
  name: "bn4a_branch1"
  type: "BatchNorm"
  bottom: "res4a_branch1"
  top: "res4a_branch1"
  param {
    lr_mult: 0
    decay_mult: 0
  }
  param {
    lr_mult: 0
    decay_mult: 0
  }
  param {
    lr_mult: 0
    decay_mult: 0
  }
  batch_norm_param {
    use_global_stats: true
  }
}
layer {
  name: "scale4a_branch1"
  type: "Scale"
  bottom: "res4a_branch1"
  top: "res4a_branch1"
  param {
    lr_mult: 0
    decay_mult: 0
  }
  param {
    lr_mult: 0
    decay_mult: 0
  }
  scale_param {
    bias_term: true
  }
}
layer {
  name: "res4a_branch2a"
  type: "Convolution"
  bottom: "res3b3"
  top: "res4a_branch2a"
  param {
    lr_mult: 1
  }
  convolution_param {
    num_output: 256
    bias_term: false
    pad: 0
    kernel_size: 1
    stride: 2
  }
}
layer {
  name: "bn4a_branch2a"
  type: "BatchNorm"
  bottom: "res4a_branch2a"
  top: "res4a_branch2a"
  param {
    lr_mult: 0
    decay_mult: 0
  }
  param {
    lr_mult: 0
    decay_mult: 0
  }
  param {
    lr_mult: 0
    decay_mult: 0
  }
  batch_norm_param {
    use_global_stats: true
  }
}
layer {
  name: "scale4a_branch2a"
  type: "Scale"
  bottom: "res4a_branch2a"
  top: "res4a_branch2a"
  param {
    lr_mult: 0
    decay_mult: 0
  }
  param {
    lr_mult: 0
    decay_mult: 0
  }
  scale_param {
    bias_term: true
  }
}
layer {
  name: "res4a_branch2a_relu"
  type: "ReLU"
  bottom: "res4a_branch2a"
  top: "res4a_branch2a"
}
layer {
  name: "res4a_branch2b"
  type: "Convolution"
  bottom: "res4a_branch2a"
  top: "res4a_branch2b"
  param {
    lr_mult: 1
  }
  convolution_param {
    num_output: 256
    bias_term: false
    pad: 1
    kernel_size: 3
    stride: 1
  }
}
layer {
  name: "bn4a_branch2b"
  type: "BatchNorm"
  bottom: "res4a_branch2b"
  top: "res4a_branch2b"
  param {
    lr_mult: 0
    decay_mult: 0
  }
  param {
    lr_mult: 0
    decay_mult: 0
  }
  param {
    lr_mult: 0
    decay_mult: 0
  }
  batch_norm_param {
    use_global_stats: true
  }
}
layer {
  name: "scale4a_branch2b"
  type: "Scale"
  bottom: "res4a_branch2b"
  top: "res4a_branch2b"
  param {
    lr_mult: 0
    decay_mult: 0
  }
  param {
    lr_mult: 0
    decay_mult: 0
  }
  scale_param {
    bias_term: true
  }
}
layer {
  name: "res4a_branch2b_relu"
  type: "ReLU"
  bottom: "res4a_branch2b"
  top: "res4a_branch2b"
}
layer {
  name: "res4a_branch2c"
  type: "Convolution"
  bottom: "res4a_branch2b"
  top: "res4a_branch2c"
  param {
    lr_mult: 1
  }
  convolution_param {
    num_output: 1024
    bias_term: false
    pad: 0
    kernel_size: 1
    stride: 1
  }
}
layer {
  name: "bn4a_branch2c"
  type: "BatchNorm"
  bottom: "res4a_branch2c"
  top: "res4a_branch2c"
  param {
    lr_mult: 0
    decay_mult: 0
  }
  param {
    lr_mult: 0
    decay_mult: 0
  }
  param {
    lr_mult: 0
    decay_mult: 0
  }
  batch_norm_param {
    use_global_stats: true
  }
}
layer {
  name: "scale4a_branch2c"
  type: "Scale"
  bottom: "res4a_branch2c"
  top: "res4a_branch2c"
  param {
    lr_mult: 0
    decay_mult: 0
  }
  param {
    lr_mult: 0
    decay_mult: 0
  }
  scale_param {
    bias_term: true
  }
}
layer {
  name: "res4a"
  type: "Eltwise"
  bottom: "res4a_branch1"
  bottom: "res4a_branch2c"
  top: "res4a"
}
layer {
  name: "res4a_relu"
  type: "ReLU"
  bottom: "res4a"
  top: "res4a"
}
layer {
  name: "res4b1_branch2a"
  type: "Convolution"
  bottom: "res4a"
  top: "res4b1_branch2a"
  param {
    lr_mult: 1
  }
  convolution_param {
    num_output: 256
    bias_term: false
    pad: 0
    kernel_size: 1
    stride: 1
  }
}
layer {
  name: "bn4b1_branch2a"
  type: "BatchNorm"
  bottom: "res4b1_branch2a"
  top: "res4b1_branch2a"
  param {
    lr_mult: 0
    decay_mult: 0
  }
  param {
    lr_mult: 0
    decay_mult: 0
  }
  param {
    lr_mult: 0
    decay_mult: 0
  }
  batch_norm_param {
    use_global_stats: true
  }
}
layer {
  name: "scale4b1_branch2a"
  type: "Scale"
  bottom: "res4b1_branch2a"
  top: "res4b1_branch2a"
  param {
    lr_mult: 0
    decay_mult: 0
  }
  param {
    lr_mult: 0
    decay_mult: 0
  }
  scale_param {
    bias_term: true
  }
}
layer {
  name: "res4b1_branch2a_relu"
  type: "ReLU"
  bottom: "res4b1_branch2a"
  top: "res4b1_branch2a"
}
layer {
  name: "res4b1_branch2b"
  type: "Convolution"
  bottom: "res4b1_branch2a"
  top: "res4b1_branch2b"
  param {
    lr_mult: 1
  }
  convolution_param {
    num_output: 256
    bias_term: false
    pad: 1
    kernel_size: 3
    stride: 1
  }
}
layer {
  name: "bn4b1_branch2b"
  type: "BatchNorm"
  bottom: "res4b1_branch2b"
  top: "res4b1_branch2b"
  param {
    lr_mult: 0
    decay_mult: 0
  }
  param {
    lr_mult: 0
    decay_mult: 0
  }
  param {
    lr_mult: 0
    decay_mult: 0
  }
  batch_norm_param {
    use_global_stats: true
  }
}
layer {
  name: "scale4b1_branch2b"
  type: "Scale"
  bottom: "res4b1_branch2b"
  top: "res4b1_branch2b"
  param {
    lr_mult: 0
    decay_mult: 0
  }
  param {
    lr_mult: 0
    decay_mult: 0
  }
  scale_param {
    bias_term: true
  }
}
layer {
  name: "res4b1_branch2b_relu"
  type: "ReLU"
  bottom: "res4b1_branch2b"
  top: "res4b1_branch2b"
}
layer {
  name: "res4b1_branch2c"
  type: "Convolution"
  bottom: "res4b1_branch2b"
  top: "res4b1_branch2c"
  param {
    lr_mult: 1
  }
  convolution_param {
    num_output: 1024
    bias_term: false
    pad: 0
    kernel_size: 1
    stride: 1
  }
}
layer {
  name: "bn4b1_branch2c"
  type: "BatchNorm"
  bottom: "res4b1_branch2c"
  top: "res4b1_branch2c"
  param {
    lr_mult: 0
    decay_mult: 0
  }
  param {
    lr_mult: 0
    decay_mult: 0
  }
  param {
    lr_mult: 0
    decay_mult: 0
  }
  batch_norm_param {
    use_global_stats: true
  }
}
layer {
  name: "scale4b1_branch2c"
  type: "Scale"
  bottom: "res4b1_branch2c"
  top: "res4b1_branch2c"
  param {
    lr_mult: 0
    decay_mult: 0
  }
  param {
    lr_mult: 0
    decay_mult: 0
  }
  scale_param {
    bias_term: true
  }
}
layer {
  name: "res4b1"
  type: "Eltwise"
  bottom: "res4a"
  bottom: "res4b1_branch2c"
  top: "res4b1"
}
layer {
  name: "res4b1_relu"
  type: "ReLU"
  bottom: "res4b1"
  top: "res4b1"
}
layer {
  name: "res4b2_branch2a"
  type: "Convolution"
  bottom: "res4b1"
  top: "res4b2_branch2a"
  param {
    lr_mult: 1
  }
  convolution_param {
    num_output: 256
    bias_term: false
    pad: 0
    kernel_size: 1
    stride: 1
  }
}
layer {
  name: "bn4b2_branch2a"
  type: "BatchNorm"
  bottom: "res4b2_branch2a"
  top: "res4b2_branch2a"
  param {
    lr_mult: 0
    decay_mult: 0
  }
  param {
    lr_mult: 0
    decay_mult: 0
  }
  param {
    lr_mult: 0
    decay_mult: 0
  }
  batch_norm_param {
    use_global_stats: true
  }
}
layer {
  name: "scale4b2_branch2a"
  type: "Scale"
  bottom: "res4b2_branch2a"
  top: "res4b2_branch2a"
  param {
    lr_mult: 0
    decay_mult: 0
  }
  param {
    lr_mult: 0
    decay_mult: 0
  }
  scale_param {
    bias_term: true
  }
}
layer {
  name: "res4b2_branch2a_relu"
  type: "ReLU"
  bottom: "res4b2_branch2a"
  top: "res4b2_branch2a"
}
layer {
  name: "res4b2_branch2b"
  type: "Convolution"
  bottom: "res4b2_branch2a"
  top: "res4b2_branch2b"
  param {
    lr_mult: 1
  }
  convolution_param {
    num_output: 256
    bias_term: false
    pad: 1
    kernel_size: 3
    stride: 1
  }
}
layer {
  name: "bn4b2_branch2b"
  type: "BatchNorm"
  bottom: "res4b2_branch2b"
  top: "res4b2_branch2b"
  param {
    lr_mult: 0
    decay_mult: 0
  }
  param {
    lr_mult: 0
    decay_mult: 0
  }
  param {
    lr_mult: 0
    decay_mult: 0
  }
  batch_norm_param {
    use_global_stats: true
  }
}
layer {
  name: "scale4b2_branch2b"
  type: "Scale"
  bottom: "res4b2_branch2b"
  top: "res4b2_branch2b"
  param {
    lr_mult: 0
    decay_mult: 0
  }
  param {
 
I1030 13:22:48.252301 27292 layer_factory.hpp:77] Creating layer input-data
I1030 13:22:48.273882 27292 net.cpp:100] Creating Layer input-data
I1030 13:22:48.273913 27292 net.cpp:418] input-data -> data
I1030 13:22:48.273926 27292 net.cpp:418] input-data -> im_info
I1030 13:22:48.273934 27292 net.cpp:418] input-data -> gt_boxes
RoiDataLayer: name_to_top: {'gt_boxes': 2, 'data': 0, 'im_info': 1}
I1030 13:23:26.741186 27292 net.cpp:150] Setting up input-data
I1030 13:23:26.741210 27292 net.cpp:157] Top shape: 1 3 600 1000 (1800000)
I1030 13:23:26.741219 27292 net.cpp:157] Top shape: 1 3 (3)
I1030 13:23:26.741225 27292 net.cpp:157] Top shape: 1 4 (4)
I1030 13:23:26.741230 27292 net.cpp:165] Memory required for data: 7200028
I1030 13:23:26.741237 27292 layer_factory.hpp:77] Creating layer data_input-data_0_split
I1030 13:23:26.741251 27292 net.cpp:100] Creating Layer data_input-data_0_split
I1030 13:23:26.741256 27292 net.cpp:444] data_input-data_0_split <- data
I1030 13:23:26.741266 27292 net.cpp:418] data_input-data_0_split -> data_input-data_0_split_0
I1030 13:23:26.741276 27292 net.cpp:418] data_input-data_0_split -> data_input-data_0_split_1
I1030 13:23:26.741307 27292 net.cpp:150] Setting up data_input-data_0_split
I1030 13:23:26.741312 27292 net.cpp:157] Top shape: 1 3 600 1000 (1800000)
I1030 13:23:26.741318 27292 net.cpp:157] Top shape: 1 3 600 1000 (1800000)
I1030 13:23:26.741323 27292 net.cpp:165] Memory required for data: 21600028
I1030 13:23:26.741327 27292 layer_factory.hpp:77] Creating layer im_info_input-data_1_split
I1030 13:23:26.741333 27292 net.cpp:100] Creating Layer im_info_input-data_1_split
I1030 13:23:26.741338 27292 net.cpp:444] im_info_input-data_1_split <- im_info
I1030 13:23:26.741343 27292 net.cpp:418] im_info_input-data_1_split -> im_info_input-data_1_split_0
I1030 13:23:26.741350 27292 net.cpp:418] im_info_input-data_1_split -> im_info_input-data_1_split_1
I1030 13:23:26.741382 27292 net.cpp:150] Setting up im_info_input-data_1_split
I1030 13:23:26.741389 27292 net.cpp:157] Top shape: 1 3 (3)
I1030 13:23:26.741394 27292 net.cpp:157] Top shape: 1 3 (3)
I1030 13:23:26.741397 27292 net.cpp:165] Memory required for data: 21600052
I1030 13:23:26.741401 27292 layer_factory.hpp:77] Creating layer gt_boxes_input-data_2_split
I1030 13:23:26.741406 27292 net.cpp:100] Creating Layer gt_boxes_input-data_2_split
I1030 13:23:26.741411 27292 net.cpp:444] gt_boxes_input-data_2_split <- gt_boxes
I1030 13:23:26.741416 27292 net.cpp:418] gt_boxes_input-data_2_split -> gt_boxes_input-data_2_split_0
I1030 13:23:26.741433 27292 net.cpp:418] gt_boxes_input-data_2_split -> gt_boxes_input-data_2_split_1
I1030 13:23:26.741457 27292 net.cpp:150] Setting up gt_boxes_input-data_2_split
I1030 13:23:26.741463 27292 net.cpp:157] Top shape: 1 4 (4)
I1030 13:23:26.741469 27292 net.cpp:157] Top shape: 1 4 (4)
I1030 13:23:26.741473 27292 net.cpp:165] Memory required for data: 21600084
I1030 13:23:26.741477 27292 layer_factory.hpp:77] Creating layer conv1
I1030 13:23:26.741492 27292 net.cpp:100] Creating Layer conv1
I1030 13:23:26.741495 27292 net.cpp:444] conv1 <- data_input-data_0_split_0
I1030 13:23:26.741502 27292 net.cpp:418] conv1 -> conv1
I1030 13:23:26.742506 27292 net.cpp:150] Setting up conv1
I1030 13:23:26.742522 27292 net.cpp:157] Top shape: 1 64 300 500 (9600000)
I1030 13:23:26.742527 27292 net.cpp:165] Memory required for data: 60000084
I1030 13:23:26.742538 27292 layer_factory.hpp:77] Creating layer bn_conv1
I1030 13:23:26.742549 27292 net.cpp:100] Creating Layer bn_conv1
I1030 13:23:26.742554 27292 net.cpp:444] bn_conv1 <- conv1
I1030 13:23:26.742561 27292 net.cpp:405] bn_conv1 -> conv1 (in-place)
I1030 13:23:26.743120 27292 net.cpp:150] Setting up bn_conv1
I1030 13:23:26.743131 27292 net.cpp:157] Top shape: 1 64 300 500 (9600000)
I1030 13:23:26.743136 27292 net.cpp:165] Memory required for data: 98400084
I1030 13:23:26.743149 27292 layer_factory.hpp:77] Creating layer scale_conv1
I1030 13:23:26.743160 27292 net.cpp:100] Creating Layer scale_conv1
I1030 13:23:26.743165 27292 net.cpp:444] scale_conv1 <- conv1
I1030 13:23:26.743171 27292 net.cpp:405] scale_conv1 -> conv1 (in-place)
I1030 13:23:26.743204 27292 layer_factory.hpp:77] Creating layer scale_conv1
I1030 13:23:26.745057 27292 net.cpp:150] Setting up scale_conv1
I1030 13:23:26.745133 27292 net.cpp:157] Top shape: 1 64 300 500 (9600000)
I1030 13:23:26.745146 27292 net.cpp:165] Memory required for data: 136800084
I1030 13:23:26.745167 27292 layer_factory.hpp:77] Creating layer conv1_relu
I1030 13:23:26.745185 27292 net.cpp:100] Creating Layer conv1_relu
I1030 13:23:26.745200 27292 net.cpp:444] conv1_relu <- conv1
I1030 13:23:26.745208 27292 net.cpp:405] conv1_relu -> conv1 (in-place)
I1030 13:23:26.745218 27292 net.cpp:150] Setting up conv1_relu
I1030 13:23:26.745234 27292 net.cpp:157] Top shape: 1 64 300 500 (9600000)
I1030 13:23:26.745237 27292 net.cpp:165] Memory required for data: 175200084
I1030 13:23:26.745241 27292 layer_factory.hpp:77] Creating layer pool1
I1030 13:23:26.745250 27292 net.cpp:100] Creating Layer pool1
I1030 13:23:26.745254 27292 net.cpp:444] pool1 <- conv1
I1030 13:23:26.745259 27292 net.cpp:418] pool1 -> pool1
I1030 13:23:26.745298 27292 net.cpp:150] Setting up pool1
I1030 13:23:26.745304 27292 net.cpp:157] Top shape: 1 64 150 250 (2400000)
I1030 13:23:26.745309 27292 net.cpp:165] Memory required for data: 184800084
I1030 13:23:26.745313 27292 layer_factory.hpp:77] Creating layer pool1_pool1_0_split
I1030 13:23:26.745321 27292 net.cpp:100] Creating Layer pool1_pool1_0_split
I1030 13:23:26.745326 27292 net.cpp:444] pool1_pool1_0_split <- pool1
I1030 13:23:26.745331 27292 net.cpp:418] pool1_pool1_0_split -> pool1_pool1_0_split_0
I1030 13:23:26.745337 27292 net.cpp:418] pool1_pool1_0_split -> pool1_pool1_0_split_1
I1030 13:23:26.745359 27292 net.cpp:150] Setting up pool1_pool1_0_split
I1030 13:23:26.745364 27292 net.cpp:157] Top shape: 1 64 150 250 (2400000)
I1030 13:23:26.745370 27292 net.cpp:157] Top shape: 1 64 150 250 (2400000)
I1030 13:23:26.745374 27292 net.cpp:165] Memory required for data: 204000084
I1030 13:23:26.745378 27292 layer_factory.hpp:77] Creating layer res2a_branch1
I1030 13:23:26.745388 27292 net.cpp:100] Creating Layer res2a_branch1
I1030 13:23:26.745390 27292 net.cpp:444] res2a_branch1 <- pool1_pool1_0_split_0
I1030 13:23:26.745396 27292 net.cpp:418] res2a_branch1 -> res2a_branch1
I1030 13:23:26.745512 27292 net.cpp:150] Setting up res2a_branch1
I1030 13:23:26.745519 27292 net.cpp:157] Top shape: 1 256 150 250 (9600000)
I1030 13:23:26.745523 27292 net.cpp:165] Memory required for data: 242400084
I1030 13:23:26.745529 27292 layer_factory.hpp:77] Creating layer bn2a_branch1
I1030 13:23:26.745537 27292 net.cpp:100] Creating Layer bn2a_branch1
I1030 13:23:26.745539 27292 net.cpp:444] bn2a_branch1 <- res2a_branch1
I1030 13:23:26.745546 27292 net.cpp:405] bn2a_branch1 -> res2a_branch1 (in-place)
I1030 13:23:26.745990 27292 net.cpp:150] Setting up bn2a_branch1
I1030 13:23:26.746001 27292 net.cpp:157] Top shape: 1 256 150 250 (9600000)
I1030 13:23:26.746004 27292 net.cpp:165] Memory required for data: 280800084
I1030 13:23:26.746016 27292 layer_factory.hpp:77] Creating layer scale2a_branch1
I1030 13:23:26.746023 27292 net.cpp:100] Creating Layer scale2a_branch1
I1030 13:23:26.746028 27292 net.cpp:444] scale2a_branch1 <- res2a_branch1
I1030 13:23:26.746034 27292 net.cpp:405] scale2a_branch1 -> res2a_branch1 (in-place)
I1030 13:23:26.746062 27292 layer_factory.hpp:77] Creating layer scale2a_branch1
I1030 13:23:26.746163 27292 net.cpp:150] Setting up scale2a_branch1
I1030 13:23:26.746170 27292 net.cpp:157] Top shape: 1 256 150 250 (9600000)
I1030 13:23:26.746175 27292 net.cpp:165] Memory required for data: 319200084
I1030 13:23:26.746182 27292 layer_factory.hpp:77] Creating layer res2a_branch2a
I1030 13:23:26.746191 27292 net.cpp:100] Creating Layer res2a_branch2a
I1030 13:23:26.746194 27292 net.cpp:444] res2a_branch2a <- pool1_pool1_0_split_1
I1030 13:23:26.746201 27292 net.cpp:418] res2a_branch2a -> res2a_branch2a
I1030 13:23:26.746595 27292 net.cpp:150] Setting up res2a_branch2a
I1030 13:23:26.746605 27292 net.cpp:157] Top shape: 1 64 150 250 (2400000)
I1030 13:23:26.746608 27292 net.cpp:165] Memory required for data: 328800084
I1030 13:23:26.746614 27292 layer_factory.hpp:77] Creating layer bn2a_branch2a
I1030 13:23:26.746623 27292 net.cpp:100] Creating Layer bn2a_branch2a
I1030 13:23:26.746626 27292 net.cpp:444] bn2a_branch2a <- res2a_branch2a
I1030 13:23:26.746634 27292 net.cpp:405] bn2a_branch2a -> res2a_branch2a (in-place)
I1030 13:23:26.746755 27292 net.cpp:150] Setting up bn2a_branch2a
I1030 13:23:26.746762 27292 net.cpp:157] Top shape: 1 64 150 250 (2400000)
I1030 13:23:26.746767 27292 net.cpp:165] Memory required for data: 338400084
I1030 13:23:26.746775 27292 layer_factory.hpp:77] Creating layer scale2a_branch2a
I1030 13:23:26.746781 27292 net.cpp:100] Creating Layer scale2a_branch2a
I1030 13:23:26.746785 27292 net.cpp:444] scale2a_branch2a <- res2a_branch2a
I1030 13:23:26.746791 27292 net.cpp:405] scale2a_branch2a -> res2a_branch2a (in-place)
I1030 13:23:26.746815 27292 layer_factory.hpp:77] Creating layer scale2a_branch2a
I1030 13:23:26.746922 27292 net.cpp:150] Setting up scale2a_branch2a
I1030 13:23:26.746928 27292 net.cpp:157] Top shape: 1 64 150 250 (2400000)
I1030 13:23:26.746933 27292 net.cpp:165] Memory required for data: 348000084
I1030 13:23:26.746942 27292 layer_factory.hpp:77] Creating layer res2a_branch2a_relu
I1030 13:23:26.746948 27292 net.cpp:100] Creating Layer res2a_branch2a_relu
I1030 13:23:26.746951 27292 net.cpp:444] res2a_branch2a_relu <- res2a_branch2a
I1030 13:23:26.746958 27292 net.cpp:405] res2a_branch2a_relu -> res2a_branch2a (in-place)
I1030 13:23:26.746963 27292 net.cpp:150] Setting up res2a_branch2a_relu
I1030 13:23:26.746968 27292 net.cpp:157] Top shape: 1 64 150 250 (2400000)
I1030 13:23:26.746973 27292 net.cpp:165] Memory required for data: 357600084
I1030 13:23:26.746976 27292 layer_factory.hpp:77] Creating layer res2a_branch2b
I1030 13:23:26.746984 27292 net.cpp:100] Creating Layer res2a_branch2b
I1030 13:23:26.746987 27292 net.cpp:444] res2a_branch2b <- res2a_branch2a
I1030 13:23:26.746994 27292 net.cpp:418] res2a_branch2b -> res2a_branch2b
I1030 13:23:26.747112 27292 net.cpp:150] Setting up res2a_branch2b
I1030 13:23:26.747118 27292 net.cpp:157] Top shape: 1 64 150 250 (2400000)
I1030 13:23:26.747123 27292 net.cpp:165] Memory required for data: 367200084
I1030 13:23:26.747129 27292 layer_factory.hpp:77] Creating layer bn2a_branch2b
I1030 13:23:26.747136 27292 net.cpp:100] Creating Layer bn2a_branch2b
I1030 13:23:26.747140 27292 net.cpp:444] bn2a_branch2b <- res2a_branch2b
I1030 13:23:26.747145 27292 net.cpp:405] bn2a_branch2b -> res2a_branch2b (in-place)
I1030 13:23:26.747557 27292 net.cpp:150] Setting up bn2a_branch2b
I1030 13:23:26.747567 27292 net.cpp:157] Top shape: 1 64 150 250 (2400000)
I1030 13:23:26.747571 27292 net.cpp:165] Memory required for data: 376800084
I1030 13:23:26.747581 27292 layer_factory.hpp:77] Creating layer scale2a_branch2b
I1030 13:23:26.747588 27292 net.cpp:100] Creating Layer scale2a_branch2b
I1030 13:23:26.747592 27292 net.cpp:444] scale2a_branch2b <- res2a_branch2b
I1030 13:23:26.747598 27292 net.cpp:405] scale2a_branch2b -> res2a_branch2b (in-place)
I1030 13:23:26.747624 27292 layer_factory.hpp:77] Creating layer scale2a_branch2b
I1030 13:23:26.747728 27292 net.cpp:150] Setting up scale2a_branch2b
I1030 13:23:26.747735 27292 net.cpp:157] Top shape: 1 64 150 250 (2400000)
I1030 13:23:26.747740 27292 net.cpp:165] Memory required for data: 386400084
I1030 13:23:26.747746 27292 layer_factory.hpp:77] Creating layer res2a_branch2b_relu
I1030 13:23:26.747753 27292 net.cpp:100] Creating Layer res2a_branch2b_relu
I1030 13:23:26.747757 27292 net.cpp:444] res2a_branch2b_relu <- res2a_branch2b
I1030 13:23:26.747762 27292 net.cpp:405] res2a_branch2b_relu -> res2a_branch2b (in-place)
I1030 13:23:26.747769 27292 net.cpp:150] Setting up res2a_branch2b_relu
I1030 13:23:26.747776 27292 net.cpp:157] Top shape: 1 64 150 250 (2400000)
I1030 13:23:26.747778 27292 net.cpp:165] Memory required for data: 396000084
I1030 13:23:26.747782 27292 layer_factory.hpp:77] Creating layer res2a_branch2c
I1030 13:23:26.747791 27292 net.cpp:100] Creating Layer res2a_branch2c
I1030 13:23:26.747793 27292 net.cpp:444] res2a_branch2c <- res2a_branch2b
I1030 13:23:26.747799 27292 net.cpp:418] res2a_branch2c -> res2a_branch2c
I1030 13:23:26.747905 27292 net.cpp:150] Setting up res2a_branch2c
I1030 13:23:26.747912 27292 net.cpp:157] Top shape: 1 256 150 250 (9600000)
I1030 13:23:26.747916 27292 net.cpp:165] Memory required for data: 434400084
I1030 13:23:26.747922 27292 layer_factory.hpp:77] Creating layer bn2a_branch2c
I1030 13:23:26.747930 27292 net.cpp:100] Creating Layer bn2a_branch2c
I1030 13:23:26.747934 27292 net.cpp:444] bn2a_branch2c <- res2a_branch2c
I1030 13:23:26.747941 27292 net.cpp:405] bn2a_branch2c -> res2a_branch2c (in-place)
I1030 13:23:26.748073 27292 net.cpp:150] Setting up bn2a_branch2c
I1030 13:23:26.748080 27292 net.cpp:157] Top shape: 1 256 150 250 (9600000)
I1030 13:23:26.748083 27292 net.cpp:165] Memory required for data: 472800084
I1030 13:23:26.748091 27292 layer_factory.hpp:77] Creating layer scale2a_branch2c
I1030 13:23:26.748098 27292 net.cpp:100] Creating Layer scale2a_branch2c
I1030 13:23:26.748102 27292 net.cpp:444] scale2a_branch2c <- res2a_branch2c
I1030 13:23:26.748108 27292 net.cpp:405] scale2a_branch2c -> res2a_branch2c (in-place)
I1030 13:23:26.748132 27292 layer_factory.hpp:77] Creating layer scale2a_branch2c
I1030 13:23:26.748236 27292 net.cpp:150] Setting up scale2a_branch2c
I1030 13:23:26.748244 27292 net.cpp:157] Top shape: 1 256 150 250 (9600000)
I1030 13:23:26.748247 27292 net.cpp:165] Memory required for data: 511200084
I1030 13:23:26.748255 27292 layer_factory.hpp:77] Creating layer res2a
I1030 13:23:26.748265 27292 net.cpp:100] Creating Layer res2a
I1030 13:23:26.748268 27292 net.cpp:444] res2a <- res2a_branch1
I1030 13:23:26.748273 27292 net.cpp:444] res2a <- res2a_branch2c
I1030 13:23:26.748280 27292 net.cpp:418] res2a -> res2a
I1030 13:23:26.748299 27292 net.cpp:150] Setting up res2a
I1030 13:23:26.748306 27292 net.cpp:157] Top shape: 1 256 150 250 (9600000)
I1030 13:23:26.748309 27292 net.cpp:165] Memory required for data: 549600084
I1030 13:23:26.748313 27292 layer_factory.hpp:77] Creating layer res2a_relu
I1030 13:23:26.748319 27292 net.cpp:100] Creating Layer res2a_relu
I1030 13:23:26.748323 27292 net.cpp:444] res2a_relu <- res2a
I1030 13:23:26.748327 27292 net.cpp:405] res2a_relu -> res2a (in-place)
I1030 13:23:26.748334 27292 net.cpp:150] Setting up res2a_relu
I1030 13:23:26.748339 27292 net.cpp:157] Top shape: 1 256 150 250 (9600000)
I1030 13:23:26.748343 27292 net.cpp:165] Memory required for data: 588000084
I1030 13:23:26.748347 27292 layer_factory.hpp:77] Creating layer res2a_res2a_relu_0_split
I1030 13:23:26.748353 27292 net.cpp:100] Creating Layer res2a_res2a_relu_0_split
I1030 13:23:26.748366 27292 net.cpp:444] res2a_res2a_relu_0_split <- res2a
I1030 13:23:26.748371 27292 net.cpp:418] res2a_res2a_relu_0_split -> res2a_res2a_relu_0_split_0
I1030 13:23:26.748378 27292 net.cpp:418] res2a_res2a_relu_0_split -> res2a_res2a_relu_0_split_1
I1030 13:23:26.748410 27292 net.cpp:150] Setting up res2a_res2a_relu_0_split
I1030 13:23:26.748416 27292 net.cpp:157] Top shape: 1 256 150 250 (9600000)
I1030 13:23:26.748421 27292 net.cpp:157] Top shape: 1 256 150 250 (9600000)
I1030 13:23:26.748425 27292 net.cpp:165] Memory required for data: 664800084
I1030 13:23:26.748430 27292 layer_factory.hpp:77] Creating layer res2b_branch2a
I1030 13:23:26.748437 27292 net.cpp:100] Creating Layer res2b_branch2a
I1030 13:23:26.748440 27292 net.cpp:444] res2b_branch2a <- res2a_res2a_relu_0_split_0
I1030 13:23:26.748446 27292 net.cpp:418] res2b_branch2a -> res2b_branch2a
I1030 13:23:26.748550 27292 net.cpp:150] Setting up res2b_branch2a
I1030 13:23:26.748556 27292 net.cpp:157] Top shape: 1 64 150 250 (2400000)
I1030 13:23:26.748561 27292 net.cpp:165] Memory required for data: 674400084
I1030 13:23:26.748566 27292 layer_factory.hpp:77] Creating layer bn2b_branch2a
I1030 13:23:26.748574 27292 net.cpp:100] Creating Layer bn2b_branch2a
I1030 13:23:26.748577 27292 net.cpp:444] bn2b_branch2a <- res2b_branch2a
I1030 13:23:26.748582 27292 net.cpp:405] bn2b_branch2a -> res2b_branch2a (in-place)
I1030 13:23:26.749048 27292 net.cpp:150] Setting up bn2b_branch2a
I1030 13:23:26.749058 27292 net.cpp:157] Top shape: 1 64 150 250 (2400000)
I1030 13:23:26.749061 27292 net.cpp:165] Memory required for data: 684000084
I1030 13:23:26.749071 27292 layer_factory.hpp:77] Creating layer scale2b_branch2a
I1030 13:23:26.749078 27292 net.cpp:100] Creating Layer scale2b_branch2a
I1030 13:23:26.749083 27292 net.cpp:444] scale2b_branch2a <- res2b_branch2a
I1030 13:23:26.749089 27292 net.cpp:405] scale2b_branch2a -> res2b_branch2a (in-place)
I1030 13:23:26.749116 27292 layer_factory.hpp:77] Creating layer scale2b_branch2a
I1030 13:23:26.749224 27292 net.cpp:150] Setting up scale2b_branch2a
I1030 13:23:26.749231 27292 net.cpp:157] Top shape: 1 64 150 250 (2400000)
I1030 13:23:26.749236 27292 net.cpp:165] Memory required for data: 693600084
I1030 13:23:26.749243 27292 layer_factory.hpp:77] Creating layer res2b_branch2a_relu
I1030 13:23:26.749249 27292 net.cpp:100] Creating Layer res2b_branch2a_relu
I1030 13:23:26.749254 27292 net.cpp:444] res2b_branch2a_relu <- res2b_branch2a
I1030 13:23:26.749259 27292 net.cpp:405] res2b_branch2a_relu -> res2b_branch2a (in-place)
I1030 13:23:26.749267 27292 net.cpp:150] Setting up res2b_branch2a_relu
I1030 13:23:26.749272 27292 net.cpp:157] Top shape: 1 64 150 250 (2400000)
I1030 13:23:26.749276 27292 net.cpp:165] Memory required for data: 703200084
I1030 13:23:26.749279 27292 layer_factory.hpp:77] Creating layer res2b_branch2b
I1030 13:23:26.749287 27292 net.cpp:100] Creating Layer res2b_branch2b
I1030 13:23:26.749291 27292 net.cpp:444] res2b_branch2b <- res2b_branch2a
I1030 13:23:26.749296 27292 net.cpp:418] res2b_branch2b -> res2b_branch2b
I1030 13:23:26.749428 27292 net.cpp:150] Setting up res2b_branch2b
I1030 13:23:26.749434 27292 net.cpp:157] Top shape: 1 64 150 250 (2400000)
I1030 13:23:26.749439 27292 net.cpp:165] Memory required for data: 712800084
I1030 13:23:26.749444 27292 layer_factory.hpp:77] Creating layer bn2b_branch2b
I1030 13:23:26.749452 27292 net.cpp:100] Creating Layer bn2b_branch2b
I1030 13:23:26.749456 27292 net.cpp:444] bn2b_branch2b <- res2b_branch2b
I1030 13:23:26.749472 27292 net.cpp:405] bn2b_branch2b -> res2b_branch2b (in-place)
I1030 13:23:26.749588 27292 net.cpp:150] Setting up bn2b_branch2b
I1030 13:23:26.749595 27292 net.cpp:157] Top shape: 1 64 150 250 (2400000)
I1030 13:23:26.749599 27292 net.cpp:165] Memory required for data: 722400084
I1030 13:23:26.749608 27292 layer_factory.hpp:77] Creating layer scale2b_branch2b
I1030 13:23:26.749614 27292 net.cpp:100] Creating Layer scale2b_branch2b
I1030 13:23:26.749619 27292 net.cpp:444] scale2b_branch2b <- res2b_branch2b
I1030 13:23:26.749624 27292 net.cpp:405] scale2b_branch2b -> res2b_branch2b (in-place)
I1030 13:23:26.749649 27292 layer_factory.hpp:77] Creating layer scale2b_branch2b
I1030 13:23:26.749752 27292 net.cpp:150] Setting up scale2b_branch2b
I1030 13:23:26.749759 27292 net.cpp:157] Top shape: 1 64 150 250 (2400000)
I1030 13:23:26.749763 27292 net.cpp:165] Memory required for data: 732000084
I1030 13:23:26.749769 27292 layer_factory.hpp:77] Creating layer res2b_branch2b_relu
I1030 13:23:26.749775 27292 net.cpp:100] Creating Layer res2b_branch2b_relu
I1030 13:23:26.749780 27292 net.cpp:444] res2b_branch2b_relu <- res2b_branch2b
I1030 13:23:26.749785 27292 net.cpp:405] res2b_branch2b_relu -> res2b_branch2b (in-place)
I1030 13:23:26.749792 27292 net.cpp:150] Setting up res2b_branch2b_relu
I1030 13:23:26.749797 27292 net.cpp:157] Top shape: 1 64 150 250 (2400000)
I1030 13:23:26.749801 27292 net.cpp:165] Memory required for data: 741600084
I1030 13:23:26.749805 27292 layer_factory.hpp:77] Creating layer res2b_branch2c
I1030 13:23:26.749812 27292 net.cpp:100] Creating Layer res2b_branch2c
I1030 13:23:26.749816 27292 net.cpp:444] res2b_branch2c <- res2b_branch2b
I1030 13:23:26.749821 27292 net.cpp:418] res2b_branch2c -> res2b_branch2c
I1030 13:23:26.749928 27292 net.cpp:150] Setting up res2b_branch2c
I1030 13:23:26.749965 27292 net.cpp:157] Top shape: 1 256 150 250 (9600000)
I1030 13:23:26.749969 27292 net.cpp:165] Memory required for data: 780000084
I1030 13:23:26.749975 27292 layer_factory.hpp:77] Creating layer bn2b_branch2c
I1030 13:23:26.749991 27292 net.cpp:100] Creating Layer bn2b_branch2c
I1030 13:23:26.749995 27292 net.cpp:444] bn2b_branch2c <- res2b_branch2c
I1030 13:23:26.750002 27292 net.cpp:405] bn2b_branch2c -> res2b_branch2c (in-place)
I1030 13:23:26.750414 27292 net.cpp:150] Setting up bn2b_branch2c
I1030 13:23:26.750424 27292 net.cpp:157] Top shape: 1 256 150 250 (9600000)
I1030 13:23:26.750428 27292 net.cpp:165] Memory required for data: 818400084
I1030 13:23:26.750437 27292 layer_factory.hpp:77] Creating layer scale2b_branch2c
I1030 13:23:26.750443 27292 net.cpp:100] Creating Layer scale2b_branch2c
I1030 13:23:26.750448 27292 net.cpp:444] scale2b_branch2c <- res2b_branch2c
I1030 13:23:26.750454 27292 net.cpp:405] scale2b_branch2c -> res2b_branch2c (in-place)
I1030 13:23:26.750480 27292 layer_factory.hpp:77] Creating layer scale2b_branch2c
I1030 13:23:26.750586 27292 net.cpp:150] Setting up scale2b_branch2c
I1030 13:23:26.750593 27292 net.cpp:157] Top shape: 1 256 150 250 (9600000)
I1030 13:23:26.750597 27292 net.cpp:165] Memory required for data: 856800084
I1030 13:23:26.750605 27292 layer_factory.hpp:77] Creating layer res2b
I1030 13:23:26.750612 27292 net.cpp:100] Creating Layer res2b
I1030 13:23:26.750617 27292 net.cpp:444] res2b <- res2a_res2a_relu_0_split_1
I1030 13:23:26.750622 27292 net.cpp:444] res2b <- res2b_branch2c
I1030 13:23:26.750628 27292 net.cpp:418] res2b -> res2b
I1030 13:23:26.750645 27292 net.cpp:150] Setting up res2b
I1030 13:23:26.750651 27292 net.cpp:157] Top shape: 1 256 150 250 (9600000)
I1030 13:23:26.750655 27292 net.cpp:165] Memory required for data: 895200084
I1030 13:23:26.750660 27292 layer_factory.hpp:77] Creating layer res2b_relu
I1030 13:23:26.750666 27292 net.cpp:100] Creating Layer res2b_relu
I1030 13:23:26.750670 27292 net.cpp:444] res2b_relu <- res2b
I1030 13:23:26.750675 27292 net.cpp:405] res2b_relu -> res2b (in-place)
I1030 13:23:26.750681 27292 net.cpp:150] Setting up res2b_relu
I1030 13:23:26.750687 27292 net.cpp:157] Top shape: 1 256 150 250 (9600000)
I1030 13:23:26.750691 27292 net.cpp:165] Memory required for data: 933600084
I1030 13:23:26.750696 27292 layer_factory.hpp:77] Creating layer res2b_res2b_relu_0_split
I1030 13:23:26.750702 27292 net.cpp:100] Creating Layer res2b_res2b_relu_0_split
I1030 13:23:26.750706 27292 net.cpp:444] res2b_res2b_relu_0_split <- res2b
I1030 13:23:26.750711 27292 net.cpp:418] res2b_res2b_relu_0_split -> res2b_res2b_relu_0_split_0
I1030 13:23:26.750717 27292 net.cpp:418] res2b_res2b_relu_0_split -> res2b_res2b_relu_0_split_1
I1030 13:23:26.750741 27292 net.cpp:150] Setting up res2b_res2b_relu_0_split
I1030 13:23:26.750746 27292 net.cpp:157] Top shape: 1 256 150 250 (9600000)
I1030 13:23:26.750751 27292 net.cpp:157] Top shape: 1 256 150 250 (9600000)
I1030 13:23:26.750756 27292 net.cpp:165] Memory required for data: 1010400084
I1030 13:23:26.750759 27292 layer_factory.hpp:77] Creating layer res2c_branch2a
I1030 13:23:26.750766 27292 net.cpp:100] Creating Layer res2c_branch2a
I1030 13:23:26.750771 27292 net.cpp:444] res2c_branch2a <- res2b_res2b_relu_0_split_0
I1030 13:23:26.750777 27292 net.cpp:418] res2c_branch2a -> res2c_branch2a
I1030 13:23:26.750886 27292 net.cpp:150] Setting up res2c_branch2a
I1030 13:23:26.750893 27292 net.cpp:157] Top shape: 1 64 150 250 (2400000)
I1030 13:23:26.750898 27292 net.cpp:165] Memory required for data: 1020000084
I1030 13:23:26.750905 27292 layer_factory.hpp:77] Creating layer bn2c_branch2a
I1030 13:23:26.750911 27292 net.cpp:100] Creating Layer bn2c_branch2a
I1030 13:23:26.750916 27292 net.cpp:444] bn2c_branch2a <- res2c_branch2a
I1030 13:23:26.750921 27292 net.cpp:405] bn2c_branch2a -> res2c_branch2a (in-place)
I1030 13:23:26.751044 27292 net.cpp:150] Setting up bn2c_branch2a
I1030 13:23:26.751050 27292 net.cpp:157] Top shape: 1 64 150 250 (2400000)
I1030 13:23:26.751055 27292 net.cpp:165] Memory required for data: 1029600084
I1030 13:23:26.751065 27292 layer_factory.hpp:77] Creating layer scale2c_branch2a
I1030 13:23:26.751070 27292 net.cpp:100] Creating Layer scale2c_branch2a
I1030 13:23:26.751075 27292 net.cpp:444] scale2c_branch2a <- res2c_branch2a
I1030 13:23:26.751080 27292 net.cpp:405] scale2c_branch2a -> res2c_branch2a (in-place)
I1030 13:23:26.751106 27292 layer_factory.hpp:77] Creating layer scale2c_branch2a
I1030 13:23:26.751219 27292 net.cpp:150] Setting up scale2c_branch2a
I1030 13:23:26.751225 27292 net.cpp:157] Top shape: 1 64 150 250 (2400000)
I1030 13:23:26.751230 27292 net.cpp:165] Memory required for data: 1039200084
I1030 13:23:26.751238 27292 layer_factory.hpp:77] Creating layer res2c_branch2a_relu
I1030 13:23:26.751245 27292 net.cpp:100] Creating Layer res2c_branch2a_relu
I1030 13:23:26.751248 27292 net.cpp:444] res2c_branch2a_relu <- res2c_branch2a
I1030 13:23:26.751255 27292 net.cpp:405] res2c_branch2a_relu -> res2c_branch2a (in-place)
I1030 13:23:26.751261 27292 net.cpp:150] Setting up res2c_branch2a_relu
I1030 13:23:26.751266 27292 net.cpp:157] Top shape: 1 64 150 250 (2400000)
I1030 13:23:26.751271 27292 net.cpp:165] Memory required for data: 1048800084
I1030 13:23:26.751274 27292 layer_factory.hpp:77] Creating layer res2c_branch2b
I1030 13:23:26.751282 27292 net.cpp:100] Creating Layer res2c_branch2b
I1030 13:23:26.751286 27292 net.cpp:444] res2c_branch2b <- res2c_branch2a
I1030 13:23:26.751291 27292 net.cpp:418] res2c_branch2b -> res2c_branch2b
I1030 13:23:26.751415 27292 net.cpp:150] Setting up res2c_branch2b
I1030 13:23:26.751421 27292 net.cpp:157] Top shape: 1 64 150 250 (2400000)
I1030 13:23:26.751426 27292 net.cpp:165] Memory required for data: 1058400084
I1030 13:23:26.751432 27292 layer_factory.hpp:77] Creating layer bn2c_branch2b
I1030 13:23:26.751440 27292 net.cpp:100] Creating Layer bn2c_branch2b
I1030 13:23:26.751443 27292 net.cpp:444] bn2c_branch2b <- res2c_branch2b
I1030 13:23:26.751449 27292 net.cpp:405] bn2c_branch2b -> res2c_branch2b (in-place)
I1030 13:23:26.751920 27292 net.cpp:150] Setting up bn2c_branch2b
I1030 13:23:26.751930 27292 net.cpp:157] Top shape: 1 64 150 250 (2400000)
I1030 13:23:26.751935 27292 net.cpp:165] Memory required for data: 1068000084
I1030 13:23:26.751945 27292 layer_factory.hpp:77] Creating layer scale2c_branch2b
I1030 13:23:26.751953 27292 net.cpp:100] Creating Layer scale2c_branch2b
I1030 13:23:26.751958 27292 net.cpp:444] scale2c_branch2b <- res2c_branch2b
I1030 13:23:26.751965 27292 net.cpp:405] scale2c_branch2b -> res2c_branch2b (in-place)
I1030 13:23:26.751999 27292 layer_factory.hpp:77] Creating layer scale2c_branch2b
I1030 13:23:26.752140 27292 net.cpp:150] Setting up scale2c_branch2b
I1030 13:23:26.752147 27292 net.cpp:157] Top shape: 1 64 150 250 (2400000)
I1030 13:23:26.752152 27292 net.cpp:165] Memory required for data: 1077600084
I1030 13:23:26.752161 27292 layer_factory.hpp:77] Creating layer res2c_branch2b_relu
I1030 13:23:26.752166 27292 net.cpp:100] Creating Layer res2c_branch2b_relu
I1030 13:23:26.752171 27292 net.cpp:444] res2c_branch2b_relu <- res2c_branch2b
I1030 13:23:26.752177 27292 net.cpp:405] res2c_branch2b_relu -> res2c_branch2b (in-place)
I1030 13:23:26.752183 27292 net.cpp:150] Setting up res2c_branch2b_relu
I1030 13:23:26.752188 27292 net.cpp:157] Top shape: 1 64 150 250 (2400000)
I1030 13:23:26.752192 27292 net.cpp:165] Memory required for data: 1087200084
I1030 13:23:26.752197 27292 layer_factory.hpp:77] Creating layer res2c_branch2c
I1030 13:23:26.752204 27292 net.cpp:100] Creating Layer res2c_branch2c
I1030 13:23:26.752208 27292 net.cpp:444] res2c_branch2c <- res2c_branch2b
I1030 13:23:26.752214 27292 net.cpp:418] res2c_branch2c -> res2c_branch2c
I1030 13:23:26.752331 27292 net.cpp:150] Setting up res2c_branch2c
I1030 13:23:26.752337 27292 net.cpp:157] Top shape: 1 256 150 250 (9600000)
I1030 13:23:26.752342 27292 net.cpp:165] Memory required for data: 1125600084
I1030 13:23:26.752349 27292 layer_factory.hpp:77] Creating layer bn2c_branch2c
I1030 13:23:26.752357 27292 net.cpp:100] Creating Layer bn2c_branch2c
I1030 13:23:26.752360 27292 net.cpp:444] bn2c_branch2c <- res2c_branch2c
I1030 13:23:26.752367 27292 net.cpp:405] bn2c_branch2c -> res2c_branch2c (in-place)
I1030 13:23:26.752492 27292 net.cpp:150] Setting up bn2c_branch2c
I1030 13:23:26.752498 27292 net.cpp:157] Top shape: 1 256 150 250 (9600000)
I1030 13:23:26.752502 27292 net.cpp:165] Memory required for data: 1164000084
I1030 13:23:26.752511 27292 layer_factory.hpp:77] Creating layer scale2c_branch2c
I1030 13:23:26.752517 27292 net.cpp:100] Creating Layer scale2c_branch2c
I1030 13:23:26.752522 27292 net.cpp:444] scale2c_branch2c <- res2c_branch2c
I1030 13:23:26.752527 27292 net.cpp:405] scale2c_branch2c -> res2c_branch2c (in-place)
I1030 13:23:26.752552 27292 layer_factory.hpp:77] Creating layer scale2c_branch2c
I1030 13:23:26.752665 27292 net.cpp:150] Setting up scale2c_branch2c
I1030 13:23:26.752671 27292 net.cpp:157] Top shape: 1 256 150 250 (9600000)
I1030 13:23:26.752676 27292 net.cpp:165] Memory required for data: 1202400084
I1030 13:23:26.752687 27292 layer_factory.hpp:77] Creating layer res2c
I1030 13:23:26.752693 27292 net.cpp:100] Creating Layer res2c
I1030 13:23:26.752698 27292 net.cpp:444] res2c <- res2b_res2b_relu_0_split_1
I1030 13:23:26.752703 27292 net.cpp:444] res2c <- res2c_branch2c
I1030 13:23:26.752709 27292 net.cpp:418] res2c -> res2c
I1030 13:23:26.752728 27292 net.cpp:150] Setting up res2c
I1030 13:23:26.752734 27292 net.cpp:157] Top shape: 1 256 150 250 (9600000)
I1030 13:23:26.752739 27292 net.cpp:165] Memory required for data: 1240800084
I1030 13:23:26.752744 27292 layer_factory.hpp:77] Creating layer res2c_relu
I1030 13:23:26.752751 27292 net.cpp:100] Creating Layer res2c_relu
I1030 13:23:26.752756 27292 net.cpp:444] res2c_relu <- res2c
I1030 13:23:26.752761 27292 net.cpp:405] res2c_relu -> res2c (in-place)
I1030 13:23:26.752768 27292 net.cpp:150] Setting up res2c_relu
I1030 13:23:26.752774 27292 net.cpp:157] Top shape: 1 256 150 250 (9600000)
I1030 13:23:26.752779 27292 net.cpp:165] Memory required for data: 1279200084
I1030 13:23:26.752782 27292 layer_factory.hpp:77] Creating layer res2c_res2c_relu_0_split
I1030 13:23:26.752790 27292 net.cpp:100] Creating Layer res2c_res2c_relu_0_split
I1030 13:23:26.752794 27292 net.cpp:444] res2c_res2c_relu_0_split <- res2c
I1030 13:23:26.752799 27292 net.cpp:418] res2c_res2c_relu_0_split -> res2c_res2c_relu_0_split_0
I1030 13:23:26.752807 27292 net.cpp:418] res2c_res2c_relu_0_split -> res2c_res2c_relu_0_split_1
I1030 13:23:26.752833 27292 net.cpp:150] Setting up res2c_res2c_relu_0_split
I1030 13:23:26.752840 27292 net.cpp:157] Top shape: 1 256 150 250 (9600000)
I1030 13:23:26.752846 27292 net.cpp:157] Top shape: 1 256 150 250 (9600000)
I1030 13:23:26.752848 27292 net.cpp:165] Memory required for data: 1356000084
I1030 13:23:26.752854 27292 layer_factory.hpp:77] Creating layer res3a_branch1
I1030 13:23:26.752864 27292 net.cpp:100] Creating Layer res3a_branch1
I1030 13:23:26.752868 27292 net.cpp:444] res3a_branch1 <- res2c_res2c_relu_0_split_0
I1030 13:23:26.752874 27292 net.cpp:418] res3a_branch1 -> res3a_branch1
I1030 13:23:26.753530 27292 net.cpp:150] Setting up res3a_branch1
I1030 13:23:26.753540 27292 net.cpp:157] Top shape: 1 512 75 125 (4800000)
I1030 13:23:26.753543 27292 net.cpp:165] Memory required for data: 1375200084
I1030 13:23:26.753549 27292 layer_factory.hpp:77] Creating layer bn3a_branch1
I1030 13:23:26.753557 27292 net.cpp:100] Creating Layer bn3a_branch1
I1030 13:23:26.753561 27292 net.cpp:444] bn3a_branch1 <- res3a_branch1
I1030 13:23:26.753568 27292 net.cpp:405] bn3a_branch1 -> res3a_branch1 (in-place)
I1030 13:23:26.753981 27292 net.cpp:150] Setting up bn3a_branch1
I1030 13:23:26.753991 27292 net.cpp:157] Top shape: 1 512 75 125 (4800000)
I1030 13:23:26.753995 27292 net.cpp:165] Memory required for data: 1394400084
I1030 13:23:26.754004 27292 layer_factory.hpp:77] Creating layer scale3a_branch1
I1030 13:23:26.754011 27292 net.cpp:100] Creating Layer scale3a_branch1
I1030 13:23:26.754016 27292 net.cpp:444] scale3a_branch1 <- res3a_branch1
I1030 13:23:26.754022 27292 net.cpp:405] scale3a_branch1 -> res3a_branch1 (in-place)
I1030 13:23:26.754047 27292 layer_factory.hpp:77] Creating layer scale3a_branch1
I1030 13:23:26.754125 27292 net.cpp:150] Setting up scale3a_branch1
I1030 13:23:26.754132 27292 net.cpp:157] Top shape: 1 512 75 125 (4800000)
I1030 13:23:26.754137 27292 net.cpp:165] Memory required for data: 1413600084
I1030 13:23:26.754144 27292 layer_factory.hpp:77] Creating layer res3a_branch2a
I1030 13:23:26.754153 27292 net.cpp:100] Creating Layer res3a_branch2a
I1030 13:23:26.754156 27292 net.cpp:444] res3a_branch2a <- res2c_res2c_relu_0_split_1
I1030 13:23:26.754163 27292 net.cpp:418] res3a_branch2a -> res3a_branch2a
I1030 13:23:26.754288 27292 net.cpp:150] Setting up res3a_branch2a
I1030 13:23:26.754295 27292 net.cpp:157] Top shape: 1 128 75 125 (1200000)
I1030 13:23:26.754299 27292 net.cpp:165] Memory required for data: 1418400084
I1030 13:23:26.754305 27292 layer_factory.hpp:77] Creating layer bn3a_branch2a
I1030 13:23:26.754312 27292 net.cpp:100] Creating Layer bn3a_branch2a
I1030 13:23:26.754317 27292 net.cpp:444] bn3a_branch2a <- res3a_branch2a
I1030 13:23:26.754323 27292 net.cpp:405] bn3a_branch2a -> res3a_branch2a (in-place)
I1030 13:23:26.754426 27292 net.cpp:150] Setting up bn3a_branch2a
I1030 13:23:26.754431 27292 net.cpp:157] Top shape: 1 128 75 125 (1200000)
I1030 13:23:26.754436 27292 net.cpp:165] Memory required for data: 1423200084
I1030 13:23:26.754443 27292 layer_factory.hpp:77] Creating layer scale3a_branch2a
I1030 13:23:26.754451 27292 net.cpp:100] Creating Layer scale3a_branch2a
I1030 13:23:26.754454 27292 net.cpp:444] scale3a_branch2a <- res3a_branch2a
I1030 13:23:26.754461 27292 net.cpp:405] scale3a_branch2a -> res3a_branch2a (in-place)
I1030 13:23:26.754485 27292 layer_factory.hpp:77] Creating layer scale3a_branch2a
I1030 13:23:26.754560 27292 net.cpp:150] Setting up scale3a_branch2a
I1030 13:23:26.754566 27292 net.cpp:157] Top shape: 1 128 75 125 (1200000)
I1030 13:23:26.754571 27292 net.cpp:165] Memory required for data: 1428000084
I1030 13:23:26.754578 27292 layer_factory.hpp:77] Creating layer res3a_branch2a_relu
I1030 13:23:26.754585 27292 net.cpp:100] Creating Layer res3a_branch2a_relu
I1030 13:23:26.754590 27292 net.cpp:444] res3a_branch2a_relu <- res3a_branch2a
I1030 13:23:26.754595 27292 net.cpp:405] res3a_branch2a_relu -> res3a_branch2a (in-place)
I1030 13:23:26.754602 27292 net.cpp:150] Setting up res3a_branch2a_relu
I1030 13:23:26.754607 27292 net.cpp:157] Top shape: 1 128 75 125 (1200000)
I1030 13:23:26.754611 27292 net.cpp:165] Memory required for data: 1432800084
I1030 13:23:26.754616 27292 layer_factory.hpp:77] Creating layer res3a_branch2b
I1030 13:23:26.754622 27292 net.cpp:100] Creating Layer res3a_branch2b
I1030 13:23:26.754627 27292 net.cpp:444] res3a_branch2b <- res3a_branch2a
I1030 13:23:26.754633 27292 net.cpp:418] res3a_branch2b -> res3a_branch2b
I1030 13:23:26.755110 27292 net.cpp:150] Setting up res3a_branch2b
I1030 13:23:26.755120 27292 net.cpp:157] Top shape: 1 128 75 125 (1200000)
I1030 13:23:26.755125 27292 net.cpp:165] Memory required for data: 1437600084
I1030 13:23:26.755129 27292 layer_factory.hpp:77] Creating layer bn3a_branch2b
I1030 13:23:26.755136 27292 net.cpp:100] Creating Layer bn3a_branch2b
I1030 13:23:26.755141 27292 net.cpp:444] bn3a_branch2b <- res3a_branch2b
I1030 13:23:26.755146 27292 net.cpp:405] bn3a_branch2b -> res3a_branch2b (in-place)
I1030 13:23:26.755275 27292 net.cpp:150] Setting up bn3a_branch2b
I1030 13:23:26.755280 27292 net.cpp:157] Top shape: 1 128 75 125 (1200000)
I1030 13:23:26.755285 27292 net.cpp:165] Memory required for data: 1442400084
I1030 13:23:26.755295 27292 layer_factory.hpp:77] Creating layer scale3a_branch2b
I1030 13:23:26.755302 27292 net.cpp:100] Creating Layer scale3a_branch2b
I1030 13:23:26.755306 27292 net.cpp:444] scale3a_branch2b <- res3a_branch2b
I1030 13:23:26.755313 27292 net.cpp:405] scale3a_branch2b -> res3a_branch2b (in-place)
I1030 13:23:26.755340 27292 layer_factory.hpp:77] Creating layer scale3a_branch2b
I1030 13:23:26.755442 27292 net.cpp:150] Setting up scale3a_branch2b
I1030 13:23:26.755450 27292 net.cpp:157] Top shape: 1 128 75 125 (1200000)
I1030 13:23:26.755455 27292 net.cpp:165] Memory required for data: 1447200084
I1030 13:23:26.755465 27292 layer_factory.hpp:77] Creating layer res3a_branch2b_relu
I1030 13:23:26.755476 27292 net.cpp:100] Creating Layer res3a_branch2b_relu
I1030 13:23:26.755481 27292 net.cpp:444] res3a_branch2b_relu <- res3a_branch2b
I1030 13:23:26.755487 27292 net.cpp:405] res3a_branch2b_relu -> res3a_branch2b (in-place)
I1030 13:23:26.755496 27292 net.cpp:150] Setting up res3a_branch2b_relu
I1030 13:23:26.755501 27292 net.cpp:157] Top shape: 1 128 75 125 (1200000)
I1030 13:23:26.755506 27292 net.cpp:165] Memory required for data: 1452000084
I1030 13:23:26.755512 27292 layer_factory.hpp:77] Creating layer res3a_branch2c
I1030 13:23:26.755524 27292 net.cpp:100] Creating Layer res3a_branch2c
I1030 13:23:26.755530 27292 net.cpp:444] res3a_branch2c <- res3a_branch2b
I1030 13:23:26.755538 27292 net.cpp:418] res3a_branch2c -> res3a_branch2c
I1030 13:23:26.756285 27292 net.cpp:150] Setting up res3a_branch2c
I1030 13:23:26.756297 27292 net.cpp:157] Top shape: 1 512 75 125 (4800000)
I1030 13:23:26.756300 27292 net.cpp:165] Memory required for data: 1471200084
I1030 13:23:26.756307 27292 layer_factory.hpp:77] Creating layer bn3a_branch2c
I1030 13:23:26.756315 27292 net.cpp:100] Creating Layer bn3a_branch2c
I1030 13:23:26.756319 27292 net.cpp:444] bn3a_branch2c <- res3a_branch2c
I1030 13:23:26.756326 27292 net.cpp:405] bn3a_branch2c -> res3a_branch2c (in-place)
I1030 13:23:26.756444 27292 net.cpp:150] Setting up bn3a_branch2c
I1030 13:23:26.756451 27292 net.cpp:157] Top shape: 1 512 75 125 (4800000)
I1030 13:23:26.756455 27292 net.cpp:165] Memory required for data: 1490400084
I1030 13:23:26.756464 27292 layer_factory.hpp:77] Creating layer scale3a_branch2c
I1030 13:23:26.756471 27292 net.cpp:100] Creating Layer scale3a_branch2c
I1030 13:23:26.756476 27292 net.cpp:444] scale3a_branch2c <- res3a_branch2c
I1030 13:23:26.756481 27292 net.cpp:405] scale3a_branch2c -> res3a_branch2c (in-place)
I1030 13:23:26.756507 27292 layer_factory.hpp:77] Creating layer scale3a_branch2c
I1030 13:23:26.756592 27292 net.cpp:150] Setting up scale3a_branch2c
I1030 13:23:26.756598 27292 net.cpp:157] Top shape: 1 512 75 125 (4800000)
I1030 13:23:26.756603 27292 net.cpp:165] Memory required for data: 1509600084
I1030 13:23:26.756609 27292 layer_factory.hpp:77] Creating layer res3a
I1030 13:23:26.756616 27292 net.cpp:100] Creating Layer res3a
I1030 13:23:26.756620 27292 net.cpp:444] res3a <- res3a_branch1
I1030 13:23:26.756626 27292 net.cpp:444] res3a <- res3a_branch2c
I1030 13:23:26.756631 27292 net.cpp:418] res3a -> res3a
I1030 13:23:26.756649 27292 net.cpp:150] Setting up res3a
I1030 13:23:26.756655 27292 net.cpp:157] Top shape: 1 512 75 125 (4800000)
I1030 13:23:26.756660 27292 net.cpp:165] Memory required for data: 1528800084
I1030 13:23:26.756664 27292 layer_factory.hpp:77] Creating layer res3a_relu
I1030 13:23:26.756671 27292 net.cpp:100] Creating Layer res3a_relu
I1030 13:23:26.756676 27292 net.cpp:444] res3a_relu <- res3a
I1030 13:23:26.756681 27292 net.cpp:405] res3a_relu -> res3a (in-place)
I1030 13:23:26.756687 27292 net.cpp:150] Setting up res3a_relu
I1030 13:23:26.756693 27292 net.cpp:157] Top shape: 1 512 75 125 (4800000)
I1030 13:23:26.756697 27292 net.cpp:165] Memory required for data: 1548000084
I1030 13:23:26.756702 27292 layer_factory.hpp:77] Creating layer res3a_res3a_relu_0_split
I1030 13:23:26.756709 27292 net.cpp:100] Creating Layer res3a_res3a_relu_0_split
I1030 13:23:26.756713 27292 net.cpp:444] res3a_res3a_relu_0_split <- res3a
I1030 13:23:26.756718 27292 net.cpp:418] res3a_res3a_relu_0_split -> res3a_res3a_relu_0_split_0
I1030 13:23:26.756726 27292 net.cpp:418] res3a_res3a_relu_0_split -> res3a_res3a_relu_0_split_1
I1030 13:23:26.756749 27292 net.cpp:150] Setting up res3a_res3a_relu_0_split
I1030 13:23:26.756755 27292 net.cpp:157] Top shape: 1 512 75 125 (4800000)
I1030 13:23:26.756760 27292 net.cpp:157] Top shape: 1 512 75 125 (4800000)
I1030 13:23:26.756764 27292 net.cpp:165] Memory required for data: 1586400084
I1030 13:23:26.756768 27292 layer_factory.hpp:77] Creating layer res3b1_branch2a
I1030 13:23:26.756777 27292 net.cpp:100] Creating Layer res3b1_branch2a
I1030 13:23:26.756780 27292 net.cpp:444] res3b1_branch2a <- res3a_res3a_relu_0_split_0
I1030 13:23:26.756786 27292 net.cpp:418] res3b1_branch2a -> res3b1_branch2a
I1030 13:23:26.756937 27292 net.cpp:150] Setting up res3b1_branch2a
I1030 13:23:26.756948 27292 net.cpp:157] Top shape: 1 128 75 125 (1200000)
I1030 13:23:26.756953 27292 net.cpp:165] Memory required for data: 1591200084
I1030 13:23:26.756960 27292 layer_factory.hpp:77] Creating layer bn3b1_branch2a
I1030 13:23:26.756973 27292 net.cpp:100] Creating Layer bn3b1_branch2a
I1030 13:23:26.756978 27292 net.cpp:444] bn3b1_branch2a <- res3b1_branch2a
I1030 13:23:26.756988 27292 net.cpp:405] bn3b1_branch2a -> res3b1_branch2a (in-place)
I1030 13:23:26.757135 27292 net.cpp:150] Setting up bn3b1_branch2a
I1030 13:23:26.757144 27292 net.cpp:157] Top shape: 1 128 75 125 (1200000)
I1030 13:23:26.757149 27292 net.cpp:165] Memory required for data: 1596000084
I1030 13:23:26.757159 27292 layer_factory.hpp:77] Creating layer scale3b1_branch2a
I1030 13:23:26.757170 27292 net.cpp:100] Creating Layer scale3b1_branch2a
I1030 13:23:26.757174 27292 net.cpp:444] scale3b1_branch2a <- res3b1_branch2a
I1030 13:23:26.757184 27292 net.cpp:405] scale3b1_branch2a -> res3b1_branch2a (in-place)
I1030 13:23:26.757217 27292 layer_factory.hpp:77] Creating layer scale3b1_branch2a
I1030 13:23:26.757330 27292 net.cpp:150] Setting up scale3b1_branch2a
I1030 13:23:26.757339 27292 net.cpp:157] Top shape: 1 128 75 125 (1200000)
I1030 13:23:26.757344 27292 net.cpp:165] Memory required for data: 1600800084
I1030 13:23:26.757352 27292 layer_factory.hpp:77] Creating layer res3b1_branch2a_relu
I1030 13:23:26.757361 27292 net.cpp:100] Creating Layer res3b1_branch2a_relu
I1030 13:23:26.757365 27292 net.cpp:444] res3b1_branch2a_relu <- res3b1_branch2a
I1030 13:23:26.757374 27292 net.cpp:405] res3b1_branch2a_relu -> res3b1_branch2a (in-place)
I1030 13:23:26.757380 27292 net.cpp:150] Setting up res3b1_branch2a_relu
I1030 13:23:26.757386 27292 net.cpp:157] Top shape: 1 128 75 125 (1200000)
I1030 13:23:26.757391 27292 net.cpp:165] Memory required for data: 1605600084
I1030 13:23:26.757396 27292 layer_factory.hpp:77] Creating layer res3b1_branch2b
I1030 13:23:26.757408 27292 net.cpp:100] Creating Layer res3b1_branch2b
I1030 13:23:26.757412 27292 net.cpp:444] res3b1_branch2b <- res3b1_branch2a
I1030 13:23:26.757421 27292 net.cpp:418] res3b1_branch2b -> res3b1_branch2b
I1030 13:23:26.758527 27292 net.cpp:150] Setting up res3b1_branch2b
I1030 13:23:26.758546 27292 net.cpp:157] Top shape: 1 128 75 125 (1200000)
I1030 13:23:26.758550 27292 net.cpp:165] Memory required for data: 1610400084
I1030 13:23:26.758568 27292 layer_factory.hpp:77] Creating layer bn3b1_branch2b
I1030 13:23:26.758577 27292 net.cpp:100] Creating Layer bn3b1_branch2b
I1030 13:23:26.758582 27292 net.cpp:444] bn3b1_branch2b <- res3b1_branch2b
I1030 13:23:26.758589 27292 net.cpp:405] bn3b1_branch2b -> res3b1_branch2b (in-place)
I1030 13:23:26.758711 27292 net.cpp:150] Setting up bn3b1_branch2b
I1030 13:23:26.758718 27292 net.cpp:157] Top shape: 1 128 75 125 (1200000)
I1030 13:23:26.758723 27292 net.cpp:165] Memory required for data: 1615200084
I1030 13:23:26.758733 27292 layer_factory.hpp:77] Creating layer scale3b1_branch2b
I1030 13:23:26.758739 27292 net.cpp:100] Creating Layer scale3b1_branch2b
I1030 13:23:26.758744 27292 net.cpp:444] scale3b1_branch2b <- res3b1_branch2b
I1030 13:23:26.758749 27292 net.cpp:405] scale3b1_branch2b -> res3b1_branch2b (in-place)
I1030 13:23:26.758777 27292 layer_factory.hpp:77] Creating layer scale3b1_branch2b
I1030 13:23:26.759176 27292 net.cpp:150] Setting up scale3b1_branch2b
I1030 13:23:26.759186 27292 net.cpp:157] Top shape: 1 128 75 125 (1200000)
I1030 13:23:26.759189 27292 net.cpp:165] Memory required for data: 1620000084
I1030 13:23:26.759196 27292 layer_factory.hpp:77] Creating layer res3b1_branch2b_relu
I1030 13:23:26.759203 27292 net.cpp:100] Creating Layer res3b1_branch2b_relu
I1030 13:23:26.759208 27292 net.cpp:444] res3b1_branch2b_relu <- res3b1_branch2b
I1030 13:23:26.759214 27292 net.cpp:405] res3b1_branch2b_relu -> res3b1_branch2b (in-place)
I1030 13:23:26.759222 27292 net.cpp:150] Setting up res3b1_branch2b_relu
I1030 13:23:26.759227 27292 net.cpp:157] Top shape: 1 128 75 125 (1200000)
I1030 13:23:26.759232 27292 net.cpp:165] Memory required for data: 1624800084
I1030 13:23:26.759234 27292 layer_factory.hpp:77] Creating layer res3b1_branch2c
I1030 13:23:26.759243 27292 net.cpp:100] Creating Layer res3b1_branch2c
I1030 13:23:26.759248 27292 net.cpp:444] res3b1_branch2c <- res3b1_branch2b
I1030 13:23:26.759253 27292 net.cpp:418] res3b1_branch2c -> res3b1_branch2c
I1030 13:23:26.759400 27292 net.cpp:150] Setting up res3b1_branch2c
I1030 13:23:26.759407 27292 net.cpp:157] Top shape: 1 512 75 125 (4800000)
I1030 13:23:26.759412 27292 net.cpp:165] Memory required for data: 1644000084
I1030 13:23:26.759418 27292 layer_factory.hpp:77] Creating layer bn3b1_branch2c
I1030 13:23:26.759424 27292 net.cpp:100] Creating Layer bn3b1_branch2c
I1030 13:23:26.759428 27292 net.cpp:444] bn3b1_branch2c <- res3b1_branch2c
I1030 13:23:26.759434 27292 net.cpp:405] bn3b1_branch2c -> res3b1_branch2c (in-place)
I1030 13:23:26.759589 27292 net.cpp:150] Setting up bn3b1_branch2c
I1030 13:23:26.759596 27292 net.cpp:157] Top shape: 1 512 75 125 (4800000)
I1030 13:23:26.759600 27292 net.cpp:165] Memory required for data: 1663200084
I1030 13:23:26.759608 27292 layer_factory.hpp:77] Creating layer scale3b1_branch2c
I1030 13:23:26.759616 27292 net.cpp:100] Creating Layer scale3b1_branch2c
I1030 13:23:26.759620 27292 net.cpp:444] scale3b1_branch2c <- res3b1_branch2c
I1030 13:23:26.759625 27292 net.cpp:405] scale3b1_branch2c -> res3b1_branch2c (in-place)
I1030 13:23:26.759650 27292 layer_factory.hpp:77] Creating layer scale3b1_branch2c
I1030 13:23:26.759724 27292 net.cpp:150] Setting up scale3b1_branch2c
I1030 13:23:26.759732 27292 net.cpp:157] Top shape: 1 512 75 125 (4800000)
I1030 13:23:26.759737 27292 net.cpp:165] Memory required for data: 1682400084
I1030 13:23:26.759743 27292 layer_factory.hpp:77] Creating layer res3b1
I1030 13:23:26.759750 27292 net.cpp:100] Creating Layer res3b1
I1030 13:23:26.759754 27292 net.cpp:444] res3b1 <- res3a_res3a_relu_0_split_1
I1030 13:23:26.759760 27292 net.cpp:444] res3b1 <- res3b1_branch2c
I1030 13:23:26.759766 27292 net.cpp:418] res3b1 -> res3b1
I1030 13:23:26.759784 27292 net.cpp:150] Setting up res3b1
I1030 13:23:26.759789 27292 net.cpp:157] Top shape: 1 512 75 125 (4800000)
I1030 13:23:26.759793 27292 net.cpp:165] Memory required for data: 1701600084
I1030 13:23:26.759796 27292 layer_factory.hpp:77] Creating layer res3b1_relu
I1030 13:23:26.759802 27292 net.cpp:100] Creating Layer res3b1_relu
I1030 13:23:26.759806 27292 net.cpp:444] res3b1_relu <- res3b1
I1030 13:23:26.759811 27292 net.cpp:405] res3b1_relu -> res3b1 (in-place)
I1030 13:23:26.759817 27292 net.cpp:150] Setting up res3b1_relu
I1030 13:23:26.759824 27292 net.cpp:157] Top shape: 1 512 75 125 (4800000)
I1030 13:23:26.759826 27292 net.cpp:165] Memory required for data: 1720800084
I1030 13:23:26.759830 27292 layer_factory.hpp:77] Creating layer res3b1_res3b1_relu_0_split
I1030 13:23:26.759836 27292 net.cpp:100] Creating Layer res3b1_res3b1_relu_0_split
I1030 13:23:26.759840 27292 net.cpp:444] res3b1_res3b1_relu_0_split <- res3b1
I1030 13:23:26.759845 27292 net.cpp:418] res3b1_res3b1_relu_0_split -> res3b1_res3b1_relu_0_split_0
I1030 13:23:26.759851 27292 net.cpp:418] res3b1_res3b1_relu_0_split -> res3b1_res3b1_relu_0_split_1
I1030 13:23:26.759876 27292 net.cpp:150] Setting up res3b1_res3b1_relu_0_split
I1030 13:23:26.759881 27292 net.cpp:157] Top shape: 1 512 75 125 (4800000)
I1030 13:23:26.759886 27292 net.cpp:157] Top shape: 1 512 75 125 (4800000)
I1030 13:23:26.759891 27292 net.cpp:165] Memory required for data: 1759200084
I1030 13:23:26.759894 27292 layer_factory.hpp:77] Creating layer res3b2_branch2a
I1030 13:23:26.759902 27292 net.cpp:100] Creating Layer res3b2_branch2a
I1030 13:23:26.759905 27292 net.cpp:444] res3b2_branch2a <- res3b1_res3b1_relu_0_split_0
I1030 13:23:26.759912 27292 net.cpp:418] res3b2_branch2a -> res3b2_branch2a
I1030 13:23:26.760067 27292 net.cpp:150] Setting up res3b2_branch2a
I1030 13:23:26.760074 27292 net.cpp:157] Top shape: 1 128 75 125 (1200000)
I1030 13:23:26.760077 27292 net.cpp:165] Memory required for data: 1764000084
I1030 13:23:26.760083 27292 layer_factory.hpp:77] Creating layer bn3b2_branch2a
I1030 13:23:26.760090 27292 net.cpp:100] Creating Layer bn3b2_branch2a
I1030 13:23:26.760094 27292 net.cpp:444] bn3b2_branch2a <- res3b2_branch2a
I1030 13:23:26.760100 27292 net.cpp:405] bn3b2_branch2a -> res3b2_branch2a (in-place)
I1030 13:23:26.760207 27292 net.cpp:150] Setting up bn3b2_branch2a
I1030 13:23:26.760213 27292 net.cpp:157] Top shape: 1 128 75 125 (1200000)
I1030 13:23:26.760217 27292 net.cpp:165] Memory required for data: 1768800084
I1030 13:23:26.760226 27292 layer_factory.hpp:77] Creating layer scale3b2_branch2a
I1030 13:23:26.760232 27292 net.cpp:100] Creating Layer scale3b2_branch2a
I1030 13:23:26.760236 27292 net.cpp:444] scale3b2_branch2a <- res3b2_branch2a
I1030 13:23:26.760241 27292 net.cpp:405] scale3b2_branch2a -> res3b2_branch2a (in-place)
I1030 13:23:26.760267 27292 layer_factory.hpp:77] Creating layer scale3b2_branch2a
I1030 13:23:26.760339 27292 net.cpp:150] Setting up scale3b2_branch2a
I1030 13:23:26.760345 27292 net.cpp:157] Top shape: 1 128 75 125 (1200000)
I1030 13:23:26.760350 27292 net.cpp:165] Memory required for data: 1773600084
I1030 13:23:26.760359 27292 layer_factory.hpp:77] Creating layer res3b2_branch2a_relu
I1030 13:23:26.760365 27292 net.cpp:100] Creating Layer res3b2_branch2a_relu
I1030 13:23:26.760368 27292 net.cpp:444] res3b2_branch2a_relu <- res3b2_branch2a
I1030 13:23:26.760375 27292 net.cpp:405] res3b2_branch2a_relu -> res3b2_branch2a (in-place)
I1030 13:23:26.760380 27292 net.cpp:150] Setting up res3b2_branch2a_relu
I1030 13:23:26.760386 27292 net.cpp:157] Top shape: 1 128 75 125 (1200000)
I1030 13:23:26.760390 27292 net.cpp:165] Memory required for data: 1778400084
I1030 13:23:26.760393 27292 layer_factory.hpp:77] Creating layer res3b2_branch2b
I1030 13:23:26.760401 27292 net.cpp:100] Creating Layer res3b2_branch2b
I1030 13:23:26.760404 27292 net.cpp:444] res3b2_branch2b <- res3b2_branch2a
I1030 13:23:26.760411 27292 net.cpp:418] res3b2_branch2b -> res3b2_branch2b
I1030 13:23:26.760907 27292 net.cpp:150] Setting up res3b2_branch2b
I1030 13:23:26.760916 27292 net.cpp:157] Top shape: 1 128 75 125 (1200000)
I1030 13:23:26.760921 27292 net.cpp:165] Memory required for data: 1783200084
I1030 13:23:26.760926 27292 layer_factory.hpp:77] Creating layer bn3b2_branch2b
I1030 13:23:26.760933 27292 net.cpp:100] Creating Layer bn3b2_branch2b
I1030 13:23:26.760938 27292 net.cpp:444] bn3b2_branch2b <- res3b2_branch2b
I1030 13:23:26.760943 27292 net.cpp:405] bn3b2_branch2b -> res3b2_branch2b (in-place)
I1030 13:23:26.761052 27292 net.cpp:150] Setting up bn3b2_branch2b
I1030 13:23:26.761059 27292 net.cpp:157] Top shape: 1 128 75 125 (1200000)
I1030 13:23:26.761062 27292 net.cpp:165] Memory required for data: 1788000084
I1030 13:23:26.761070 27292 layer_factory.hpp:77] Creating layer scale3b2_branch2b
I1030 13:23:26.761076 27292 net.cpp:100] Creating Layer scale3b2_branch2b
I1030 13:23:26.761081 27292 net.cpp:444] scale3b2_branch2b <- res3b2_branch2b
I1030 13:23:26.761087 27292 net.cpp:405] scale3b2_branch2b -> res3b2_branch2b (in-place)
I1030 13:23:26.761113 27292 layer_factory.hpp:77] Creating layer scale3b2_branch2b
I1030 13:23:26.761188 27292 net.cpp:150] Setting up scale3b2_branch2b
I1030 13:23:26.761194 27292 net.cpp:157] Top shape: 1 128 75 125 (1200000)
I1030 13:23:26.761199 27292 net.cpp:165] Memory required for data: 1792800084
I1030 13:23:26.761206 27292 layer_factory.hpp:77] Creating layer res3b2_branch2b_relu
I1030 13:23:26.761212 27292 net.cpp:100] Creating Layer res3b2_branch2b_relu
I1030 13:23:26.761217 27292 net.cpp:444] res3b2_branch2b_relu <- res3b2_branch2b
I1030 13:23:26.761222 27292 net.cpp:405] res3b2_branch2b_relu -> res3b2_branch2b (in-place)
I1030 13:23:26.761229 27292 net.cpp:150] Setting up res3b2_branch2b_relu
I1030 13:23:26.761234 27292 net.cpp:157] Top shape: 1 128 75 125 (1200000)
I1030 13:23:26.761239 27292 net.cpp:165] Memory required for data: 1797600084
I1030 13:23:26.761242 27292 layer_factory.hpp:77] Creating layer res3b2_branch2c
I1030 13:23:26.761250 27292 net.cpp:100] Creating Layer res3b2_branch2c
I1030 13:23:26.761253 27292 net.cpp:444] res3b2_branch2c <- res3b2_branch2b
I1030 13:23:26.761260 27292 net.cpp:418] res3b2_branch2c -> res3b2_branch2c
I1030 13:23:26.761723 27292 net.cpp:150] Setting up res3b2_branch2c
I1030 13:23:26.761732 27292 net.cpp:157] Top shape: 1 512 75 125 (4800000)
I1030 13:23:26.761735 27292 net.cpp:165] Memory required for data: 1816800084
I1030 13:23:26.761744 27292 layer_factory.hpp:77] Creating layer bn3b2_branch2c
I1030 13:23:26.761750 27292 net.cpp:100] Creating Layer bn3b2_branch2c
I1030 13:23:26.761755 27292 net.cpp:444] bn3b2_branch2c <- res3b2_branch2c
I1030 13:23:26.761761 27292 net.cpp:405] bn3b2_branch2c -> res3b2_branch2c (in-place)
I1030 13:23:26.761873 27292 net.cpp:150] Setting up bn3b2_branch2c
I1030 13:23:26.761880 27292 net.cpp:157] Top shape: 1 512 75 125 (4800000)
I1030 13:23:26.761884 27292 net.cpp:165] Memory required for data: 1836000084
I1030 13:23:26.761893 27292 layer_factory.hpp:77] Creating layer scale3b2_branch2c
I1030 13:23:26.761899 27292 net.cpp:100] Creating Layer scale3b2_branch2c
I1030 13:23:26.761904 27292 net.cpp:444] scale3b2_branch2c <- res3b2_branch2c
I1030 13:23:26.761910 27292 net.cpp:405] scale3b2_branch2c -> res3b2_branch2c (in-place)
I1030 13:23:26.761945 27292 layer_factory.hpp:77] Creating layer scale3b2_branch2c
I1030 13:23:26.762027 27292 net.cpp:150] Setting up scale3b2_branch2c
I1030 13:23:26.762033 27292 net.cpp:157] Top shape: 1 512 75 125 (4800000)
I1030 13:23:26.762038 27292 net.cpp:165] Memory required for data: 1855200084
I1030 13:23:26.762046 27292 layer_factory.hpp:77] Creating layer res3b2
I1030 13:23:26.762053 27292 net.cpp:100] Creating Layer res3b2
I1030 13:23:26.762058 27292 net.cpp:444] res3b2 <- res3b1_res3b1_relu_0_split_1
I1030 13:23:26.762063 27292 net.cpp:444] res3b2 <- res3b2_branch2c
I1030 13:23:26.762068 27292 net.cpp:418] res3b2 -> res3b2
I1030 13:23:26.762086 27292 net.cpp:150] Setting up res3b2
I1030 13:23:26.762092 27292 net.cpp:157] Top shape: 1 512 75 125 (4800000)
I1030 13:23:26.762096 27292 net.cpp:165] Memory required for data: 1874400084
I1030 13:23:26.762101 27292 layer_factory.hpp:77] Creating layer res3b2_relu
I1030 13:23:26.762107 27292 net.cpp:100] Creating Layer res3b2_relu
I1030 13:23:26.762111 27292 net.cpp:444] res3b2_relu <- res3b2
I1030 13:23:26.762117 27292 net.cpp:405] res3b2_relu -> res3b2 (in-place)
I1030 13:23:26.762125 27292 net.cpp:150] Setting up res3b2_relu
I1030 13:23:26.762130 27292 net.cpp:157] Top shape: 1 512 75 125 (4800000)
I1030 13:23:26.762133 27292 net.cpp:165] Memory required for data: 1893600084
I1030 13:23:26.762138 27292 layer_factory.hpp:77] Creating layer res3b2_res3b2_relu_0_split
I1030 13:23:26.762145 27292 net.cpp:100] Creating Layer res3b2_res3b2_relu_0_split
I1030 13:23:26.762147 27292 net.cpp:444] res3b2_res3b2_relu_0_split <- res3b2
I1030 13:23:26.762153 27292 net.cpp:418] res3b2_res3b2_relu_0_split -> res3b2_res3b2_relu_0_split_0
I1030 13:23:26.762161 27292 net.cpp:418] res3b2_res3b2_relu_0_split -> res3b2_res3b2_relu_0_split_1
I1030 13:23:26.762184 27292 net.cpp:150] Setting up res3b2_res3b2_relu_0_split
I1030 13:23:26.762190 27292 net.cpp:157] Top shape: 1 512 75 125 (4800000)
I1030 13:23:26.762195 27292 net.cpp:157] Top shape: 1 512 75 125 (4800000)
I1030 13:23:26.762199 27292 net.cpp:165] Memory required for data: 1932000084
I1030 13:23:26.762203 27292 layer_factory.hpp:77] Creating layer res3b3_branch2a
I1030 13:23:26.762212 27292 net.cpp:100] Creating Layer res3b3_branch2a
I1030 13:23:26.762215 27292 net.cpp:444] res3b3_branch2a <- res3b2_res3b2_relu_0_split_0
I1030 13:23:26.762220 27292 net.cpp:418] res3b3_branch2a -> res3b3_branch2a
I1030 13:23:26.762362 27292 net.cpp:150] Setting up res3b3_branch2a
I1030 13:23:26.762369 27292 net.cpp:157] Top shape: 1 128 75 125 (1200000)
I1030 13:23:26.762373 27292 net.cpp:165] Memory required for data: 1936800084
I1030 13:23:26.762380 27292 layer_factory.hpp:77] Creating layer bn3b3_branch2a
I1030 13:23:26.762387 27292 net.cpp:100] Creating Layer bn3b3_branch2a
I1030 13:23:26.762392 27292 net.cpp:444] bn3b3_branch2a <- res3b3_branch2a
I1030 13:23:26.762398 27292 net.cpp:405] bn3b3_branch2a -> res3b3_branch2a (in-place)
I1030 13:23:26.762506 27292 net.cpp:150] Setting up bn3b3_branch2a
I1030 13:23:26.762511 27292 net.cpp:157] Top shape: 1 128 75 125 (1200000)
I1030 13:23:26.762516 27292 net.cpp:165] Memory required for data: 1941600084
I1030 13:23:26.762528 27292 layer_factory.hpp:77] Creating layer scale3b3_branch2a
I1030 13:23:26.762536 27292 net.cpp:100] Creating Layer scale3b3_branch2a
I1030 13:23:26.762539 27292 net.cpp:444] scale3b3_branch2a <- res3b3_branch2a
I1030 13:23:26.762545 27292 net.cpp:405] scale3b3_branch2a -> res3b3_branch2a (in-place)
I1030 13:23:26.762572 27292 layer_factory.hpp:77] Creating layer scale3b3_branch2a
I1030 13:23:26.762645 27292 net.cpp:150] Setting up scale3b3_branch2a
I1030 13:23:26.762651 27292 net.cpp:157] Top shape: 1 128 75 125 (1200000)
I1030 13:23:26.762656 27292 net.cpp:165] Memory required for data: 1946400084
I1030 13:23:26.762663 27292 layer_factory.hpp:77] Creating layer res3b3_branch2a_relu
I1030 13:23:26.762670 27292 net.cpp:100] Creating Layer res3b3_branch2a_relu
I1030 13:23:26.762675 27292 net.cpp:444] res3b3_branch2a_relu <- res3b3_branch2a
I1030 13:23:26.762679 27292 net.cpp:405] res3b3_branch2a_relu -> res3b3_branch2a (in-place)
I1030 13:23:26.762686 27292 net.cpp:150] Setting up res3b3_branch2a_relu
I1030 13:23:26.762691 27292 net.cpp:157] Top shape: 1 128 75 125 (1200000)
I1030 13:23:26.762696 27292 net.cpp:165] Memory required for data: 1951200084
I1030 13:23:26.762701 27292 layer_factory.hpp:77] Creating layer res3b3_branch2b
I1030 13:23:26.762707 27292 net.cpp:100] Creating Layer res3b3_branch2b
I1030 13:23:26.762712 27292 net.cpp:444] res3b3_branch2b <- res3b3_branch2a
I1030 13:23:26.762717 27292 net.cpp:418] res3b3_branch2b -> res3b3_branch2b
I1030 13:23:26.763206 27292 net.cpp:150] Setting up res3b3_branch2b
I1030 13:23:26.763216 27292 net.cpp:157] Top shape: 1 128 75 125 (1200000)
I1030 13:23:26.763219 27292 net.cpp:165] Memory required for data: 1956000084
I1030 13:23:26.763226 27292 layer_factory.hpp:77] Creating layer bn3b3_branch2b
I1030 13:23:26.763232 27292 net.cpp:100] Creating Layer bn3b3_branch2b
I1030 13:23:26.763237 27292 net.cpp:444] bn3b3_branch2b <- res3b3_branch2b
I1030 13:23:26.763243 27292 net.cpp:405] bn3b3_branch2b -> res3b3_branch2b (in-place)
I1030 13:23:26.763352 27292 net.cpp:150] Setting up bn3b3_branch2b
I1030 13:23:26.763358 27292 net.cpp:157] Top shape: 1 128 75 125 (1200000)
I1030 13:23:26.763363 27292 net.cpp:165] Memory required for data: 1960800084
I1030 13:23:26.763371 27292 layer_factory.hpp:77] Creating layer scale3b3_branch2b
I1030 13:23:26.763378 27292 net.cpp:100] Creating Layer scale3b3_branch2b
I1030 13:23:26.763382 27292 net.cpp:444] scale3b3_branch2b <- res3b3_branch2b
I1030 13:23:26.763388 27292 net.cpp:405] scale3b3_branch2b -> res3b3_branch2b (in-place)
I1030 13:23:26.763414 27292 layer_factory.hpp:77] Creating layer scale3b3_branch2b
I1030 13:23:26.763489 27292 net.cpp:150] Setting up scale3b3_branch2b
I1030 13:23:26.763495 27292 net.cpp:157] Top shape: 1 128 75 125 (1200000)
I1030 13:23:26.763499 27292 net.cpp:165] Memory required for data: 1965600084
I1030 13:23:26.763507 27292 layer_factory.hpp:77] Creating layer res3b3_branch2b_relu
I1030 13:23:26.763514 27292 net.cpp:100] Creating Layer res3b3_branch2b_relu
I1030 13:23:26.763517 27292 net.cpp:444] res3b3_branch2b_relu <- res3b3_branch2b
I1030 13:23:26.763533 27292 net.cpp:405] res3b3_branch2b_relu -> res3b3_branch2b (in-place)
I1030 13:23:26.763540 27292 net.cpp:150] Setting up res3b3_branch2b_relu
I1030 13:23:26.763545 27292 net.cpp:157] Top shape: 1 128 75 125 (1200000)
I1030 13:23:26.763550 27292 net.cpp:165] Memory required for data: 1970400084
I1030 13:23:26.763555 27292 layer_factory.hpp:77] Creating layer res3b3_branch2c
I1030 13:23:26.763562 27292 net.cpp:100] Creating Layer res3b3_branch2c
I1030 13:23:26.763566 27292 net.cpp:444] res3b3_branch2c <- res3b3_branch2b
I1030 13:23:26.763571 27292 net.cpp:418] res3b3_branch2c -> res3b3_branch2c
I1030 13:23:26.763720 27292 net.cpp:150] Setting up res3b3_branch2c
I1030 13:23:26.763726 27292 net.cpp:157] Top shape: 1 512 75 125 (4800000)
I1030 13:23:26.763731 27292 net.cpp:165] Memory required for data: 1989600084
I1030 13:23:26.763736 27292 layer_factory.hpp:77] Creating layer bn3b3_branch2c
I1030 13:23:26.763743 27292 net.cpp:100] Creating Layer bn3b3_branch2c
I1030 13:23:26.763747 27292 net.cpp:444] bn3b3_branch2c <- res3b3_branch2c
I1030 13:23:26.763752 27292 net.cpp:405] bn3b3_branch2c -> res3b3_branch2c (in-place)
I1030 13:23:26.763865 27292 net.cpp:150] Setting up bn3b3_branch2c
I1030 13:23:26.763871 27292 net.cpp:157] Top shape: 1 512 75 125 (4800000)
I1030 13:23:26.763876 27292 net.cpp:165] Memory required for data: 2008800084
I1030 13:23:26.763885 27292 layer_factory.hpp:77] Creating layer scale3b3_branch2c
I1030 13:23:26.763891 27292 net.cpp:100] Creating Layer scale3b3_branch2c
I1030 13:23:26.763895 27292 net.cpp:444] scale3b3_branch2c <- res3b3_branch2c
I1030 13:23:26.763900 27292 net.cpp:405] scale3b3_branch2c -> res3b3_branch2c (in-place)
I1030 13:23:26.763924 27292 layer_factory.hpp:77] Creating layer scale3b3_branch2c
I1030 13:23:26.764003 27292 net.cpp:150] Setting up scale3b3_branch2c
I1030 13:23:26.764009 27292 net.cpp:157] Top shape: 1 512 75 125 (4800000)
I1030 13:23:26.764014 27292 net.cpp:165] Memory required for data: 2028000084
I1030 13:23:26.764021 27292 layer_factory.hpp:77] Creating layer res3b3
I1030 13:23:26.764027 27292 net.cpp:100] Creating Layer res3b3
I1030 13:23:26.764032 27292 net.cpp:444] res3b3 <- res3b2_res3b2_relu_0_split_1
I1030 13:23:26.764037 27292 net.cpp:444] res3b3 <- res3b3_branch2c
I1030 13:23:26.764044 27292 net.cpp:418] res3b3 -> res3b3
I1030 13:23:26.764061 27292 net.cpp:150] Setting up res3b3
I1030 13:23:26.764067 27292 net.cpp:157] Top shape: 1 512 75 125 (4800000)
I1030 13:23:26.764071 27292 net.cpp:165] Memory required for data: 2047200084
I1030 13:23:26.764076 27292 layer_factory.hpp:77] Creating layer res3b3_relu
I1030 13:23:26.764082 27292 net.cpp:100] Creating Layer res3b3_relu
I1030 13:23:26.764087 27292 net.cpp:444] res3b3_relu <- res3b3
I1030 13:23:26.764092 27292 net.cpp:405] res3b3_relu -> res3b3 (in-place)
I1030 13:23:26.764097 27292 net.cpp:150] Setting up res3b3_relu
I1030 13:23:26.764103 27292 net.cpp:157] Top shape: 1 512 75 125 (4800000)
I1030 13:23:26.764107 27292 net.cpp:165] Memory required for data: 2066400084
I1030 13:23:26.764112 27292 layer_factory.hpp:77] Creating layer res3b3_res3b3_relu_0_split
I1030 13:23:26.764118 27292 net.cpp:100] Creating Layer res3b3_res3b3_relu_0_split
I1030 13:23:26.764122 27292 net.cpp:444] res3b3_res3b3_relu_0_split <- res3b3
I1030 13:23:26.764127 27292 net.cpp:418] res3b3_res3b3_relu_0_split -> res3b3_res3b3_relu_0_split_0
I1030 13:23:26.764134 27292 net.cpp:418] res3b3_res3b3_relu_0_split -> res3b3_res3b3_relu_0_split_1
I1030 13:23:26.764158 27292 net.cpp:150] Setting up res3b3_res3b3_relu_0_split
I1030 13:23:26.764163 27292 net.cpp:157] Top shape: 1 512 75 125 (4800000)
I1030 13:23:26.764169 27292 net.cpp:157] Top shape: 1 512 75 125 (4800000)
I1030 13:23:26.764173 27292 net.cpp:165] Memory required for data: 2104800084
I1030 13:23:26.764178 27292 layer_factory.hpp:77] Creating layer res4a_branch1
I1030 13:23:26.764184 27292 net.cpp:100] Creating Layer res4a_branch1
I1030 13:23:26.764189 27292 net.cpp:444] res4a_branch1 <- res3b3_res3b3_relu_0_split_0
I1030 13:23:26.764194 27292 net.cpp:418] res4a_branch1 -> res4a_branch1
I1030 13:23:26.765094 27292 net.cpp:150] Setting up res4a_branch1
I1030 13:23:26.765105 27292 net.cpp:157] Top shape: 1 1024 38 63 (2451456)
I1030 13:23:26.765108 27292 net.cpp:165] Memory required for data: 2114605908
I1030 13:23:26.765115 27292 layer_factory.hpp:77] Creating layer bn4a_branch1
I1030 13:23:26.765122 27292 net.cpp:100] Creating Layer bn4a_branch1
I1030 13:23:26.765126 27292 net.cpp:444] bn4a_branch1 <- res4a_branch1
I1030 13:23:26.765133 27292 net.cpp:405] bn4a_branch1 -> res4a_branch1 (in-place)
I1030 13:23:26.765246 27292 net.cpp:150] Setting up bn4a_branch1
I1030 13:23:26.765254 27292 net.cpp:157] Top shape: 1 1024 38 63 (2451456)
I1030 13:23:26.765257 27292 net.cpp:165] Memory required for data: 2124411732
I1030 13:23:26.765266 27292 layer_factory.hpp:77] Creating layer scale4a_branch1
I1030 13:23:26.765274 27292 net.cpp:100] Creating Layer scale4a_branch1
I1030 13:23:26.765278 27292 net.cpp:444] scale4a_branch1 <- res4a_branch1
I1030 13:23:26.765285 27292 net.cpp:405] scale4a_branch1 -> res4a_branch1 (in-place)
I1030 13:23:26.765316 27292 layer_factory.hpp:77] Creating layer scale4a_branch1
I1030 13:23:26.765410 27292 net.cpp:150] Setting up scale4a_branch1
I1030 13:23:26.765419 27292 net.cpp:157] Top shape: 1 1024 38 63 (2451456)
I1030 13:23:26.765424 27292 net.cpp:165] Memory required for data: 2134217556
I1030 13:23:26.765430 27292 layer_factory.hpp:77] Creating layer res4a_branch2a
I1030 13:23:26.765439 27292 net.cpp:100] Creating Layer res4a_branch2a
I1030 13:23:26.765444 27292 net.cpp:444] res4a_branch2a <- res3b3_res3b3_relu_0_split_1
I1030 13:23:26.765450 27292 net.cpp:418] res4a_branch2a -> res4a_branch2a
I1030 13:23:26.765717 27292 net.cpp:150] Setting up res4a_branch2a
I1030 13:23:26.765724 27292 net.cpp:157] Top shape: 1 256 38 63 (612864)
I1030 13:23:26.765728 27292 net.cpp:165] Memory required for data: 2136669012
I1030 13:23:26.765734 27292 layer_factory.hpp:77] Creating layer bn4a_branch2a
I1030 13:23:26.765741 27292 net.cpp:100] Creating Layer bn4a_branch2a
I1030 13:23:26.765746 27292 net.cpp:444] bn4a_branch2a <- res4a_branch2a
I1030 13:23:26.765753 27292 net.cpp:405] bn4a_branch2a -> res4a_branch2a (in-place)
I1030 13:23:26.765866 27292 net.cpp:150] Setting up bn4a_branch2a
I1030 13:23:26.765872 27292 net.cpp:157] Top shape: 1 256 38 63 (612864)
I1030 13:23:26.765877 27292 net.cpp:165] Memory required for data: 2139120468
I1030 13:23:26.765884 27292 layer_factory.hpp:77] Creating layer scale4a_branch2a
I1030 13:23:26.765892 27292 net.cpp:100] Creating Layer scale4a_branch2a
I1030 13:23:26.765895 27292 net.cpp:444] scale4a_branch2a <- res4a_branch2a
I1030 13:23:26.765902 27292 net.cpp:405] scale4a_branch2a -> res4a_branch2a (in-place)
I1030 13:23:26.765929 27292 layer_factory.hpp:77] Creating layer scale4a_branch2a
I1030 13:23:26.766031 27292 net.cpp:150] Setting up scale4a_branch2a
I1030 13:23:26.766037 27292 net.cpp:157] Top shape: 1 256 38 63 (612864)
I1030 13:23:26.766042 27292 net.cpp:165] Memory required for data: 2141571924
I1030 13:23:26.766049 27292 layer_factory.hpp:77] Creating layer res4a_branch2a_relu
I1030 13:23:26.766055 27292 net.cpp:100] Creating Layer res4a_branch2a_relu
I1030 13:23:26.766060 27292 net.cpp:444] res4a_branch2a_relu <- res4a_branch2a
I1030 13:23:26.766067 27292 net.cpp:405] res4a_branch2a_relu -> res4a_branch2a (in-place)
I1030 13:23:26.766072 27292 net.cpp:150] Setting up res4a_branch2a_relu
I1030 13:23:26.766078 27292 net.cpp:157] Top shape: 1 256 38 63 (612864)
I1030 13:23:26.766083 27292 net.cpp:165] Memory required for data: 2144023380
I1030 13:23:26.766086 27292 layer_factory.hpp:77] Creating layer res4a_branch2b
I1030 13:23:26.766094 27292 net.cpp:100] Creating Layer res4a_branch2b
I1030 13:23:26.766098 27292 net.cpp:444] res4a_branch2b <- res4a_branch2a
I1030 13:23:26.766104 27292 net.cpp:418] res4a_branch2b -> res4a_branch2b
I1030 13:23:26.767469 27292 net.cpp:150] Setting up res4a_branch2b
I1030 13:23:26.767482 27292 net.cpp:157] Top shape: 1 256 38 63 (612864)
I1030 13:23:26.767485 27292 net.cpp:165] Memory required for data: 2146474836
I1030 13:23:26.767491 27292 layer_factory.hpp:77] Creating layer bn4a_branch2b
I1030 13:23:26.767500 27292 net.cpp:100] Creating Layer bn4a_branch2b
I1030 13:23:26.767505 27292 net.cpp:444] bn4a_branch2b <- res4a_branch2b
I1030 13:23:26.767513 27292 net.cpp:405] bn4a_branch2b -> res4a_branch2b (in-place)
I1030 13:23:26.767623 27292 net.cpp:150] Setting up bn4a_branch2b
I1030 13:23:26.767630 27292 net.cpp:157] Top shape: 1 256 38 63 (612864)
I1030 13:23:26.767635 27292 net.cpp:165] Memory required for data: 2148926292
I1030 13:23:26.767643 27292 layer_factory.hpp:77] Creating layer scale4a_branch2b
I1030 13:23:26.767650 27292 net.cpp:100] Creating Layer scale4a_branch2b
I1030 13:23:26.767654 27292 net.cpp:444] scale4a_branch2b <- res4a_branch2b
I1030 13:23:26.767660 27292 net.cpp:405] scale4a_branch2b -> res4a_branch2b (in-place)
I1030 13:23:26.767688 27292 layer_factory.hpp:77] Creating layer scale4a_branch2b
I1030 13:23:26.767755 27292 net.cpp:150] Setting up scale4a_branch2b
I1030 13:23:26.767760 27292 net.cpp:157] Top shape: 1 256 38 63 (612864)
I1030 13:23:26.767765 27292 net.cpp:165] Memory required for data: 2151377748
I1030 13:23:26.767771 27292 layer_factory.hpp:77] Creating layer res4a_branch2b_relu
I1030 13:23:26.767777 27292 net.cpp:100] Creating Layer res4a_branch2b_relu
I1030 13:23:26.767781 27292 net.cpp:444] res4a_branch2b_relu <- res4a_branch2b
I1030 13:23:26.767787 27292 net.cpp:405] res4a_branch2b_relu -> res4a_branch2b (in-place)
I1030 13:23:26.767794 27292 net.cpp:150] Setting up res4a_branch2b_relu
I1030 13:23:26.767799 27292 net.cpp:157] Top shape: 1 256 38 63 (612864)
I1030 13:23:26.767803 27292 net.cpp:165] Memory required for data: 2153829204
I1030 13:23:26.767807 27292 layer_factory.hpp:77] Creating layer res4a_branch2c
I1030 13:23:26.767814 27292 net.cpp:100] Creating Layer res4a_branch2c
I1030 13:23:26.767818 27292 net.cpp:444] res4a_branch2c <- res4a_branch2b
I1030 13:23:26.767824 27292 net.cpp:418] res4a_branch2c -> res4a_branch2c
I1030 13:23:26.768395 27292 net.cpp:150] Setting up res4a_branch2c
I1030 13:23:26.768405 27292 net.cpp:157] Top shape: 1 1024 38 63 (2451456)
I1030 13:23:26.768409 27292 net.cpp:165] Memory required for data: 2163635028
I1030 13:23:26.768414 27292 layer_factory.hpp:77] Creating layer bn4a_branch2c
I1030 13:23:26.768422 27292 net.cpp:100] Creating Layer bn4a_branch2c
I1030 13:23:26.768426 27292 net.cpp:444] bn4a_branch2c <- res4a_branch2c
I1030 13:23:26.768432 27292 net.cpp:405] bn4a_branch2c -> res4a_branch2c (in-place)
I1030 13:23:26.768556 27292 net.cpp:150] Setting up bn4a_branch2c
I1030 13:23:26.768563 27292 net.cpp:157] Top shape: 1 1024 38 63 (2451456)
I1030 13:23:26.768568 27292 net.cpp:165] Memory required for data: 2173440852
I1030 13:23:26.768575 27292 layer_factory.hpp:77] Creating layer scale4a_branch2c
I1030 13:23:26.768594 27292 net.cpp:100] Creating Layer scale4a_branch2c
I1030 13:23:26.768597 27292 net.cpp:444] scale4a_branch2c <- res4a_branch2c
I1030 13:23:26.768602 27292 net.cpp:405] scale4a_branch2c -> res4a_branch2c (in-place)
I1030 13:23:26.768630 27292 layer_factory.hpp:77] Creating layer scale4a_branch2c
I1030 13:23:26.768704 27292 net.cpp:150] Setting up scale4a_branch2c
I1030 13:23:26.768712 27292 net.cpp:157] Top shape: 1 1024 38 63 (2451456)
I1030 13:23:26.768715 27292 net.cpp:165] Memory required for data: 2183246676
I1030 13:23:26.768723 27292 layer_factory.hpp:77] Creating layer res4a
I1030 13:23:26.768738 27292 net.cpp:100] Creating Layer res4a
I1030 13:23:26.768741 27292 net.cpp:444] res4a <- res4a_branch1
I1030 13:23:26.768748 27292 net.cpp:444] res4a <- res4a_branch2c
I1030 13:23:26.768754 27292 net.cpp:418] res4a -> res4a
I1030 13:23:26.768779 27292 net.cpp:150] Setting up res4a
I1030 13:23:26.768786 27292 net.cpp:157] Top shape: 1 1024 38 63 (2451456)
I1030 13:23:26.768791 27292 net.cpp:165] Memory required for data: 2193052500
I1030 13:23:26.768798 27292 layer_factory.hpp:77] Creating layer res4a_relu
I1030 13:23:26.768810 27292 net.cpp:100] Creating Layer res4a_relu
I1030 13:23:26.768813 27292 net.cpp:444] res4a_relu <- res4a
I1030 13:23:26.768821 27292 net.cpp:405] res4a_relu -> res4a (in-place)
I1030 13:23:26.768828 27292 net.cpp:150] Setting up res4a_relu
I1030 13:23:26.768834 27292 net.cpp:157] Top shape: 1 1024 38 63 (2451456)
I1030 13:23:26.768841 27292 net.cpp:165] Memory required for data: 2202858324
I1030 13:23:26.768844 27292 layer_factory.hpp:77] Creating layer res4a_res4a_relu_0_split
I1030 13:23:26.768857 27292 net.cpp:100] Creating Layer res4a_res4a_relu_0_split
I1030 13:23:26.768862 27292 net.cpp:444] res4a_res4a_relu_0_split <- res4a
I1030 13:23:26.768870 27292 net.cpp:418] res4a_res4a_relu_0_split -> res4a_res4a_relu_0_split_0
I1030 13:23:26.768878 27292 net.cpp:418] res4a_res4a_relu_0_split -> res4a_res4a_relu_0_split_1
I1030 13:23:26.768914 27292 net.cpp:150] Setting up res4a_res4a_relu_0_split
I1030 13:23:26.768923 27292 net.cpp:157] Top shape: 1 1024 38 63 (2451456)
I1030 13:23:26.768929 27292 net.cpp:157] Top shape: 1 1024 38 63 (2451456)
I1030 13:23:26.768934 27292 net.cpp:165] Memory required for data: 2222469972
I1030 13:23:26.768939 27292 layer_factory.hpp:77] Creating layer res4b1_branch2a
I1030 13:23:26.768952 27292 net.cpp:100] Creating Layer res4b1_branch2a
I1030 13:23:26.768959 27292 net.cpp:444] res4b1_branch2a <- res4a_res4a_relu_0_split_0
I1030 13:23:26.768966 27292 net.cpp:418] res4b1_branch2a -> res4b1_branch2a
I1030 13:23:26.769892 27292 net.cpp:150] Setting up res4b1_branch2a
I1030 13:23:26.769906 27292 net.cpp:157] Top shape: 1 256 38 63 (612864)
I1030 13:23:26.769909 27292 net.cpp:165] Memory required for data: 2224921428
I1030 13:23:26.769915 27292 layer_factory.hpp:77] Creating layer bn4b1_branch2a
I1030 13:23:26.769924 27292 net.cpp:100] Creating Layer bn4b1_branch2a
I1030 13:23:26.769928 27292 net.cpp:444] bn4b1_branch2a <- res4b1_branch2a
I1030 13:23:26.769943 27292 net.cpp:405] bn4b1_branch2a -> res4b1_branch2a (in-place)
I1030 13:23:26.770062 27292 net.cpp:150] Setting up bn4b1_branch2a
I1030 13:23:26.770069 27292 net.cpp:157] Top shape: 1 256 38 63 (612864)
I1030 13:23:26.770074 27292 net.cpp:165] Memory required for data: 2227372884
I1030 13:23:26.770083 27292 layer_factory.hpp:77] Creating layer scale4b1_branch2a
I1030 13:23:26.770092 27292 net.cpp:100] Creating Layer scale4b1_branch2a
I1030 13:23:26.770095 27292 net.cpp:444] scale4b1_branch2a <- res4b1_branch2a
I1030 13:23:26.770102 27292 net.cpp:405] scale4b1_branch2a -> res4b1_branch2a (in-place)
I1030 13:23:26.770129 27292 layer_factory.hpp:77] Creating layer scale4b1_branch2a
I1030 13:23:26.770200 27292 net.cpp:150] Setting up scale4b1_branch2a
I1030 13:23:26.770207 27292 net.cpp:157] Top shape: 1 256 38 63 (612864)
I1030 13:23:26.770211 27292 net.cpp:165] Memory required for data: 2229824340
I1030 13:23:26.770220 27292 layer_factory.hpp:77] Creating layer res4b1_branch2a_relu
I1030 13:23:26.770226 27292 net.cpp:100] Creating Layer res4b1_branch2a_relu
I1030 13:23:26.770229 27292 net.cpp:444] res4b1_branch2a_relu <- res4b1_branch2a
I1030 13:23:26.770234 27292 net.cpp:405] res4b1_branch2a_relu -> res4b1_branch2a (in-place)
I1030 13:23:26.770241 27292 net.cpp:150] Setting up res4b1_branch2a_relu
I1030 13:23:26.770247 27292 net.cpp:157] Top shape: 1 256 38 63 (612864)
I1030 13:23:26.770251 27292 net.cpp:165] Memory required for data: 2232275796
I1030 13:23:26.770256 27292 layer_factory.hpp:77] Creating layer res4b1_branch2b
I1030 13:23:26.770262 27292 net.cpp:100] Creating Layer res4b1_branch2b
I1030 13:23:26.770267 27292 net.cpp:444] res4b1_branch2b <- res4b1_branch2a
I1030 13:23:26.770272 27292 net.cpp:418] res4b1_branch2b -> res4b1_branch2b
I1030 13:23:26.772367 27292 net.cpp:150] Setting up res4b1_branch2b
I1030 13:23:26.772393 27292 net.cpp:157] Top shape: 1 256 38 63 (612864)
I1030 13:23:26.772397 27292 net.cpp:165] Memory required for data: 2234727252
I1030 13:23:26.772405 27292 layer_factory.hpp:77] Creating layer bn4b1_branch2b
I1030 13:23:26.772416 27292 net.cpp:100] Creating Layer bn4b1_branch2b
I1030 13:23:26.772423 27292 net.cpp:444] bn4b1_branch2b <- res4b1_branch2b
I1030 13:23:26.772429 27292 net.cpp:405] bn4b1_branch2b -> res4b1_branch2b (in-place)
I1030 13:23:26.772549 27292 net.cpp:150] Setting up bn4b1_branch2b
I1030 13:23:26.772565 27292 net.cpp:157] Top shape: 1 256 38 63 (612864)
I1030 13:23:26.772570 27292 net.cpp:165] Memory required for data: 2237178708
I1030 13:23:26.772589 27292 layer_factory.hpp:77] Creating layer scale4b1_branch2b
I1030 13:23:26.772598 27292 net.cpp:100] Creating Layer scale4b1_branch2b
I1030 13:23:26.772601 27292 net.cpp:444] scale4b1_branch2b <- res4b1_branch2b
I1030 13:23:26.772606 27292 net.cpp:405] scale4b1_branch2b -> res4b1_branch2b (in-place)
I1030 13:23:26.772653 27292 layer_factory.hpp:77] Creating layer scale4b1_branch2b
I1030 13:23:26.772722 27292 net.cpp:150] Setting up scale4b1_branch2b
I1030 13:23:26.772728 27292 net.cpp:157] Top shape: 1 256 38 63 (612864)
I1030 13:23:26.772732 27292 net.cpp:165] Memory required for data: 2239630164
I1030 13:23:26.772740 27292 layer_factory.hpp:77] Creating layer res4b1_branch2b_relu
I1030 13:23:26.772747 27292 net.cpp:100] Creating Layer res4b1_branch2b_relu
I1030 13:23:26.772750 27292 net.cpp:444] res4b1_branch2b_relu <- res4b1_branch2b
I1030 13:23:26.772756 27292 net.cpp:405] res4b1_branch2b_relu -> res4b1_branch2b (in-place)
I1030 13:23:26.772763 27292 net.cpp:150] Setting up res4b1_branch2b_relu
I1030 13:23:26.772768 27292 net.cpp:157] Top shape: 1 256 38 63 (612864)
I1030 13:23:26.772773 27292 net.cpp:165] Memory required for data: 2242081620
I1030 13:23:26.772776 27292 layer_factory.hpp:77] Creating layer res4b1_branch2c
I1030 13:23:26.772785 27292 net.cpp:100] Creating Layer res4b1_branch2c
I1030 13:23:26.772789 27292 net.cpp:444] res4b1_branch2c <- res4b1_branch2b
I1030 13:23:26.772794 27292 net.cpp:418] res4b1_branch2c -> res4b1_branch2c
I1030 13:23:26.773334 27292 net.cpp:150] Setting up res4b1_branch2c
I1030 13:23:26.773344 27292 net.cpp:157] Top shape: 1 1024 38 63 (2451456)
I1030 13:23:26.773346 27292 net.cpp:165] Memory required for data: 2251887444
I1030 13:23:26.773352 27292 layer_factory.hpp:77] Creating layer bn4b1_branch2c
I1030 13:23:26.773360 27292 net.cpp:100] Creating Layer bn4b1_branch2c
I1030 13:23:26.773365 27292 net.cpp:444] bn4b1_branch2c <- res4b1_branch2c
I1030 13:23:26.773370 27292 net.cpp:405] bn4b1_branch2c -> res4b1_branch2c (in-place)
I1030 13:23:26.773488 27292 net.cpp:150] Setting up bn4b1_branch2c
I1030 13:23:26.773494 27292 net.cpp:157] Top shape: 1 1024 38 63 (2451456)
I1030 13:23:26.773499 27292 net.cpp:165] Memory required for data: 2261693268
I1030 13:23:26.773507 27292 layer_factory.hpp:77] Creating layer scale4b1_branch2c
I1030 13:23:26.773514 27292 net.cpp:100] Creating Layer scale4b1_branch2c
I1030 13:23:26.773519 27292 net.cpp:444] scale4b1_branch2c <- res4b1_branch2c
I1030 13:23:26.773524 27292 net.cpp:405] scale4b1_branch2c -> res4b1_branch2c (in-place)
I1030 13:23:26.773552 27292 layer_factory.hpp:77] Creating layer scale4b1_branch2c
I1030 13:23:26.773625 27292 net.cpp:150] Setting up scale4b1_branch2c
I1030 13:23:26.773633 27292 net.cpp:157] Top shape: 1 1024 38 63 (2451456)
I1030 13:23:26.773636 27292 net.cpp:165] Memory required for data: 2271499092
I1030 13:23:26.773644 27292 layer_factory.hpp:77] Creating layer res4b1
I1030 13:23:26.773650 27292 net.cpp:100] Creating Layer res4b1
I1030 13:23:26.773655 27292 net.cpp:444] res4b1 <- res4a_res4a_relu_0_split_1
I1030 13:23:26.773660 27292 net.cpp:444] res4b1 <- res4b1_branch2c
I1030 13:23:26.773665 27292 net.cpp:418] res4b1 -> res4b1
I1030 13:23:26.773684 27292 net.cpp:150] Setting up res4b1
I1030 13:23:26.773689 27292 net.cpp:157] Top shape: 1 1024 38 63 (2451456)
I1030 13:23:26.773694 27292 net.cpp:165] Memory required for data: 2281304916
I1030 13:23:26.773699 27292 layer_factory.hpp:77] Creating layer res4b1_relu
I1030 13:23:26.773705 27292 net.cpp:100] Creating Layer res4b1_relu
I1030 13:23:26.773708 27292 net.cpp:444] res4b1_relu <- res4b1
I1030 13:23:26.773713 27292 net.cpp:405] res4b1_relu -> res4b1 (in-place)
I1030 13:23:26.773720 27292 net.cpp:150] Setting up res4b1_relu
I1030 13:23:26.773725 27292 net.cpp:157] Top shape: 1 1024 38 63 (2451456)
I1030 13:23:26.773728 27292 net.cpp:165] Memory required for data: 2291110740
I1030 13:23:26.773732 27292 layer_factory.hpp:77] Creating layer res4b1_res4b1_relu_0_split
I1030 13:23:26.773738 27292 net.cpp:100] Creating Layer res4b1_res4b1_relu_0_split
I1030 13:23:26.773742 27292 net.cpp:444] res4b1_res4b1_relu_0_split <- res4b1
I1030 13:23:26.773747 27292 net.cpp:418] res4b1_res4b1_relu_0_split -> res4b1_res4b1_relu_0_split_0
I1030 13:23:26.773754 27292 net.cpp:418] res4b1_res4b1_relu_0_split -> res4b1_res4b1_relu_0_split_1
I1030 13:23:26.773778 27292 net.cpp:150] Setting up res4b1_res4b1_relu_0_split
I1030 13:23:26.773784 27292 net.cpp:157] Top shape: 1 1024 38 63 (2451456)
I1030 13:23:26.773789 27292 net.cpp:157] Top shape: 1 1024 38 63 (2451456)
I1030 13:23:26.773793 27292 net.cpp:165] Memory required for data: 2310722388
I1030 13:23:26.773797 27292 layer_factory.hpp:77] Creating layer res4b2_branch2a
I1030 13:23:26.773805 27292 net.cpp:100] Creating Layer res4b2_branch2a
I1030 13:23:26.773808 27292 net.cpp:444] res4b2_branch2a <- res4b1_res4b1_relu_0_split_0
I1030 13:23:26.773814 27292 net.cpp:418] res4b2_branch2a -> res4b2_branch2a
I1030 13:23:26.774281 27292 net.cpp:150] Setting up res4b2_branch2a
I1030 13:23:26.774291 27292 net.cpp:157] Top shape: 1 256 38 63 (612864)
I1030 13:23:26.774296 27292 net.cpp:165] Memory required for data: 2313173844
I1030 13:23:26.774302 27292 layer_factory.hpp:77] Creating layer bn4b2_branch2a
I1030 13:23:26.774308 27292 net.cpp:100] Creating Layer bn4b2_branch2a
I1030 13:23:26.774313 27292 net.cpp:444] bn4b2_branch2a <- res4b2_branch2a
I1030 13:23:26.774319 27292 net.cpp:405] bn4b2_branch2a -> res4b2_branch2a (in-place)
I1030 13:23:26.774432 27292 net.cpp:150] Setting up bn4b2_branch2a
I1030 13:23:26.774438 27292 net.cpp:157] Top shape: 1 256 38 63 (612864)
I1030 13:23:26.774443 27292 net.cpp:165] Memory required for data: 2315625300
I1030 13:23:26.774451 27292 layer_factory.hpp:77] Creating layer scale4b2_branch2a
I1030 13:23:26.774457 27292 net.cpp:100] Creating Layer scale4b2_branch2a
I1030 13:23:26.774462 27292 net.cpp:444] scale4b2_branch2a <- res4b2_branch2a
I1030 13:23:26.774468 27292 net.cpp:405] scale4b2_branch2a -> res4b2_branch2a (in-place)
I1030 13:23:26.774495 27292 layer_factory.hpp:77] Creating layer scale4b2_branch2a
I1030 13:23:26.774564 27292 net.cpp:150] Setting up scale4b2_branch2a
I1030 13:23:26.774571 27292 net.cpp:157] Top shape: 1 256 38 63 (612864)
I1030 13:23:26.774576 27292 net.cpp:165] Memory required for data: 2318076756
I1030 13:23:26.774583 27292 layer_factory.hpp:77] Creating layer res4b2_branch2a_relu
I1030 13:23:26.774590 27292 net.cpp:100] Creating Layer res4b2_branch2a_relu
I1030 13:23:26.774593 27292 net.cpp:444] res4b2_branch2a_relu <- res4b2_branch2a
I1030 13:23:26.774600 27292 net.cpp:405] res4b2_branch2a_relu -> res4b2_branch2a (in-place)
I1030 13:23:26.774605 27292 net.cpp:150] Setting up res4b2_branch2a_relu
I1030 13:23:26.774611 27292 net.cpp:157] Top shape: 1 256 38 63 (612864)
I1030 13:23:26.774615 27292 net.cpp:165] Memory required for data: 2320528212
I1030 13:23:26.774618 27292 layer_factory.hpp:77] Creating layer res4b2_branch2b
I1030 13:23:26.774626 27292 net.cpp:100] Creating Layer res4b2_branch2b
I1030 13:23:26.774629 27292 net.cpp:444] res4b2_branch2b <- res4b2_branch2a
I1030 13:23:26.774636 27292 net.cpp:418] res4b2_branch2b -> res4b2_branch2b
I1030 13:23:26.775449 27292 net.cpp:150] Setting up res4b2_branch2b
I1030 13:23:26.775460 27292 net.cpp:157] Top shape: 1 256 38 63 (612864)
I1030 13:23:26.775462 27292 net.cpp:165] Memory required for data: 2322979668
I1030 13:23:26.775468 27292 layer_factory.hpp:77] Creating layer bn4b2_branch2b
I1030 13:23:26.775475 27292 net.cpp:100] Creating Layer bn4b2_branch2b
I1030 13:23:26.775480 27292 net.cpp:444] bn4b2_branch2b <- res4b2_branch2b
I1030 13:23:26.775486 27292 net.cpp:405] bn4b2_branch2b -> res4b2_branch2b (in-place)
I1030 13:23:26.775596 27292 net.cpp:150] Setting up bn4b2_branch2b
I1030 13:23:26.775602 27292 net.cpp:157] Top shape: 1 256 38 63 (612864)
I1030 13:23:26.775607 27292 net.cpp:165] Memory required for data: 2325431124
I1030 13:23:26.775615 27292 layer_factory.hpp:77] Creating layer scale4b2_branch2b
I1030 13:23:26.775621 27292 net.cpp:100] Creating Layer scale4b2_branch2b
I1030 13:23:26.775626 27292 net.cpp:444] scale4b2_branch2b <- res4b2_branch2b
I1030 13:23:26.775632 27292 net.cpp:405] scale4b2_branch2b -> res4b2_branch2b (in-place)
I1030 13:23:26.775658 27292 layer_factory.hpp:77] Creating layer scale4b2_branch2b
I1030 13:23:26.775727 27292 net.cpp:150] Setting up scale4b2_branch2b
I1030 13:23:26.775732 27292 net.cpp:157] Top shape: 1 256 38 63 (612864)
I1030 13:23:26.775738 27292 net.cpp:165] Memory required for data: 2327882580
I1030 13:23:26.775744 27292 layer_factory.hpp:77] Creating layer res4b2_branch2b_relu
I1030 13:23:26.775750 27292 net.cpp:100] Creating Layer res4b2_branch2b_relu
I1030 13:23:26.775754 27292 net.cpp:444] res4b2_branch2b_relu <- res4b2_branch2b
I1030 13:23:26.775760 27292 net.cpp:405] res4b2_branch2b_relu -> res4b2_branch2b (in-place)
I1030 13:23:26.775766 27292 net.cpp:150] Setting up res4b2_branch2b_relu
I1030 13:23:26.775773 27292 net.cpp:157] Top shape: 1 256 38 63 (612864)
I1030 13:23:26.775776 27292 net.cpp:165] Memory required for data: 2330334036
I1030 13:23:26.775780 27292 layer_factory.hpp:77] Creating layer res4b2_branch2c
I1030 13:23:26.775789 27292 net.cpp:100] Creating Layer res4b2_branch2c
I1030 13:23:26.775791 27292 net.cpp:444] res4b2_branch2c <- res4b2_branch2b
I1030 13:23:26.775797 27292 net.cpp:418] res4b2_branch2c -> res4b2_branch2c
I1030 13:23:26.776257 27292 net.cpp:150] Setting up res4b2_branch2c
I1030 13:23:26.776267 27292 net.cpp:157] Top shape: 1 1024 38 63 (2451456)
I1030 13:23:26.776270 27292 net.cpp:165] Memory required for data: 2340139860
I1030 13:23:26.776275 27292 layer_factory.hpp:77] Creating layer bn4b2_branch2c
I1030 13:23:26.776283 27292 net.cpp:100] Creating Layer bn4b2_branch2c
I1030 13:23:26.776288 27292 net.cpp:444] bn4b2_branch2c <- res4b2_branch2c
I1030 13:23:26.776293 27292 net.cpp:405] bn4b2_branch2c -> res4b2_branch2c (in-place)
I1030 13:23:26.776407 27292 net.cpp:150] Setting up bn4b2_branch2c
I1030 13:23:26.776412 27292 net.cpp:157] Top shape: 1 1024 38 63 (2451456)
I1030 13:23:26.776417 27292 net.cpp:165] Memory required for data: 2349945684
I1030 13:23:26.776425 27292 layer_factory.hpp:77] Creating layer scale4b2_branch2c
I1030 13:23:26.776432 27292 net.cpp:100] Creating Layer scale4b2_branch2c
I1030 13:23:26.776437 27292 net.cpp:444] scale4b2_branch2c <- res4b2_branch2c
I1030 13:23:26.776443 27292 net.cpp:405] scale4b2_branch2c -> res4b2_branch2c (in-place)
I1030 13:23:26.776468 27292 layer_factory.hpp:77] Creating layer scale4b2_branch2c
I1030 13:23:26.776540 27292 net.cpp:150] Setting up scale4b2_branch2c
I1030 13:23:26.776546 27292 net.cpp:157] Top shape: 1 1024 38 63 (2451456)
I1030 13:23:26.776551 27292 net.cpp:165] Memory required for data: 2359751508
I1030 13:23:26.776556 27292 layer_factory.hpp:77] Creating layer res4b2
I1030 13:23:26.776562 27292 net.cpp:100] Creating Layer res4b2
I1030 13:23:26.776567 27292 net.cpp:444] res4b2 <- res4b1_res4b1_relu_0_split_1
I1030 13:23:26.776572 27292 net.cpp:444] res4b2 <- res4b2_branch2c
I1030 13:23:26.776578 27292 net.cpp:418] res4b2 -> res4b2
I1030 13:23:26.776598 27292 net.cpp:150] Setting up res4b2
I1030 13:23:26.776604 27292 net.cpp:157] Top shape: 1 1024 38 63 (2451456)
I1030 13:23:26.776608 27292 net.cpp:165] Memory required for data: 2369557332
I1030 13:23:26.776612 27292 layer_factory.hpp:77] Creating layer res4b2_relu
I1030 13:23:26.776618 27292 net.cpp:100] Creating Layer res4b2_relu
I1030 13:23:26.776623 27292 net.cpp:444] res4b2_relu <- res4b2
I1030 13:23:26.776628 27292 net.cpp:405] res4b2_relu -> res4b2 (in-place)
I1030 13:23:26.776634 27292 net.cpp:150] Setting up res4b2_relu
I1030 13:23:26.776639 27292 net.cpp:157] Top shape: 1 1024 38 63 (2451456)
I1030 13:23:26.776643 27292 net.cpp:165] Memory required for data: 2379363156
I1030 13:23:26.776648 27292 layer_factory.hpp:77] Creating layer res4b2_res4b2_relu_0_split
I1030 13:23:26.776654 27292 net.cpp:100] Creating Layer res4b2_res4b2_relu_0_split
I1030 13:23:26.776669 27292 net.cpp:444] res4b2_res4b2_relu_0_split <- res4b2
I1030 13:23:26.776674 27292 net.cpp:418] res4b2_res4b2_relu_0_split -> res4b2_res4b2_relu_0_split_0
I1030 13:23:26.776680 27292 net.cpp:418] res4b2_res4b2_relu_0_split -> res4b2_res4b2_relu_0_split_1
I1030 13:23:26.776715 27292 net.cpp:150] Setting up res4b2_res4b2_relu_0_split
I1030 13:23:26.776721 27292 net.cpp:157] Top shape: 1 1024 38 63 (2451456)
I1030 13:23:26.776734 27292 net.cpp:157] Top shape: 1 1024 38 63 (2451456)
I1030 13:23:26.776738 27292 net.cpp:165] Memory required for data: 2398974804
I1030 13:23:26.776742 27292 layer_factory.hpp:77] Creating layer res4b3_branch2a
I1030 13:23:26.776749 27292 net.cpp:100] Creating Layer res4b3_branch2a
I1030 13:23:26.776753 27292 net.cpp:444] res4b3_branch2a <- res4b2_res4b2_relu_0_split_0
I1030 13:23:26.776759 27292 net.cpp:418] res4b3_branch2a -> res4b3_branch2a
I1030 13:23:26.777221 27292 net.cpp:150] Setting up res4b3_branch2a
I1030 13:23:26.777230 27292 net.cpp:157] Top shape: 1 256 38 63 (612864)
I1030 13:23:26.777233 27292 net.cpp:165] Memory required for data: 2401426260
I1030 13:23:26.777240 27292 layer_factory.hpp:77] Creating layer bn4b3_branch2a
I1030 13:23:26.777247 27292 net.cpp:100] Creating Layer bn4b3_branch2a
I1030 13:23:26.777251 27292 net.cpp:444] bn4b3_branch2a <- res4b3_branch2a
I1030 13:23:26.777258 27292 net.cpp:405] bn4b3_branch2a -> res4b3_branch2a (in-place)
I1030 13:23:26.777381 27292 net.cpp:150] Setting up bn4b3_branch2a
I1030 13:23:26.777387 27292 net.cpp:157] Top shape: 1 256 38 63 (612864)
I1030 13:23:26.777392 27292 net.cpp:165] Memory required for data: 2403877716
I1030 13:23:26.777401 27292 layer_factory.hpp:77] Creating layer scale4b3_branch2a
I1030 13:23:26.777407 27292 net.cpp:100] Creating Layer scale4b3_branch2a
I1030 13:23:26.777412 27292 net.cpp:444] scale4b3_branch2a <- res4b3_branch2a
I1030 13:23:26.777418 27292 net.cpp:405] scale4b3_branch2a -> res4b3_branch2a (in-place)
I1030 13:23:26.777446 27292 layer_factory.hpp:77] Creating layer scale4b3_branch2a
I1030 13:23:26.777516 27292 net.cpp:150] Setting up scale4b3_branch2a
I1030 13:23:26.777523 27292 net.cpp:157] Top shape: 1 256 38 63 (612864)
I1030 13:23:26.777528 27292 net.cpp:165] Memory required for data: 2406329172
I1030 13:23:26.777534 27292 layer_factory.hpp:77] Creating layer res4b3_branch2a_relu
I1030 13:23:26.777540 27292 net.cpp:100] Creating Layer res4b3_branch2a_relu
I1030 13:23:26.777545 27292 net.cpp:444] res4b3_branch2a_relu <- res4b3_branch2a
I1030 13:23:26.777551 27292 net.cpp:405] res4b3_branch2a_relu -> res4b3_branch2a (in-place)
I1030 13:23:26.777559 27292 net.cpp:150] Setting up res4b3_branch2a_relu
I1030 13:23:26.777564 27292 net.cpp:157] Top shape: 1 256 38 63 (612864)
I1030 13:23:26.777566 27292 net.cpp:165] Memory required for data: 2408780628
I1030 13:23:26.777570 27292 layer_factory.hpp:77] Creating layer res4b3_branch2b
I1030 13:23:26.777577 27292 net.cpp:100] Creating Layer res4b3_branch2b
I1030 13:23:26.777581 27292 net.cpp:444] res4b3_branch2b <- res4b3_branch2a
I1030 13:23:26.777587 27292 net.cpp:418] res4b3_branch2b -> res4b3_branch2b
I1030 13:23:26.778408 27292 net.cpp:150] Setting up res4b3_branch2b
I1030 13:23:26.778417 27292 net.cpp:157] Top shape: 1 256 38 63 (612864)
I1030 13:23:26.778421 27292 net.cpp:165] Memory required for data: 2411232084
I1030 13:23:26.778427 27292 layer_factory.hpp:77] Creating layer bn4b3_branch2b
I1030 13:23:26.778436 27292 net.cpp:100] Creating Layer bn4b3_branch2b
I1030 13:23:26.778440 27292 net.cpp:444] bn4b3_branch2b <- res4b3_branch2b
I1030 13:23:26.778447 27292 net.cpp:405] bn4b3_branch2b -> res4b3_branch2b (in-place)
I1030 13:23:26.778563 27292 net.cpp:150] Setting up bn4b3_branch2b
I1030 13:23:26.778568 27292 net.cpp:157] Top shape: 1 256 38 63 (612864)
I1030 13:23:26.778573 27292 net.cpp:165] Memory required for data: 2413683540
I1030 13:23:26.778583 27292 layer_factory.hpp:77] Creating layer scale4b3_branch2b
I1030 13:23:26.778589 27292 net.cpp:100] Creating Layer scale4b3_branch2b
I1030 13:23:26.778592 27292 net.cpp:444] scale4b3_branch2b <- res4b3_branch2b
I1030 13:23:26.778599 27292 net.cpp:405] scale4b3_branch2b -> res4b3_branch2b (in-place)
I1030 13:23:26.778626 27292 layer_factory.hpp:77] Creating layer scale4b3_branch2b
I1030 13:23:26.778698 27292 net.cpp:150] Setting up scale4b3_branch2b
I1030 13:23:26.778705 27292 net.cpp:157] Top shape: 1 256 38 63 (612864)
I1030 13:23:26.778709 27292 net.cpp:165] Memory required for data: 2416134996
I1030 13:23:26.778717 27292 layer_factory.hpp:77] Creating layer res4b3_branch2b_relu
I1030 13:23:26.778723 27292 net.cpp:100] Creating Layer res4b3_branch2b_relu
I1030 13:23:26.778728 27292 net.cpp:444] res4b3_branch2b_relu <- res4b3_branch2b
I1030 13:23:26.778733 27292 net.cpp:405] res4b3_branch2b_relu -> res4b3_branch2b (in-place)
I1030 13:23:26.778740 27292 net.cpp:150] Setting up res4b3_branch2b_relu
I1030 13:23:26.778745 27292 net.cpp:157] Top shape: 1 256 38 63 (612864)
I1030 13:23:26.778749 27292 net.cpp:165] Memory required for data: 2418586452
I1030 13:23:26.778753 27292 layer_factory.hpp:77] Creating layer res4b3_branch2c
I1030 13:23:26.778761 27292 net.cpp:100] Creating Layer res4b3_branch2c
I1030 13:23:26.778764 27292 net.cpp:444] res4b3_branch2c <- res4b3_branch2b
I1030 13:23:26.778770 27292 net.cpp:418] res4b3_branch2c -> res4b3_branch2c
I1030 13:23:26.779260 27292 net.cpp:150] Setting up res4b3_branch2c
I1030 13:23:26.779271 27292 net.cpp:157] Top shape: 1 1024 38 63 (2451456)
I1030 13:23:26.779276 27292 net.cpp:165] Memory required for data: 2428392276
I1030 13:23:26.779283 27292 layer_factory.hpp:77] Creating layer bn4b3_branch2c
I1030 13:23:26.779291 27292 net.cpp:100] Creating Layer bn4b3_branch2c
I1030 13:23:26.779295 27292 net.cpp:444] bn4b3_branch2c <- res4b3_branch2c
I1030 13:23:26.779302 27292 net.cpp:405] bn4b3_branch2c -> res4b3_branch2c (in-place)
I1030 13:23:26.779433 27292 net.cpp:150] Setting up bn4b3_branch2c
I1030 13:23:26.779440 27292 net.cpp:157] Top shape: 1 1024 38 63 (2451456)
I1030 13:23:26.779445 27292 net.cpp:165] Memory required for data: 2438198100
I1030 13:23:26.779455 27292 layer_factory.hpp:77] Creating layer scale4b3_branch2c
I1030 13:23:26.779464 27292 net.cpp:100] Creating Layer scale4b3_branch2c
I1030 13:23:26.779469 27292 net.cpp:444] scale4b3_branch2c <- res4b3_branch2c
I1030 13:23:26.779474 27292 net.cpp:405] scale4b3_branch2c -> res4b3_branch2c (in-place)
I1030 13:23:26.779500 27292 layer_factory.hpp:77] Creating layer scale4b3_branch2c
I1030 13:23:26.779577 27292 net.cpp:150] Setting up scale4b3_branch2c
I1030 13:23:26.779583 27292 net.cpp:157] Top shape: 1 1024 38 63 (2451456)
I1030 13:23:26.779588 27292 net.cpp:165] Memory required for data: 2448003924
I1030 13:23:26.779597 27292 layer_factory.hpp:77] Creating layer res4b3
I1030 13:23:26.779603 27292 net.cpp:100] Creating Layer res4b3
I1030 13:23:26.779608 27292 net.cpp:444] res4b3 <- res4b2_res4b2_relu_0_split_1
I1030 13:23:26.779611 27292 net.cpp:444] res4b3 <- res4b3_branch2c
I1030 13:23:26.779618 27292 net.cpp:418] res4b3 -> res4b3
I1030 13:23:26.779647 27292 net.cpp:150] Setting up res4b3
I1030 13:23:26.779654 27292 net.cpp:157] Top shape: 1 1024 38 63 (2451456)
I1030 13:23:26.779659 27292 net.cpp:165] Memory required for data: 2457809748
I1030 13:23:26.779664 27292 layer_factory.hpp:77] Creating layer res4b3_relu
I1030 13:23:26.779670 27292 net.cpp:100] Creating Layer res4b3_relu
I1030 13:23:26.779673 27292 net.cpp:444] res4b3_relu <- res4b3
I1030 13:23:26.779678 27292 net.cpp:405] res4b3_relu -> res4b3 (in-place)
I1030 13:23:26.779685 27292 net.cpp:150] Setting up res4b3_relu
I1030 13:23:26.779700 27292 net.cpp:157] Top shape: 1 1024 38 63 (2451456)
I1030 13:23:26.779706 27292 net.cpp:165] Memory required for data: 2467615572
I1030 13:23:26.779708 27292 layer_factory.hpp:77] Creating layer res4b3_res4b3_relu_0_split
I1030 13:23:26.779716 27292 net.cpp:100] Creating Layer res4b3_res4b3_relu_0_split
I1030 13:23:26.779719 27292 net.cpp:444] res4b3_res4b3_relu_0_split <- res4b3
I1030 13:23:26.779724 27292 net.cpp:418] res4b3_res4b3_relu_0_split -> res4b3_res4b3_relu_0_split_0
I1030 13:23:26.779731 27292 net.cpp:418] res4b3_res4b3_relu_0_split -> res4b3_res4b3_relu_0_split_1
I1030 13:23:26.779755 27292 net.cpp:150] Setting up res4b3_res4b3_relu_0_split
I1030 13:23:26.779762 27292 net.cpp:157] Top shape: 1 1024 38 63 (2451456)
I1030 13:23:26.779767 27292 net.cpp:157] Top shape: 1 1024 38 63 (2451456)
I1030 13:23:26.779772 27292 net.cpp:165] Memory required for data: 2487227220
I1030 13:23:26.779775 27292 layer_factory.hpp:77] Creating layer res4b4_branch2a
I1030 13:23:26.779783 27292 net.cpp:100] Creating Layer res4b4_branch2a
I1030 13:23:26.779788 27292 net.cpp:444] res4b4_branch2a <- res4b3_res4b3_relu_0_split_0
I1030 13:23:26.779793 27292 net.cpp:418] res4b4_branch2a -> res4b4_branch2a
I1030 13:23:26.780339 27292 net.cpp:150] Setting up res4b4_branch2a
I1030 13:23:26.780349 27292 net.cpp:157] Top shape: 1 256 38 63 (612864)
I1030 13:23:26.780352 27292 net.cpp:165] Memory required for data: 2489678676
I1030 13:23:26.780359 27292 layer_factory.hpp:77] Creating layer bn4b4_branch2a
I1030 13:23:26.780367 27292 net.cpp:100] Creating Layer bn4b4_branch2a
I1030 13:23:26.780372 27292 net.cpp:444] bn4b4_branch2a <- res4b4_branch2a
I1030 13:23:26.780380 27292 net.cpp:405] bn4b4_branch2a -> res4b4_branch2a (in-place)
I1030 13:23:26.780498 27292 net.cpp:150] Setting up bn4b4_branch2a
I1030 13:23:26.780505 27292 net.cpp:157] Top shape: 1 256 38 63 (612864)
I1030 13:23:26.780510 27292 net.cpp:165] Memory required for data: 2492130132
I1030 13:23:26.780519 27292 layer_factory.hpp:77] Creating layer scale4b4_branch2a
I1030 13:23:26.780525 27292 net.cpp:100] Creating Layer scale4b4_branch2a
I1030 13:23:26.780530 27292 net.cpp:444] scale4b4_branch2a <- res4b4_branch2a
I1030 13:23:26.780536 27292 net.cpp:405] scale4b4_branch2a -> res4b4_branch2a (in-place)
I1030 13:23:26.780565 27292 layer_factory.hpp:77] Creating layer scale4b4_branch2a
I1030 13:23:26.780643 27292 net.cpp:150] Setting up scale4b4_branch2a
I1030 13:23:26.780652 27292 net.cpp:157] Top shape: 1 256 38 63 (612864)
I1030 13:23:26.780656 27292 net.cpp:165] Memory required for data: 2494581588
I1030 13:23:26.780664 27292 layer_factory.hpp:77] Creating layer res4b4_branch2a_relu
I1030 13:23:26.780671 27292 net.cpp:100] Creating Layer res4b4_branch2a_relu
I1030 13:23:26.780676 27292 net.cpp:444] res4b4_branch2a_relu <- res4b4_branch2a
I1030 13:23:26.780683 27292 net.cpp:405] res4b4_branch2a_relu -> res4b4_branch2a (in-place)
I1030 13:23:26.780691 27292 net.cpp:150] Setting up res4b4_branch2a_relu
I1030 13:23:26.780696 27292 net.cpp:157] Top shape: 1 256 38 63 (612864)
I1030 13:23:26.780700 27292 net.cpp:165] Memory required for data: 2497033044
I1030 13:23:26.780704 27292 layer_factory.hpp:77] Creating layer res4b4_branch2b
I1030 13:23:26.780715 27292 net.cpp:100] Creating Layer res4b4_branch2b
I1030 13:23:26.780719 27292 net.cpp:444] res4b4_branch2b <- res4b4_branch2a
I1030 13:23:26.780725 27292 net.cpp:418] res4b4_branch2b -> res4b4_branch2b
I1030 13:23:26.781584 27292 net.cpp:150] Setting up res4b4_branch2b
I1030 13:23:26.781594 27292 net.cpp:157] Top shape: 1 256 38 63 (612864)
I1030 13:23:26.781597 27292 net.cpp:165] Memory required for data: 2499484500
I1030 13:23:26.781604 27292 layer_factory.hpp:77] Creating layer bn4b4_branch2b
I1030 13:23:26.781610 27292 net.cpp:100] Creating Layer bn4b4_branch2b
I1030 13:23:26.781615 27292 net.cpp:444] bn4b4_branch2b <- res4b4_branch2b
I1030 13:23:26.781621 27292 net.cpp:405] bn4b4_branch2b -> res4b4_branch2b (in-place)
I1030 13:23:26.781734 27292 net.cpp:150] Setting up bn4b4_branch2b
I1030 13:23:26.781740 27292 net.cpp:157] Top shape: 1 256 38 63 (612864)
I1030 13:23:26.781745 27292 net.cpp:165] Memory required for data: 2501935956
I1030 13:23:26.781754 27292 layer_factory.hpp:77] Creating layer scale4b4_branch2b
I1030 13:23:26.781759 27292 net.cpp:100] Creating Layer scale4b4_branch2b
I1030 13:23:26.781764 27292 net.cpp:444] scale4b4_branch2b <- res4b4_branch2b
I1030 13:23:26.781770 27292 net.cpp:405] scale4b4_branch2b -> res4b4_branch2b (in-place)
I1030 13:23:26.781797 27292 layer_factory.hpp:77] Creating layer scale4b4_branch2b
I1030 13:23:26.781867 27292 net.cpp:150] Setting up scale4b4_branch2b
I1030 13:23:26.781874 27292 net.cpp:157] Top shape: 1 256 38 63 (612864)
I1030 13:23:26.781878 27292 net.cpp:165] Memory required for data: 2504387412
I1030 13:23:26.781885 27292 layer_factory.hpp:77] Creating layer res4b4_branch2b_relu
I1030 13:23:26.781891 27292 net.cpp:100] Creating Layer res4b4_branch2b_relu
I1030 13:23:26.781895 27292 net.cpp:444] res4b4_branch2b_relu <- res4b4_branch2b
I1030 13:23:26.781901 27292 net.cpp:405] res4b4_branch2b_relu -> res4b4_branch2b (in-place)
I1030 13:23:26.781908 27292 net.cpp:150] Setting up res4b4_branch2b_relu
I1030 13:23:26.781913 27292 net.cpp:157] Top shape: 1 256 38 63 (612864)
I1030 13:23:26.781918 27292 net.cpp:165] Memory required for data: 2506838868
I1030 13:23:26.781920 27292 layer_factory.hpp:77] Creating layer res4b4_branch2c
I1030 13:23:26.781929 27292 net.cpp:100] Creating Layer res4b4_branch2c
I1030 13:23:26.781939 27292 net.cpp:444] res4b4_branch2c <- res4b4_branch2b
I1030 13:23:26.781944 27292 net.cpp:418] res4b4_branch2c -> res4b4_branch2c
I1030 13:23:26.782430 27292 net.cpp:150] Setting up res4b4_branch2c
I1030 13:23:26.782440 27292 net.cpp:157] Top shape: 1 1024 38 63 (2451456)
I1030 13:23:26.782444 27292 net.cpp:165] Memory required for data: 2516644692
I1030 13:23:26.782450 27292 layer_factory.hpp:77] Creating layer bn4b4_branch2c
I1030 13:23:26.782459 27292 net.cpp:100] Creating Layer bn4b4_branch2c
I1030 13:23:26.782464 27292 net.cpp:444] bn4b4_branch2c <- res4b4_branch2c
I1030 13:23:26.782469 27292 net.cpp:405] bn4b4_branch2c -> res4b4_branch2c (in-place)
I1030 13:23:26.782608 27292 net.cpp:150] Setting up bn4b4_branch2c
I1030 13:23:26.782615 27292 net.cpp:157] Top shape: 1 1024 38 63 (2451456)
I1030 13:23:26.782621 27292 net.cpp:165] Memory required for data: 2526450516
I1030 13:23:26.782631 27292 layer_factory.hpp:77] Creating layer scale4b4_branch2c
I1030 13:23:26.782639 27292 net.cpp:100] Creating Layer scale4b4_branch2c
I1030 13:23:26.782644 27292 net.cpp:444] scale4b4_branch2c <- res4b4_branch2c
I1030 13:23:26.782650 27292 net.cpp:405] scale4b4_branch2c -> res4b4_branch2c (in-place)
I1030 13:23:26.782686 27292 layer_factory.hpp:77] Creating layer scale4b4_branch2c
I1030 13:23:26.782784 27292 net.cpp:150] Setting up scale4b4_branch2c
I1030 13:23:26.782794 27292 net.cpp:157] Top shape: 1 1024 38 63 (2451456)
I1030 13:23:26.782799 27292 net.cpp:165] Memory required for data: 2536256340
I1030 13:23:26.782807 27292 layer_factory.hpp:77] Creating layer res4b4
I1030 13:23:26.782817 27292 net.cpp:100] Creating Layer res4b4
I1030 13:23:26.782824 27292 net.cpp:444] res4b4 <- res4b3_res4b3_relu_0_split_1
I1030 13:23:26.782830 27292 net.cpp:444] res4b4 <- res4b4_branch2c
I1030 13:23:26.782836 27292 net.cpp:418] res4b4 -> res4b4
I1030 13:23:26.782862 27292 net.cpp:150] Setting up res4b4
I1030 13:23:26.782871 27292 net.cpp:157] Top shape: 1 1024 38 63 (2451456)
I1030 13:23:26.782876 27292 net.cpp:165] Memory required for data: 2546062164
I1030 13:23:26.782882 27292 layer_factory.hpp:77] Creating layer res4b4_relu
I1030 13:23:26.782893 27292 net.cpp:100] Creating Layer res4b4_relu
I1030 13:23:26.782898 27292 net.cpp:444] res4b4_relu <- res4b4
I1030 13:23:26.782904 27292 net.cpp:405] res4b4_relu -> res4b4 (in-place)
I1030 13:23:26.782912 27292 net.cpp:150] Setting up res4b4_relu
I1030 13:23:26.782918 27292 net.cpp:157] Top shape: 1 1024 38 63 (2451456)
I1030 13:23:26.782923 27292 net.cpp:165] Memory required for data: 2555867988
I1030 13:23:26.782928 27292 layer_factory.hpp:77] Creating layer res4b4_res4b4_relu_0_split
I1030 13:23:26.782938 27292 net.cpp:100] Creating Layer res4b4_res4b4_relu_0_split
I1030 13:23:26.782943 27292 net.cpp:444] res4b4_res4b4_relu_0_split <- res4b4
I1030 13:23:26.782948 27292 net.cpp:418] res4b4_res4b4_relu_0_split -> res4b4_res4b4_relu_0_split_0
I1030 13:23:26.782955 27292 net.cpp:418] res4b4_res4b4_relu_0_split -> res4b4_res4b4_relu_0_split_1
I1030 13:23:26.782989 27292 net.cpp:150] Setting up res4b4_res4b4_relu_0_split
I1030 13:23:26.782995 27292 net.cpp:157] Top shape: 1 1024 38 63 (2451456)
I1030 13:23:26.783001 27292 net.cpp:157] Top shape: 1 1024 38 63 (2451456)
I1030 13:23:26.783005 27292 net.cpp:165] Memory required for data: 2575479636
I1030 13:23:26.783010 27292 layer_factory.hpp:77] Creating layer res4b5_branch2a
I1030 13:23:26.783023 27292 net.cpp:100] Creating Layer res4b5_branch2a
I1030 13:23:26.783027 27292 net.cpp:444] res4b5_branch2a <- res4b4_res4b4_relu_0_split_0
I1030 13:23:26.783035 27292 net.cpp:418] res4b5_branch2a -> res4b5_branch2a
I1030 13:23:26.783696 27292 net.cpp:150] Setting up res4b5_branch2a
I1030 13:23:26.783706 27292 net.cpp:157] Top shape: 1 256 38 63 (612864)
I1030 13:23:26.783710 27292 net.cpp:165] Memory required for data: 2577931092
I1030 13:23:26.783715 27292 layer_factory.hpp:77] Creating layer bn4b5_branch2a
I1030 13:23:26.783725 27292 net.cpp:100] Creating Layer bn4b5_branch2a
I1030 13:23:26.783728 27292 net.cpp:444] bn4b5_branch2a <- res4b5_branch2a
I1030 13:23:26.783735 27292 net.cpp:405] bn4b5_branch2a -> res4b5_branch2a (in-place)
I1030 13:23:26.783857 27292 net.cpp:150] Setting up bn4b5_branch2a
I1030 13:23:26.783864 27292 net.cpp:157] Top shape: 1 256 38 63 (612864)
I1030 13:23:26.783869 27292 net.cpp:165] Memory required for data: 2580382548
I1030 13:23:26.783877 27292 layer_factory.hpp:77] Creating layer scale4b5_branch2a
I1030 13:23:26.783885 27292 net.cpp:100] Creating Layer scale4b5_branch2a
I1030 13:23:26.783888 27292 net.cpp:444] scale4b5_branch2a <- res4b5_branch2a
I1030 13:23:26.783895 27292 net.cpp:405] scale4b5_branch2a -> res4b5_branch2a (in-place)
I1030 13:23:26.783923 27292 layer_factory.hpp:77] Creating layer scale4b5_branch2a
I1030 13:23:26.784000 27292 net.cpp:150] Setting up scale4b5_branch2a
I1030 13:23:26.784008 27292 net.cpp:157] Top shape: 1 256 38 63 (612864)
I1030 13:23:26.784013 27292 net.cpp:165] Memory required for data: 2582834004
I1030 13:23:26.784023 27292 layer_factory.hpp:77] Creating layer res4b5_branch2a_relu
I1030 13:23:26.784031 27292 net.cpp:100] Creating Layer res4b5_branch2a_relu
I1030 13:23:26.784036 27292 net.cpp:444] res4b5_branch2a_relu <- res4b5_branch2a
I1030 13:23:26.784042 27292 net.cpp:405] res4b5_branch2a_relu -> res4b5_branch2a (in-place)
I1030 13:23:26.784051 27292 net.cpp:150] Setting up res4b5_branch2a_relu
I1030 13:23:26.784057 27292 net.cpp:157] Top shape: 1 256 38 63 (612864)
I1030 13:23:26.784062 27292 net.cpp:165] Memory required for data: 2585285460
I1030 13:23:26.784067 27292 layer_factory.hpp:77] Creating layer res4b5_branch2b
I1030 13:23:26.784080 27292 net.cpp:100] Creating Layer res4b5_branch2b
I1030 13:23:26.784085 27292 net.cpp:444] res4b5_branch2b <- res4b5_branch2a
I1030 13:23:26.784091 27292 net.cpp:418] res4b5_branch2b -> res4b5_branch2b
I1030 13:23:26.785866 27292 net.cpp:150] Setting up res4b5_branch2b
I1030 13:23:26.785893 27292 net.cpp:157] Top shape: 1 256 38 63 (612864)
I1030 13:23:26.785897 27292 net.cpp:165] Memory required for data: 2587736916
I1030 13:23:26.785904 27292 layer_factory.hpp:77] Creating layer bn4b5_branch2b
I1030 13:23:26.785915 27292 net.cpp:100] Creating Layer bn4b5_branch2b
I1030 13:23:26.785922 27292 net.cpp:444] bn4b5_branch2b <- res4b5_branch2b
I1030 13:23:26.785928 27292 net.cpp:405] bn4b5_branch2b -> res4b5_branch2b (in-place)
I1030 13:23:26.786068 27292 net.cpp:150] Setting up bn4b5_branch2b
I1030 13:23:26.786075 27292 net.cpp:157] Top shape: 1 256 38 63 (612864)
I1030 13:23:26.786080 27292 net.cpp:165] Memory required for data: 2590188372
I1030 13:23:26.786089 27292 layer_factory.hpp:77] Creating layer scale4b5_branch2b
I1030 13:23:26.786097 27292 net.cpp:100] Creating Layer scale4b5_branch2b
I1030 13:23:26.786100 27292 net.cpp:444] scale4b5_branch2b <- res4b5_branch2b
I1030 13:23:26.786106 27292 net.cpp:405] scale4b5_branch2b -> res4b5_branch2b (in-place)
I1030 13:23:26.786135 27292 layer_factory.hpp:77] Creating layer scale4b5_branch2b
I1030 13:23:26.786208 27292 net.cpp:150] Setting up scale4b5_branch2b
I1030 13:23:26.786216 27292 net.cpp:157] Top shape: 1 256 38 63 (612864)
I1030 13:23:26.786219 27292 net.cpp:165] Memory required for data: 2592639828
I1030 13:23:26.786227 27292 layer_factory.hpp:77] Creating layer res4b5_branch2b_relu
I1030 13:23:26.786234 27292 net.cpp:100] Creating Layer res4b5_branch2b_relu
I1030 13:23:26.786238 27292 net.cpp:444] res4b5_branch2b_relu <- res4b5_branch2b
I1030 13:23:26.786244 27292 net.cpp:405] res4b5_branch2b_relu -> res4b5_branch2b (in-place)
I1030 13:23:26.786252 27292 net.cpp:150] Setting up res4b5_branch2b_relu
I1030 13:23:26.786257 27292 net.cpp:157] Top shape: 1 256 38 63 (612864)
I1030 13:23:26.786260 27292 net.cpp:165] Memory required for data: 2595091284
I1030 13:23:26.786264 27292 layer_factory.hpp:77] Creating layer res4b5_branch2c
I1030 13:23:26.786273 27292 net.cpp:100] Creating Layer res4b5_branch2c
I1030 13:23:26.786276 27292 net.cpp:444] res4b5_branch2c <- res4b5_branch2b
I1030 13:23:26.786283 27292 net.cpp:418] res4b5_branch2c -> res4b5_branch2c
I1030 13:23:26.786823 27292 net.cpp:150] Setting up res4b5_branch2c
I1030 13:23:26.786833 27292 net.cpp:157] Top shape: 1 1024 38 63 (2451456)
I1030 13:23:26.786836 27292 net.cpp:165] Memory required for data: 2604897108
I1030 13:23:26.786841 27292 layer_factory.hpp:77] Creating layer bn4b5_branch2c
I1030 13:23:26.786849 27292 net.cpp:100] Creating Layer bn4b5_branch2c
I1030 13:23:26.786854 27292 net.cpp:444] bn4b5_branch2c <- res4b5_branch2c
I1030 13:23:26.786859 27292 net.cpp:405] bn4b5_branch2c -> res4b5_branch2c (in-place)
I1030 13:23:26.786979 27292 net.cpp:150] Setting up bn4b5_branch2c
I1030 13:23:26.786986 27292 net.cpp:157] Top shape: 1 1024 38 63 (2451456)
I1030 13:23:26.786991 27292 net.cpp:165] Memory required for data: 2614702932
I1030 13:23:26.786999 27292 layer_factory.hpp:77] Creating layer scale4b5_branch2c
I1030 13:23:26.787005 27292 net.cpp:100] Creating Layer scale4b5_branch2c
I1030 13:23:26.787010 27292 net.cpp:444] scale4b5_branch2c <- res4b5_branch2c
I1030 13:23:26.787016 27292 net.cpp:405] scale4b5_branch2c -> res4b5_branch2c (in-place)
I1030 13:23:26.787044 27292 layer_factory.hpp:77] Creating layer scale4b5_branch2c
I1030 13:23:26.787119 27292 net.cpp:150] Setting up scale4b5_branch2c
I1030 13:23:26.787127 27292 net.cpp:157] Top shape: 1 1024 38 63 (2451456)
I1030 13:23:26.787130 27292 net.cpp:165] Memory required for data: 2624508756
I1030 13:23:26.787143 27292 layer_factory.hpp:77] Creating layer res4b5
I1030 13:23:26.787149 27292 net.cpp:100] Creating Layer res4b5
I1030 13:23:26.787154 27292 net.cpp:444] res4b5 <- res4b4_res4b4_relu_0_split_1
I1030 13:23:26.787159 27292 net.cpp:444] res4b5 <- res4b5_branch2c
I1030 13:23:26.787165 27292 net.cpp:418] res4b5 -> res4b5
I1030 13:23:26.787184 27292 net.cpp:150] Setting up res4b5
I1030 13:23:26.787190 27292 net.cpp:157] Top shape: 1 1024 38 63 (2451456)
I1030 13:23:26.787194 27292 net.cpp:165] Memory required for data: 2634314580
I1030 13:23:26.787199 27292 layer_factory.hpp:77] Creating layer res4b5_relu
I1030 13:23:26.787204 27292 net.cpp:100] Creating Layer res4b5_relu
I1030 13:23:26.787207 27292 net.cpp:444] res4b5_relu <- res4b5
I1030 13:23:26.787212 27292 net.cpp:405] res4b5_relu -> res4b5 (in-place)
I1030 13:23:26.787220 27292 net.cpp:150] Setting up res4b5_relu
I1030 13:23:26.787225 27292 net.cpp:157] Top shape: 1 1024 38 63 (2451456)
I1030 13:23:26.787227 27292 net.cpp:165] Memory required for data: 2644120404
I1030 13:23:26.787231 27292 layer_factory.hpp:77] Creating layer res4b5_res4b5_relu_0_split
I1030 13:23:26.787238 27292 net.cpp:100] Creating Layer res4b5_res4b5_relu_0_split
I1030 13:23:26.787242 27292 net.cpp:444] res4b5_res4b5_relu_0_split <- res4b5
I1030 13:23:26.787247 27292 net.cpp:418] res4b5_res4b5_relu_0_split -> res4b5_res4b5_relu_0_split_0
I1030 13:23:26.787253 27292 net.cpp:418] res4b5_res4b5_relu_0_split -> res4b5_res4b5_relu_0_split_1
I1030 13:23:26.787279 27292 net.cpp:150] Setting up res4b5_res4b5_relu_0_split
I1030 13:23:26.787286 27292 net.cpp:157] Top shape: 1 1024 38 63 (2451456)
I1030 13:23:26.787291 27292 net.cpp:157] Top shape: 1 1024 38 63 (2451456)
I1030 13:23:26.787294 27292 net.cpp:165] Memory required for data: 2663732052
I1030 13:23:26.787299 27292 layer_factory.hpp:77] Creating layer res4b6_branch2a
I1030 13:23:26.787307 27292 net.cpp:100] Creating Layer res4b6_branch2a
I1030 13:23:26.787312 27292 net.cpp:444] res4b6_branch2a <- res4b5_res4b5_relu_0_split_0
I1030 13:23:26.787317 27292 net.cpp:418] res4b6_branch2a -> res4b6_branch2a
I1030 13:23:26.787783 27292 net.cpp:150] Setting up res4b6_branch2a
I1030 13:23:26.787792 27292 net.cpp:157] Top shape: 1 256 38 63 (612864)
I1030 13:23:26.787796 27292 net.cpp:165] Memory required for data: 2666183508
I1030 13:23:26.787802 27292 layer_factory.hpp:77] Creating layer bn4b6_branch2a
I1030 13:23:26.787809 27292 net.cpp:100] Creating Layer bn4b6_branch2a
I1030 13:23:26.787814 27292 net.cpp:444] bn4b6_branch2a <- res4b6_branch2a
I1030 13:23:26.787820 27292 net.cpp:405] bn4b6_branch2a -> res4b6_branch2a (in-place)
I1030 13:23:26.787936 27292 net.cpp:150] Setting up bn4b6_branch2a
I1030 13:23:26.787942 27292 net.cpp:157] Top shape: 1 256 38 63 (612864)
I1030 13:23:26.787947 27292 net.cpp:165] Memory required for data: 2668634964
I1030 13:23:26.787955 27292 layer_factory.hpp:77] Creating layer scale4b6_branch2a
I1030 13:23:26.787961 27292 net.cpp:100] Creating Layer scale4b6_branch2a
I1030 13:23:26.787966 27292 net.cpp:444] scale4b6_branch2a <- res4b6_branch2a
I1030 13:23:26.787972 27292 net.cpp:405] scale4b6_branch2a -> res4b6_branch2a (in-place)
I1030 13:23:26.787999 27292 layer_factory.hpp:77] Creating layer scale4b6_branch2a
I1030 13:23:26.788074 27292 net.cpp:150] Setting up scale4b6_branch2a
I1030 13:23:26.788080 27292 net.cpp:157] Top shape: 1 256 38 63 (612864)
I1030 13:23:26.788084 27292 net.cpp:165] Memory required for data: 2671086420
I1030 13:23:26.788092 27292 layer_factory.hpp:77] Creating layer res4b6_branch2a_relu
I1030 13:23:26.788097 27292 net.cpp:100] Creating Layer res4b6_branch2a_relu
I1030 13:23:26.788102 27292 net.cpp:444] res4b6_branch2a_relu <- res4b6_branch2a
I1030 13:23:26.788107 27292 net.cpp:405] res4b6_branch2a_relu -> res4b6_branch2a (in-place)
I1030 13:23:26.788115 27292 net.cpp:150] Setting up res4b6_branch2a_relu
I1030 13:23:26.788120 27292 net.cpp:157] Top shape: 1 256 38 63 (612864)
I1030 13:23:26.788123 27292 net.cpp:165] Memory required for data: 2673537876
I1030 13:23:26.788127 27292 layer_factory.hpp:77] Creating layer res4b6_branch2b
I1030 13:23:26.788135 27292 net.cpp:100] Creating Layer res4b6_branch2b
I1030 13:23:26.788138 27292 net.cpp:444] res4b6_branch2b <- res4b6_branch2a
I1030 13:23:26.788144 27292 net.cpp:418] res4b6_branch2b -> res4b6_branch2b
I1030 13:23:26.788954 27292 net.cpp:150] Setting up res4b6_branch2b
I1030 13:23:26.788964 27292 net.cpp:157] Top shape: 1 256 38 63 (612864)
I1030 13:23:26.788967 27292 net.cpp:165] Memory required for data: 2675989332
I1030 13:23:26.788974 27292 layer_factory.hpp:77] Creating layer bn4b6_branch2b
I1030 13:23:26.788980 27292 net.cpp:100] Creating Layer bn4b6_branch2b
I1030 13:23:26.788985 27292 net.cpp:444] bn4b6_branch2b <- res4b6_branch2b
I1030 13:23:26.788990 27292 net.cpp:405] bn4b6_branch2b -> res4b6_branch2b (in-place)
I1030 13:23:26.789106 27292 net.cpp:150] Setting up bn4b6_branch2b
I1030 13:23:26.789113 27292 net.cpp:157] Top shape: 1 256 38 63 (612864)
I1030 13:23:26.789118 27292 net.cpp:165] Memory required for data: 2678440788
I1030 13:23:26.789125 27292 layer_factory.hpp:77] Creating layer scale4b6_branch2b
I1030 13:23:26.789132 27292 net.cpp:100] Creating Layer scale4b6_branch2b
I1030 13:23:26.789136 27292 net.cpp:444] scale4b6_branch2b <- res4b6_branch2b
I1030 13:23:26.789142 27292 net.cpp:405] scale4b6_branch2b -> res4b6_branch2b (in-place)
I1030 13:23:26.789170 27292 layer_factory.hpp:77] Creating layer scale4b6_branch2b
I1030 13:23:26.789243 27292 net.cpp:150] Setting up scale4b6_branch2b
I1030 13:23:26.789250 27292 net.cpp:157] Top shape: 1 256 38 63 (612864)
I1030 13:23:26.789254 27292 net.cpp:165] Memory required for data: 2680892244
I1030 13:23:26.789263 27292 layer_factory.hpp:77] Creating layer res4b6_branch2b_relu
I1030 13:23:26.789268 27292 net.cpp:100] Creating Layer res4b6_branch2b_relu
I1030 13:23:26.789273 27292 net.cpp:444] res4b6_branch2b_relu <- res4b6_branch2b
I1030 13:23:26.789278 27292 net.cpp:405] res4b6_branch2b_relu -> res4b6_branch2b (in-place)
I1030 13:23:26.789284 27292 net.cpp:150] Setting up res4b6_branch2b_relu
I1030 13:23:26.789289 27292 net.cpp:157] Top shape: 1 256 38 63 (612864)
I1030 13:23:26.789294 27292 net.cpp:165] Memory required for data: 2683343700
I1030 13:23:26.789297 27292 layer_factory.hpp:77] Creating layer res4b6_branch2c
I1030 13:23:26.789305 27292 net.cpp:100] Creating Layer res4b6_branch2c
I1030 13:23:26.789309 27292 net.cpp:444] res4b6_branch2c <- res4b6_branch2b
I1030 13:23:26.789314 27292 net.cpp:418] res4b6_branch2c -> res4b6_branch2c
I1030 13:23:26.789821 27292 net.cpp:150] Setting up res4b6_branch2c
I1030 13:23:26.789831 27292 net.cpp:157] Top shape: 1 1024 38 63 (2451456)
I1030 13:23:26.789835 27292 net.cpp:165] Memory required for data: 2693149524
I1030 13:23:26.789840 27292 layer_factory.hpp:77] Creating layer bn4b6_branch2c
I1030 13:23:26.789847 27292 net.cpp:100] Creating Layer bn4b6_branch2c
I1030 13:23:26.789852 27292 net.cpp:444] bn4b6_branch2c <- res4b6_branch2c
…
I1030 13:23:26.844418 27292 net.cpp:100] Creating Layer res5a_branch1
I1030 13:23:26.844420 27292 net.cpp:444] res5a_branch1 <- res4b22_res4b22_relu_0_split_0
I1030 13:23:26.844429 27292 net.cpp:418] res5a_branch1 -> res5a_branch1
I1030 13:23:26.847450 27292 net.cpp:150] Setting up res5a_branch1
I1030 13:23:26.847496 27292 net.cpp:157] Top shape: 1 2048 38 63 (4902912)
I1030 13:23:26.847501 27292 net.cpp:165] Memory required for data: 4193440596
I1030 13:23:26.847514 27292 layer_factory.hpp:77] Creating layer bn5a_branch1
I1030 13:23:26.847530 27292 net.cpp:100] Creating Layer bn5a_branch1
I1030 13:23:26.847542 27292 net.cpp:444] bn5a_branch1 <- res5a_branch1
I1030 13:23:26.847550 27292 net.cpp:405] bn5a_branch1 -> res5a_branch1 (in-place)
I1030 13:23:26.847708 27292 net.cpp:150] Setting up bn5a_branch1
I1030 13:23:26.847715 27292 net.cpp:157] Top shape: 1 2048 38 63 (4902912)
I1030 13:23:26.847719 27292 net.cpp:165] Memory required for data: 4213052244
I1030 13:23:26.847728 27292 layer_factory.hpp:77] Creating layer scale5a_branch1
I1030 13:23:26.847736 27292 net.cpp:100] Creating Layer scale5a_branch1
I1030 13:23:26.847740 27292 net.cpp:444] scale5a_branch1 <- res5a_branch1
I1030 13:23:26.847745 27292 net.cpp:405] scale5a_branch1 -> res5a_branch1 (in-place)
I1030 13:23:26.847780 27292 layer_factory.hpp:77] Creating layer scale5a_branch1
I1030 13:23:26.848250 27292 net.cpp:150] Setting up scale5a_branch1
I1030 13:23:26.848259 27292 net.cpp:157] Top shape: 1 2048 38 63 (4902912)
I1030 13:23:26.848263 27292 net.cpp:165] Memory required for data: 4232663892
I1030 13:23:26.848269 27292 layer_factory.hpp:77] Creating layer res5a_branch2a
I1030 13:23:26.848284 27292 net.cpp:100] Creating Layer res5a_branch2a
I1030 13:23:26.848290 27292 net.cpp:444] res5a_branch2a <- res4b22_res4b22_relu_0_split_1
I1030 13:23:26.848299 27292 net.cpp:418] res5a_branch2a -> res5a_branch2a
I1030 13:23:26.849228 27292 net.cpp:150] Setting up res5a_branch2a
I1030 13:23:26.849242 27292 net.cpp:157] Top shape: 1 512 38 63 (1225728)
I1030 13:23:26.849246 27292 net.cpp:165] Memory required for data: 4237566804
I1030 13:23:26.849252 27292 layer_factory.hpp:77] Creating layer bn5a_branch2a
I1030 13:23:26.849262 27292 net.cpp:100] Creating Layer bn5a_branch2a
I1030 13:23:26.849267 27292 net.cpp:444] bn5a_branch2a <- res5a_branch2a
I1030 13:23:26.849274 27292 net.cpp:405] bn5a_branch2a -> res5a_branch2a (in-place)
I1030 13:23:26.849433 27292 net.cpp:150] Setting up bn5a_branch2a
I1030 13:23:26.849441 27292 net.cpp:157] Top shape: 1 512 38 63 (1225728)
I1030 13:23:26.849444 27292 net.cpp:165] Memory required for data: 4242469716
I1030 13:23:26.849453 27292 layer_factory.hpp:77] Creating layer scale5a_branch2a
I1030 13:23:26.849460 27292 net.cpp:100] Creating Layer scale5a_branch2a
I1030 13:23:26.849465 27292 net.cpp:444] scale5a_branch2a <- res5a_branch2a
I1030 13:23:26.849472 27292 net.cpp:405] scale5a_branch2a -> res5a_branch2a (in-place)
I1030 13:23:26.849503 27292 layer_factory.hpp:77] Creating layer scale5a_branch2a
I1030 13:23:26.849596 27292 net.cpp:150] Setting up scale5a_branch2a
I1030 13:23:26.849606 27292 net.cpp:157] Top shape: 1 512 38 63 (1225728)
I1030 13:23:26.849609 27292 net.cpp:165] Memory required for data: 4247372628
I1030 13:23:26.849618 27292 layer_factory.hpp:77] Creating layer res5a_branch2a_relu
I1030 13:23:26.849628 27292 net.cpp:100] Creating Layer res5a_branch2a_relu
I1030 13:23:26.849633 27292 net.cpp:444] res5a_branch2a_relu <- res5a_branch2a
I1030 13:23:26.849639 27292 net.cpp:405] res5a_branch2a_relu -> res5a_branch2a (in-place)
I1030 13:23:26.849648 27292 net.cpp:150] Setting up res5a_branch2a_relu
I1030 13:23:26.849654 27292 net.cpp:157] Top shape: 1 512 38 63 (1225728)
I1030 13:23:26.849659 27292 net.cpp:165] Memory required for data: 4252275540
I1030 13:23:26.849664 27292 layer_factory.hpp:77] Creating layer res5a_branch2b
I1030 13:23:26.849678 27292 net.cpp:100] Creating Layer res5a_branch2b
I1030 13:23:26.849683 27292 net.cpp:444] res5a_branch2b <- res5a_branch2a
I1030 13:23:26.849689 27292 net.cpp:418] res5a_branch2b -> res5a_branch2b
I1030 13:23:26.854715 27292 net.cpp:150] Setting up res5a_branch2b
I1030 13:23:26.854744 27292 net.cpp:157] Top shape: 1 512 38 63 (1225728)
I1030 13:23:26.854748 27292 net.cpp:165] Memory required for data: 4257178452
I1030 13:23:26.854756 27292 layer_factory.hpp:77] Creating layer bn5a_branch2b
I1030 13:23:26.854768 27292 net.cpp:100] Creating Layer bn5a_branch2b
I1030 13:23:26.854774 27292 net.cpp:444] bn5a_branch2b <- res5a_branch2b
I1030 13:23:26.854781 27292 net.cpp:405] bn5a_branch2b -> res5a_branch2b (in-place)
I1030 13:23:26.854939 27292 net.cpp:150] Setting up bn5a_branch2b
I1030 13:23:26.854946 27292 net.cpp:157] Top shape: 1 512 38 63 (1225728)
I1030 13:23:26.854949 27292 net.cpp:165] Memory required for data: 4262081364
I1030 13:23:26.854957 27292 layer_factory.hpp:77] Creating layer scale5a_branch2b
I1030 13:23:26.854966 27292 net.cpp:100] Creating Layer scale5a_branch2b
I1030 13:23:26.854970 27292 net.cpp:444] scale5a_branch2b <- res5a_branch2b
I1030 13:23:26.854977 27292 net.cpp:405] scale5a_branch2b -> res5a_branch2b (in-place)
I1030 13:23:26.855010 27292 layer_factory.hpp:77] Creating layer scale5a_branch2b
I1030 13:23:26.855093 27292 net.cpp:150] Setting up scale5a_branch2b
I1030 13:23:26.855099 27292 net.cpp:157] Top shape: 1 512 38 63 (1225728)
I1030 13:23:26.855103 27292 net.cpp:165] Memory required for data: 4266984276
I1030 13:23:26.855111 27292 layer_factory.hpp:77] Creating layer res5a_branch2b_relu
I1030 13:23:26.855118 27292 net.cpp:100] Creating Layer res5a_branch2b_relu
I1030 13:23:26.855123 27292 net.cpp:444] res5a_branch2b_relu <- res5a_branch2b
I1030 13:23:26.855129 27292 net.cpp:405] res5a_branch2b_relu -> res5a_branch2b (in-place)
I1030 13:23:26.855136 27292 net.cpp:150] Setting up res5a_branch2b_relu
I1030 13:23:26.855141 27292 net.cpp:157] Top shape: 1 512 38 63 (1225728)
I1030 13:23:26.855145 27292 net.cpp:165] Memory required for data: 4271887188
I1030 13:23:26.855149 27292 layer_factory.hpp:77] Creating layer res5a_branch2c
I1030 13:23:26.855159 27292 net.cpp:100] Creating Layer res5a_branch2c
I1030 13:23:26.855161 27292 net.cpp:444] res5a_branch2c <- res5a_branch2b
I1030 13:23:26.855167 27292 net.cpp:418] res5a_branch2c -> res5a_branch2c
I1030 13:23:26.856534 27292 net.cpp:150] Setting up res5a_branch2c
I1030 13:23:26.856544 27292 net.cpp:157] Top shape: 1 2048 38 63 (4902912)
I1030 13:23:26.856547 27292 net.cpp:165] Memory required for data: 4291498836
I1030 13:23:26.856554 27292 layer_factory.hpp:77] Creating layer bn5a_branch2c
I1030 13:23:26.856561 27292 net.cpp:100] Creating Layer bn5a_branch2c
I1030 13:23:26.856565 27292 net.cpp:444] bn5a_branch2c <- res5a_branch2c
I1030 13:23:26.856572 27292 net.cpp:405] bn5a_branch2c -> res5a_branch2c (in-place)
I1030 13:23:26.856699 27292 net.cpp:150] Setting up bn5a_branch2c
I1030 13:23:26.856706 27292 net.cpp:157] Top shape: 1 2048 38 63 (4902912)
I1030 13:23:26.856710 27292 net.cpp:165] Memory required for data: 4311110484
I1030 13:23:26.856719 27292 layer_factory.hpp:77] Creating layer scale5a_branch2c
I1030 13:23:26.856725 27292 net.cpp:100] Creating Layer scale5a_branch2c
I1030 13:23:26.856730 27292 net.cpp:444] scale5a_branch2c <- res5a_branch2c
I1030 13:23:26.856736 27292 net.cpp:405] scale5a_branch2c -> res5a_branch2c (in-place)
I1030 13:23:26.856767 27292 layer_factory.hpp:77] Creating layer scale5a_branch2c
I1030 13:23:26.856843 27292 net.cpp:150] Setting up scale5a_branch2c
I1030 13:23:26.856850 27292 net.cpp:157] Top shape: 1 2048 38 63 (4902912)
I1030 13:23:26.856855 27292 net.cpp:165] Memory required for data: 4330722132
I1030 13:23:26.856863 27292 layer_factory.hpp:77] Creating layer res5a
I1030 13:23:26.856868 27292 net.cpp:100] Creating Layer res5a
I1030 13:23:26.856873 27292 net.cpp:444] res5a <- res5a_branch1
I1030 13:23:26.856878 27292 net.cpp:444] res5a <- res5a_branch2c
I1030 13:23:26.856884 27292 net.cpp:418] res5a -> res5a
I1030 13:23:26.856904 27292 net.cpp:150] Setting up res5a
I1030 13:23:26.856910 27292 net.cpp:157] Top shape: 1 2048 38 63 (4902912)
I1030 13:23:26.856914 27292 net.cpp:165] Memory required for data: 4350333780
I1030 13:23:26.856920 27292 layer_factory.hpp:77] Creating layer res5a_relu
I1030 13:23:26.856925 27292 net.cpp:100] Creating Layer res5a_relu
I1030 13:23:26.856930 27292 net.cpp:444] res5a_relu <- res5a
I1030 13:23:26.856935 27292 net.cpp:405] res5a_relu -> res5a (in-place)
I1030 13:23:26.856940 27292 net.cpp:150] Setting up res5a_relu
I1030 13:23:26.856945 27292 net.cpp:157] Top shape: 1 2048 38 63 (4902912)
I1030 13:23:26.856950 27292 net.cpp:165] Memory required for data: 4369945428
I1030 13:23:26.856953 27292 layer_factory.hpp:77] Creating layer res5a_res5a_relu_0_split
I1030 13:23:26.856961 27292 net.cpp:100] Creating Layer res5a_res5a_relu_0_split
I1030 13:23:26.856963 27292 net.cpp:444] res5a_res5a_relu_0_split <- res5a
I1030 13:23:26.856968 27292 net.cpp:418] res5a_res5a_relu_0_split -> res5a_res5a_relu_0_split_0
I1030 13:23:26.856976 27292 net.cpp:418] res5a_res5a_relu_0_split -> res5a_res5a_relu_0_split_1
I1030 13:23:26.857002 27292 net.cpp:150] Setting up res5a_res5a_relu_0_split
I1030 13:23:26.857007 27292 net.cpp:157] Top shape: 1 2048 38 63 (4902912)
I1030 13:23:26.857013 27292 net.cpp:157] Top shape: 1 2048 38 63 (4902912)
I1030 13:23:26.857017 27292 net.cpp:165] Memory required for data: 4409168724
I1030 13:23:26.857020 27292 layer_factory.hpp:77] Creating layer res5b_branch2a
I1030 13:23:26.857028 27292 net.cpp:100] Creating Layer res5b_branch2a
I1030 13:23:26.857033 27292 net.cpp:444] res5b_branch2a <- res5a_res5a_relu_0_split_0
I1030 13:23:26.857039 27292 net.cpp:418] res5b_branch2a -> res5b_branch2a
I1030 13:23:26.858428 27292 net.cpp:150] Setting up res5b_branch2a
I1030 13:23:26.858445 27292 net.cpp:157] Top shape: 1 512 38 63 (1225728)
I1030 13:23:26.858448 27292 net.cpp:165] Memory required for data: 4414071636
I1030 13:23:26.858455 27292 layer_factory.hpp:77] Creating layer bn5b_branch2a
I1030 13:23:26.858465 27292 net.cpp:100] Creating Layer bn5b_branch2a
I1030 13:23:26.858470 27292 net.cpp:444] bn5b_branch2a <- res5b_branch2a
I1030 13:23:26.858479 27292 net.cpp:405] bn5b_branch2a -> res5b_branch2a (in-place)
I1030 13:23:26.858641 27292 net.cpp:150] Setting up bn5b_branch2a
I1030 13:23:26.858647 27292 net.cpp:157] Top shape: 1 512 38 63 (1225728)
I1030 13:23:26.858652 27292 net.cpp:165] Memory required for data: 4418974548
I1030 13:23:26.858661 27292 layer_factory.hpp:77] Creating layer scale5b_branch2a
I1030 13:23:26.858669 27292 net.cpp:100] Creating Layer scale5b_branch2a
I1030 13:23:26.858672 27292 net.cpp:444] scale5b_branch2a <- res5b_branch2a
I1030 13:23:26.858678 27292 net.cpp:405] scale5b_branch2a -> res5b_branch2a (in-place)
I1030 13:23:26.858710 27292 layer_factory.hpp:77] Creating layer scale5b_branch2a
I1030 13:23:26.858793 27292 net.cpp:150] Setting up scale5b_branch2a
I1030 13:23:26.858799 27292 net.cpp:157] Top shape: 1 512 38 63 (1225728)
I1030 13:23:26.858804 27292 net.cpp:165] Memory required for data: 4423877460
I1030 13:23:26.858811 27292 layer_factory.hpp:77] Creating layer res5b_branch2a_relu
I1030 13:23:26.858819 27292 net.cpp:100] Creating Layer res5b_branch2a_relu
I1030 13:23:26.858822 27292 net.cpp:444] res5b_branch2a_relu <- res5b_branch2a
I1030 13:23:26.858829 27292 net.cpp:405] res5b_branch2a_relu -> res5b_branch2a (in-place)
I1030 13:23:26.858835 27292 net.cpp:150] Setting up res5b_branch2a_relu
I1030 13:23:26.858840 27292 net.cpp:157] Top shape: 1 512 38 63 (1225728)
I1030 13:23:26.858844 27292 net.cpp:165] Memory required for data: 4428780372
I1030 13:23:26.858849 27292 layer_factory.hpp:77] Creating layer res5b_branch2b
I1030 13:23:26.858857 27292 net.cpp:100] Creating Layer res5b_branch2b
I1030 13:23:26.858861 27292 net.cpp:444] res5b_branch2b <- res5b_branch2a
I1030 13:23:26.858866 27292 net.cpp:418] res5b_branch2b -> res5b_branch2b
I1030 13:23:26.863191 27292 net.cpp:150] Setting up res5b_branch2b
I1030 13:23:26.863236 27292 net.cpp:157] Top shape: 1 512 38 63 (1225728)
I1030 13:23:26.863240 27292 net.cpp:165] Memory required for data: 4433683284
I1030 13:23:26.863253 27292 layer_factory.hpp:77] Creating layer bn5b_branch2b
I1030 13:23:26.863270 27292 net.cpp:100] Creating Layer bn5b_branch2b
I1030 13:23:26.863283 27292 net.cpp:444] bn5b_branch2b <- res5b_branch2b
I1030 13:23:26.863292 27292 net.cpp:405] bn5b_branch2b -> res5b_branch2b (in-place)
I1030 13:23:26.863507 27292 net.cpp:150] Setting up bn5b_branch2b
I1030 13:23:26.863517 27292 net.cpp:157] Top shape: 1 512 38 63 (1225728)
I1030 13:23:26.863520 27292 net.cpp:165] Memory required for data: 4438586196
I1030 13:23:26.863529 27292 layer_factory.hpp:77] Creating layer scale5b_branch2b
I1030 13:23:26.863540 27292 net.cpp:100] Creating Layer scale5b_branch2b
I1030 13:23:26.863545 27292 net.cpp:444] scale5b_branch2b <- res5b_branch2b
I1030 13:23:26.863551 27292 net.cpp:405] scale5b_branch2b -> res5b_branch2b (in-place)
I1030 13:23:26.863595 27292 layer_factory.hpp:77] Creating layer scale5b_branch2b
I1030 13:23:26.863698 27292 net.cpp:150] Setting up scale5b_branch2b
I1030 13:23:26.863706 27292 net.cpp:157] Top shape: 1 512 38 63 (1225728)
I1030 13:23:26.863710 27292 net.cpp:165] Memory required for data: 4443489108
I1030 13:23:26.863716 27292 layer_factory.hpp:77] Creating layer res5b_branch2b_relu
I1030 13:23:26.863726 27292 net.cpp:100] Creating Layer res5b_branch2b_relu
I1030 13:23:26.863731 27292 net.cpp:444] res5b_branch2b_relu <- res5b_branch2b
I1030 13:23:26.863735 27292 net.cpp:405] res5b_branch2b_relu -> res5b_branch2b (in-place)
I1030 13:23:26.863742 27292 net.cpp:150] Setting up res5b_branch2b_relu
I1030 13:23:26.863749 27292 net.cpp:157] Top shape: 1 512 38 63 (1225728)
I1030 13:23:26.863751 27292 net.cpp:165] Memory required for data: 4448392020
I1030 13:23:26.863755 27292 layer_factory.hpp:77] Creating layer res5b_branch2c
I1030 13:23:26.863765 27292 net.cpp:100] Creating Layer res5b_branch2c
I1030 13:23:26.863770 27292 net.cpp:444] res5b_branch2c <- res5b_branch2b
I1030 13:23:26.863775 27292 net.cpp:418] res5b_branch2c -> res5b_branch2c
I1030 13:23:26.865639 27292 net.cpp:150] Setting up res5b_branch2c
I1030 13:23:26.865689 27292 net.cpp:157] Top shape: 1 2048 38 63 (4902912)
I1030 13:23:26.865692 27292 net.cpp:165] Memory required for data: 4468003668
I1030 13:23:26.865707 27292 layer_factory.hpp:77] Creating layer bn5b_branch2c
I1030 13:23:26.865728 27292 net.cpp:100] Creating Layer bn5b_branch2c
I1030 13:23:26.865741 27292 net.cpp:444] bn5b_branch2c <- res5b_branch2c
I1030 13:23:26.865749 27292 net.cpp:405] bn5b_branch2c -> res5b_branch2c (in-place)
I1030 13:23:26.865947 27292 net.cpp:150] Setting up bn5b_branch2c
I1030 13:23:26.865957 27292 net.cpp:157] Top shape: 1 2048 38 63 (4902912)
I1030 13:23:26.865960 27292 net.cpp:165] Memory required for data: 4487615316
I1030 13:23:26.865969 27292 layer_factory.hpp:77] Creating layer scale5b_branch2c
I1030 13:23:26.865980 27292 net.cpp:100] Creating Layer scale5b_branch2c
I1030 13:23:26.865986 27292 net.cpp:444] scale5b_branch2c <- res5b_branch2c
I1030 13:23:26.865994 27292 net.cpp:405] scale5b_branch2c -> res5b_branch2c (in-place)
I1030 13:23:26.866044 27292 layer_factory.hpp:77] Creating layer scale5b_branch2c
I1030 13:23:26.866153 27292 net.cpp:150] Setting up scale5b_branch2c
I1030 13:23:26.866161 27292 net.cpp:157] Top shape: 1 2048 38 63 (4902912)
I1030 13:23:26.866166 27292 net.cpp:165] Memory required for data: 4507226964
I1030 13:23:26.866173 27292 layer_factory.hpp:77] Creating layer res5b
I1030 13:23:26.866184 27292 net.cpp:100] Creating Layer res5b
I1030 13:23:26.866191 27292 net.cpp:444] res5b <- res5a_res5a_relu_0_split_1
I1030 13:23:26.866199 27292 net.cpp:444] res5b <- res5b_branch2c
I1030 13:23:26.866204 27292 net.cpp:418] res5b -> res5b
I1030 13:23:26.866240 27292 net.cpp:150] Setting up res5b
I1030 13:23:26.866248 27292 net.cpp:157] Top shape: 1 2048 38 63 (4902912)
I1030 13:23:26.866251 27292 net.cpp:165] Memory required for data: 4526838612
I1030 13:23:26.866255 27292 layer_factory.hpp:77] Creating layer res5b_relu
I1030 13:23:26.866266 27292 net.cpp:100] Creating Layer res5b_relu
I1030 13:23:26.866271 27292 net.cpp:444] res5b_relu <- res5b
I1030 13:23:26.866277 27292 net.cpp:405] res5b_relu -> res5b (in-place)
I1030 13:23:26.866286 27292 net.cpp:150] Setting up res5b_relu
I1030 13:23:26.866293 27292 net.cpp:157] Top shape: 1 2048 38 63 (4902912)
I1030 13:23:26.866297 27292 net.cpp:165] Memory required for data: 4546450260
I1030 13:23:26.866302 27292 layer_factory.hpp:77] Creating layer res5b_res5b_relu_0_split
I1030 13:23:26.866312 27292 net.cpp:100] Creating Layer res5b_res5b_relu_0_split
I1030 13:23:26.866317 27292 net.cpp:444] res5b_res5b_relu_0_split <- res5b
I1030 13:23:26.866322 27292 net.cpp:418] res5b_res5b_relu_0_split -> res5b_res5b_relu_0_split_0
I1030 13:23:26.866328 27292 net.cpp:418] res5b_res5b_relu_0_split -> res5b_res5b_relu_0_split_1
I1030 13:23:26.866365 27292 net.cpp:150] Setting up res5b_res5b_relu_0_split
I1030 13:23:26.866375 27292 net.cpp:157] Top shape: 1 2048 38 63 (4902912)
I1030 13:23:26.866381 27292 net.cpp:157] Top shape: 1 2048 38 63 (4902912)
I1030 13:23:26.866386 27292 net.cpp:165] Memory required for data: 4585673556
I1030 13:23:26.866392 27292 layer_factory.hpp:77] Creating layer res5c_branch2a
I1030 13:23:26.866406 27292 net.cpp:100] Creating Layer res5c_branch2a
I1030 13:23:26.866412 27292 net.cpp:444] res5c_branch2a <- res5b_res5b_relu_0_split_0
I1030 13:23:26.866420 27292 net.cpp:418] res5c_branch2a -> res5c_branch2a
I1030 13:23:26.867907 27292 net.cpp:150] Setting up res5c_branch2a
I1030 13:23:26.867916 27292 net.cpp:157] Top shape: 1 512 38 63 (1225728)
I1030 13:23:26.867920 27292 net.cpp:165] Memory required for data: 4590576468
I1030 13:23:26.867926 27292 layer_factory.hpp:77] Creating layer bn5c_branch2a
I1030 13:23:26.867934 27292 net.cpp:100] Creating Layer bn5c_branch2a
I1030 13:23:26.867939 27292 net.cpp:444] bn5c_branch2a <- res5c_branch2a
I1030 13:23:26.867945 27292 net.cpp:405] bn5c_branch2a -> res5c_branch2a (in-place)
I1030 13:23:26.868085 27292 net.cpp:150] Setting up bn5c_branch2a
I1030 13:23:26.868091 27292 net.cpp:157] Top shape: 1 512 38 63 (1225728)
I1030 13:23:26.868095 27292 net.cpp:165] Memory required for data: 4595479380
I1030 13:23:26.868103 27292 layer_factory.hpp:77] Creating layer scale5c_branch2a
I1030 13:23:26.868110 27292 net.cpp:100] Creating Layer scale5c_branch2a
I1030 13:23:26.868114 27292 net.cpp:444] scale5c_branch2a <- res5c_branch2a
I1030 13:23:26.868121 27292 net.cpp:405] scale5c_branch2a -> res5c_branch2a (in-place)
I1030 13:23:26.868151 27292 layer_factory.hpp:77] Creating layer scale5c_branch2a
I1030 13:23:26.868233 27292 net.cpp:150] Setting up scale5c_branch2a
I1030 13:23:26.868240 27292 net.cpp:157] Top shape: 1 512 38 63 (1225728)
I1030 13:23:26.868245 27292 net.cpp:165] Memory required for data: 4600382292
I1030 13:23:26.868252 27292 layer_factory.hpp:77] Creating layer res5c_branch2a_relu
I1030 13:23:26.868258 27292 net.cpp:100] Creating Layer res5c_branch2a_relu
I1030 13:23:26.868263 27292 net.cpp:444] res5c_branch2a_relu <- res5c_branch2a
I1030 13:23:26.868268 27292 net.cpp:405] res5c_branch2a_relu -> res5c_branch2a (in-place)
I1030 13:23:26.868275 27292 net.cpp:150] Setting up res5c_branch2a_relu
I1030 13:23:26.868280 27292 net.cpp:157] Top shape: 1 512 38 63 (1225728)
I1030 13:23:26.868284 27292 net.cpp:165] Memory required for data: 4605285204
I1030 13:23:26.868288 27292 layer_factory.hpp:77] Creating layer res5c_branch2b
I1030 13:23:26.868296 27292 net.cpp:100] Creating Layer res5c_branch2b
I1030 13:23:26.868299 27292 net.cpp:444] res5c_branch2b <- res5c_branch2a
I1030 13:23:26.868305 27292 net.cpp:418] res5c_branch2b -> res5c_branch2b
I1030 13:23:26.871678 27292 net.cpp:150] Setting up res5c_branch2b
I1030 13:23:26.871706 27292 net.cpp:157] Top shape: 1 512 38 63 (1225728)
I1030 13:23:26.871711 27292 net.cpp:165] Memory required for data: 4610188116
I1030 13:23:26.871718 27292 layer_factory.hpp:77] Creating layer bn5c_branch2b
I1030 13:23:26.871731 27292 net.cpp:100] Creating Layer bn5c_branch2b
I1030 13:23:26.871737 27292 net.cpp:444] bn5c_branch2b <- res5c_branch2b
I1030 13:23:26.871744 27292 net.cpp:405] bn5c_branch2b -> res5c_branch2b (in-place)
I1030 13:23:26.871901 27292 net.cpp:150] Setting up bn5c_branch2b
I1030 13:23:26.871907 27292 net.cpp:157] Top shape: 1 512 38 63 (1225728)
I1030 13:23:26.871911 27292 net.cpp:165] Memory required for data: 4615091028
I1030 13:23:26.871918 27292 layer_factory.hpp:77] Creating layer scale5c_branch2b
I1030 13:23:26.871927 27292 net.cpp:100] Creating Layer scale5c_branch2b
I1030 13:23:26.871930 27292 net.cpp:444] scale5c_branch2b <- res5c_branch2b
I1030 13:23:26.871934 27292 net.cpp:405] scale5c_branch2b -> res5c_branch2b (in-place)
I1030 13:23:26.871968 27292 layer_factory.hpp:77] Creating layer scale5c_branch2b
I1030 13:23:26.872052 27292 net.cpp:150] Setting up scale5c_branch2b
I1030 13:23:26.872059 27292 net.cpp:157] Top shape: 1 512 38 63 (1225728)
I1030 13:23:26.872064 27292 net.cpp:165] Memory required for data: 4619993940
I1030 13:23:26.872071 27292 layer_factory.hpp:77] Creating layer res5c_branch2b_relu
I1030 13:23:26.872078 27292 net.cpp:100] Creating Layer res5c_branch2b_relu
I1030 13:23:26.872083 27292 net.cpp:444] res5c_branch2b_relu <- res5c_branch2b
I1030 13:23:26.872087 27292 net.cpp:405] res5c_branch2b_relu -> res5c_branch2b (in-place)
I1030 13:23:26.872093 27292 net.cpp:150] Setting up res5c_branch2b_relu
I1030 13:23:26.872099 27292 net.cpp:157] Top shape: 1 512 38 63 (1225728)
I1030 13:23:26.872103 27292 net.cpp:165] Memory required for data: 4624896852
I1030 13:23:26.872107 27292 layer_factory.hpp:77] Creating layer res5c_branch2c
I1030 13:23:26.872117 27292 net.cpp:100] Creating Layer res5c_branch2c
I1030 13:23:26.872120 27292 net.cpp:444] res5c_branch2c <- res5c_branch2b
I1030 13:23:26.872126 27292 net.cpp:418] res5c_branch2c -> res5c_branch2c
I1030 13:23:26.873469 27292 net.cpp:150] Setting up res5c_branch2c
I1030 13:23:26.873479 27292 net.cpp:157] Top shape: 1 2048 38 63 (4902912)
I1030 13:23:26.873483 27292 net.cpp:165] Memory required for data: 4644508500
I1030 13:23:26.873489 27292 layer_factory.hpp:77] Creating layer bn5c_branch2c
I1030 13:23:26.873497 27292 net.cpp:100] Creating Layer bn5c_branch2c
I1030 13:23:26.873502 27292 net.cpp:444] bn5c_branch2c <- res5c_branch2c
I1030 13:23:26.873508 27292 net.cpp:405] bn5c_branch2c -> res5c_branch2c (in-place)
I1030 13:23:26.873646 27292 net.cpp:150] Setting up bn5c_branch2c
I1030 13:23:26.873652 27292 net.cpp:157] Top shape: 1 2048 38 63 (4902912)
I1030 13:23:26.873667 27292 net.cpp:165] Memory required for data: 4664120148
I1030 13:23:26.873677 27292 layer_factory.hpp:77] Creating layer scale5c_branch2c
I1030 13:23:26.873692 27292 net.cpp:100] Creating Layer scale5c_branch2c
I1030 13:23:26.873697 27292 net.cpp:444] scale5c_branch2c <- res5c_branch2c
I1030 13:23:26.873703 27292 net.cpp:405] scale5c_branch2c -> res5c_branch2c (in-place)
I1030 13:23:26.873746 27292 layer_factory.hpp:77] Creating layer scale5c_branch2c
I1030 13:23:26.873845 27292 net.cpp:150] Setting up scale5c_branch2c
I1030 13:23:26.873852 27292 net.cpp:157] Top shape: 1 2048 38 63 (4902912)
I1030 13:23:26.873857 27292 net.cpp:165] Memory required for data: 4683731796
I1030 13:23:26.873864 27292 layer_factory.hpp:77] Creating layer res5c
I1030 13:23:26.873872 27292 net.cpp:100] Creating Layer res5c
I1030 13:23:26.873877 27292 net.cpp:444] res5c <- res5b_res5b_relu_0_split_1
I1030 13:23:26.873883 27292 net.cpp:444] res5c <- res5c_branch2c
I1030 13:23:26.873888 27292 net.cpp:418] res5c -> res5c
I1030 13:23:26.873909 27292 net.cpp:150] Setting up res5c
I1030 13:23:26.873915 27292 net.cpp:157] Top shape: 1 2048 38 63 (4902912)
I1030 13:23:26.873920 27292 net.cpp:165] Memory required for data: 4703343444
I1030 13:23:26.873925 27292 layer_factory.hpp:77] Creating layer res5c_relu
I1030 13:23:26.873937 27292 net.cpp:100] Creating Layer res5c_relu
I1030 13:23:26.873942 27292 net.cpp:444] res5c_relu <- res5c
I1030 13:23:26.873947 27292 net.cpp:405] res5c_relu -> res5c (in-place)
I1030 13:23:26.873953 27292 net.cpp:150] Setting up res5c_relu
I1030 13:23:26.873960 27292 net.cpp:157] Top shape: 1 2048 38 63 (4902912)
I1030 13:23:26.873963 27292 net.cpp:165] Memory required for data: 4722955092
I1030 13:23:26.873967 27292 layer_factory.hpp:77] Creating layer rpn_conv/3x3
I1030 13:23:26.873977 27292 net.cpp:100] Creating Layer rpn_conv/3x3
I1030 13:23:26.873983 27292 net.cpp:444] rpn_conv/3x3 <- res4b22_res4b22_relu_0_split_2
I1030 13:23:26.873989 27292 net.cpp:418] rpn_conv/3x3 -> rpn/output
I1030 13:23:26.976491 27292 net.cpp:150] Setting up rpn_conv/3x3
I1030 13:23:26.976521 27292 net.cpp:157] Top shape: 1 512 38 63 (1225728)
I1030 13:23:26.976526 27292 net.cpp:165] Memory required for data: 4727858004
I1030 13:23:26.976539 27292 layer_factory.hpp:77] Creating layer rpn_relu/3x3
I1030 13:23:26.976557 27292 net.cpp:100] Creating Layer rpn_relu/3x3
I1030 13:23:26.976563 27292 net.cpp:444] rpn_relu/3x3 <- rpn/output
I1030 13:23:26.976572 27292 net.cpp:405] rpn_relu/3x3 -> rpn/output (in-place)
I1030 13:23:26.976583 27292 net.cpp:150] Setting up rpn_relu/3x3
I1030 13:23:26.976590 27292 net.cpp:157] Top shape: 1 512 38 63 (1225728)
I1030 13:23:26.976595 27292 net.cpp:165] Memory required for data: 4732760916
I1030 13:23:26.976599 27292 layer_factory.hpp:77] Creating layer rpn/output_rpn_relu/3x3_0_split
I1030 13:23:26.976608 27292 net.cpp:100] Creating Layer rpn/output_rpn_relu/3x3_0_split
I1030 13:23:26.976611 27292 net.cpp:444] rpn/output_rpn_relu/3x3_0_split <- rpn/output
I1030 13:23:26.976627 27292 net.cpp:418] rpn/output_rpn_relu/3x3_0_split -> rpn/output_rpn_relu/3x3_0_split_0
I1030 13:23:26.976635 27292 net.cpp:418] rpn/output_rpn_relu/3x3_0_split -> rpn/output_rpn_relu/3x3_0_split_1
I1030 13:23:26.976701 27292 net.cpp:150] Setting up rpn/output_rpn_relu/3x3_0_split
I1030 13:23:26.976709 27292 net.cpp:157] Top shape: 1 512 38 63 (1225728)
I1030 13:23:26.976713 27292 net.cpp:157] Top shape: 1 512 38 63 (1225728)
I1030 13:23:26.976717 27292 net.cpp:165] Memory required for data: 4742566740
I1030 13:23:26.976722 27292 layer_factory.hpp:77] Creating layer rpn_cls_score
I1030 13:23:26.976733 27292 net.cpp:100] Creating Layer rpn_cls_score
I1030 13:23:26.976737 27292 net.cpp:444] rpn_cls_score <- rpn/output_rpn_relu/3x3_0_split_0
I1030 13:23:26.976745 27292 net.cpp:418] rpn_cls_score -> rpn_cls_score
I1030 13:23:26.977219 27292 net.cpp:150] Setting up rpn_cls_score
I1030 13:23:26.977229 27292 net.cpp:157] Top shape: 1 18 38 63 (43092)
I1030 13:23:26.977233 27292 net.cpp:165] Memory required for data: 4742739108
I1030 13:23:26.977242 27292 layer_factory.hpp:77] Creating layer rpn_cls_score_rpn_cls_score_0_split
I1030 13:23:26.977252 27292 net.cpp:100] Creating Layer rpn_cls_score_rpn_cls_score_0_split
I1030 13:23:26.977257 27292 net.cpp:444] rpn_cls_score_rpn_cls_score_0_split <- rpn_cls_score
I1030 13:23:26.977263 27292 net.cpp:418] rpn_cls_score_rpn_cls_score_0_split -> rpn_cls_score_rpn_cls_score_0_split_0
I1030 13:23:26.977272 27292 net.cpp:418] rpn_cls_score_rpn_cls_score_0_split -> rpn_cls_score_rpn_cls_score_0_split_1
I1030 13:23:26.977308 27292 net.cpp:150] Setting up rpn_cls_score_rpn_cls_score_0_split
I1030 13:23:26.977315 27292 net.cpp:157] Top shape: 1 18 38 63 (43092)
I1030 13:23:26.977321 27292 net.cpp:157] Top shape: 1 18 38 63 (43092)
I1030 13:23:26.977325 27292 net.cpp:165] Memory required for data: 4743083844
I1030 13:23:26.977330 27292 layer_factory.hpp:77] Creating layer rpn_bbox_pred
I1030 13:23:26.977341 27292 net.cpp:100] Creating Layer rpn_bbox_pred
I1030 13:23:26.977346 27292 net.cpp:444] rpn_bbox_pred <- rpn/output_rpn_relu/3x3_0_split_1
I1030 13:23:26.977354 27292 net.cpp:418] rpn_bbox_pred -> rpn_bbox_pred
I1030 13:23:26.978026 27292 net.cpp:150] Setting up rpn_bbox_pred
I1030 13:23:26.978035 27292 net.cpp:157] Top shape: 1 36 38 63 (86184)
I1030 13:23:26.978039 27292 net.cpp:165] Memory required for data: 4743428580
I1030 13:23:26.978046 27292 layer_factory.hpp:77] Creating layer rpn_bbox_pred_rpn_bbox_pred_0_split
I1030 13:23:26.978054 27292 net.cpp:100] Creating Layer rpn_bbox_pred_rpn_bbox_pred_0_split
I1030 13:23:26.978058 27292 net.cpp:444] rpn_bbox_pred_rpn_bbox_pred_0_split <- rpn_bbox_pred
I1030 13:23:26.978065 27292 net.cpp:418] rpn_bbox_pred_rpn_bbox_pred_0_split -> rpn_bbox_pred_rpn_bbox_pred_0_split_0
I1030 13:23:26.978072 27292 net.cpp:418] rpn_bbox_pred_rpn_bbox_pred_0_split -> rpn_bbox_pred_rpn_bbox_pred_0_split_1
I1030 13:23:26.978103 27292 net.cpp:150] Setting up rpn_bbox_pred_rpn_bbox_pred_0_split
I1030 13:23:26.978109 27292 net.cpp:157] Top shape: 1 36 38 63 (86184)
I1030 13:23:26.978114 27292 net.cpp:157] Top shape: 1 36 38 63 (86184)
I1030 13:23:26.978117 27292 net.cpp:165] Memory required for data: 4744118052
I1030 13:23:26.978121 27292 layer_factory.hpp:77] Creating layer rpn_cls_score_reshape
I1030 13:23:26.978134 27292 net.cpp:100] Creating Layer rpn_cls_score_reshape
I1030 13:23:26.978139 27292 net.cpp:444] rpn_cls_score_reshape <- rpn_cls_score_rpn_cls_score_0_split_0
I1030 13:23:26.978145 27292 net.cpp:418] rpn_cls_score_reshape -> rpn_cls_score_reshape
I1030 13:23:26.978170 27292 net.cpp:150] Setting up rpn_cls_score_reshape
I1030 13:23:26.978176 27292 net.cpp:157] Top shape: 1 2 342 63 (43092)
I1030 13:23:26.978180 27292 net.cpp:165] Memory required for data: 4744290420
I1030 13:23:26.978184 27292 layer_factory.hpp:77] Creating layer rpn_cls_score_reshape_rpn_cls_score_reshape_0_split
I1030 13:23:26.978190 27292 net.cpp:100] Creating Layer rpn_cls_score_reshape_rpn_cls_score_reshape_0_split
I1030 13:23:26.978194 27292 net.cpp:444] rpn_cls_score_reshape_rpn_cls_score_reshape_0_split <- rpn_cls_score_reshape
I1030 13:23:26.978201 27292 net.cpp:418] rpn_cls_score_reshape_rpn_cls_score_reshape_0_split -> rpn_cls_score_reshape_rpn_cls_score_reshape_0_split_0
I1030 13:23:26.978209 27292 net.cpp:418] rpn_cls_score_reshape_rpn_cls_score_reshape_0_split -> rpn_cls_score_reshape_rpn_cls_score_reshape_0_split_1
I1030 13:23:26.978235 27292 net.cpp:150] Setting up rpn_cls_score_reshape_rpn_cls_score_reshape_0_split
I1030 13:23:26.978240 27292 net.cpp:157] Top shape: 1 2 342 63 (43092)
I1030 13:23:26.978246 27292 net.cpp:157] Top shape: 1 2 342 63 (43092)
I1030 13:23:26.978250 27292 net.cpp:165] Memory required for data: 4744635156
I1030 13:23:26.978253 27292 layer_factory.hpp:77] Creating layer rpn-data
I1030 13:23:26.978622 27292 net.cpp:100] Creating Layer rpn-data
I1030 13:23:26.978631 27292 net.cpp:444] rpn-data <- rpn_cls_score_rpn_cls_score_0_split_1
I1030 13:23:26.978637 27292 net.cpp:444] rpn-data <- gt_boxes_input-data_2_split_0
I1030 13:23:26.978643 27292 net.cpp:444] rpn-data <- im_info_input-data_1_split_0
I1030 13:23:26.978648 27292 net.cpp:444] rpn-data <- data_input-data_0_split_1
I1030 13:23:26.978655 27292 net.cpp:418] rpn-data -> rpn_labels
I1030 13:23:26.978663 27292 net.cpp:418] rpn-data -> rpn_bbox_targets
I1030 13:23:26.978672 27292 net.cpp:418] rpn-data -> rpn_bbox_inside_weights
I1030 13:23:26.978678 27292 net.cpp:418] rpn-data -> rpn_bbox_outside_weights
I1030 13:23:26.979281 27292 net.cpp:150] Setting up rpn-data
I1030 13:23:26.979295 27292 net.cpp:157] Top shape: 1 1 342 63 (21546)
I1030 13:23:26.979300 27292 net.cpp:157] Top shape: 1 36 38 63 (86184)
I1030 13:23:26.979305 27292 net.cpp:157] Top shape: 1 36 38 63 (86184)
I1030 13:23:26.979308 27292 net.cpp:157] Top shape: 1 36 38 63 (86184)
I1030 13:23:26.979313 27292 net.cpp:165] Memory required for data: 4745755548
I1030 13:23:26.979317 27292 layer_factory.hpp:77] Creating layer rpn_loss_cls
I1030 13:23:26.979331 27292 net.cpp:100] Creating Layer rpn_loss_cls
I1030 13:23:26.979336 27292 net.cpp:444] rpn_loss_cls <- rpn_cls_score_reshape_rpn_cls_score_reshape_0_split_0
I1030 13:23:26.979342 27292 net.cpp:444] rpn_loss_cls <- rpn_labels
…
I1030 13:23:26.980512 27292 net.cpp:157] Top shape: (1)
I1030 13:23:26.980516 27292 net.cpp:160]     with loss weight 1
I1030 13:23:26.980522 27292 net.cpp:165] Memory required for data: 4745755556
I1030 13:23:26.980526 27292 layer_factory.hpp:77] Creating layer rpn_cls_prob
I1030 13:23:26.980535 27292 net.cpp:100] Creating Layer rpn_cls_prob
I1030 13:23:26.980540 27292 net.cpp:444] rpn_cls_prob <- rpn_cls_score_reshape_rpn_cls_score_reshape_0_split_1
I1030 13:23:26.980546 27292 net.cpp:418] rpn_cls_prob -> rpn_cls_prob
I1030 13:23:26.980603 27292 net.cpp:150] Setting up rpn_cls_prob
I1030 13:23:26.980610 27292 net.cpp:157] Top shape: 1 2 342 63 (43092)
I1030 13:23:26.980614 27292 net.cpp:165] Memory required for data: 4745927924
I1030 13:23:26.980619 27292 layer_factory.hpp:77] Creating layer rpn_cls_prob_reshape
I1030 13:23:26.980628 27292 net.cpp:100] Creating Layer rpn_cls_prob_reshape
I1030 13:23:26.980633 27292 net.cpp:444] rpn_cls_prob_reshape <- rpn_cls_prob
I1030 13:23:26.980639 27292 net.cpp:418] rpn_cls_prob_reshape -> rpn_cls_prob_reshape
I1030 13:23:26.980662 27292 net.cpp:150] Setting up rpn_cls_prob_reshape
I1030 13:23:26.980669 27292 net.cpp:157] Top shape: 1 18 38 63 (43092)
I1030 13:23:26.980674 27292 net.cpp:165] Memory required for data: 4746100292
I1030 13:23:26.980679 27292 layer_factory.hpp:77] Creating layer proposal
I1030 13:23:26.981775 27292 net.cpp:100] Creating Layer proposal
I1030 13:23:26.981796 27292 net.cpp:444] proposal <- rpn_cls_prob_reshape
I1030 13:23:26.981808 27292 net.cpp:444] proposal <- rpn_bbox_pred_rpn_bbox_pred_0_split_1
I1030 13:23:26.981817 27292 net.cpp:444] proposal <- im_info_input-data_1_split_1
I1030 13:23:26.981827 27292 net.cpp:418] proposal -> rpn_rois
I1030 13:23:26.982625 27292 net.cpp:150] Setting up proposal
I1030 13:23:26.982640 27292 net.cpp:157] Top shape: 1 5 (5)
I1030 13:23:26.982643 27292 net.cpp:165] Memory required for data: 4746100312
I1030 13:23:26.982648 27292 layer_factory.hpp:77] Creating layer roi-data
I1030 13:23:26.982808 27292 net.cpp:100] Creating Layer roi-data
I1030 13:23:26.982817 27292 net.cpp:444] roi-data <- rpn_rois
I1030 13:23:26.982825 27292 net.cpp:444] roi-data <- gt_boxes_input-data_2_split_1
I1030 13:23:26.982834 27292 net.cpp:418] roi-data -> rois
I1030 13:23:26.982843 27292 net.cpp:418] roi-data -> labels
I1030 13:23:26.982852 27292 net.cpp:418] roi-data -> bbox_targets
I1030 13:23:26.982861 27292 net.cpp:418] roi-data -> bbox_inside_weights
I1030 13:23:26.982868 27292 net.cpp:418] roi-data -> bbox_outside_weights
I1030 13:23:26.983345 27292 net.cpp:150] Setting up roi-data
I1030 13:23:26.983355 27292 net.cpp:157] Top shape: 1 5 1 1 (5)
I1030 13:23:26.983361 27292 net.cpp:157] Top shape: 1 1 1 1 (1)
I1030 13:23:26.983366 27292 net.cpp:157] Top shape: 1 8 1 1 (8)
I1030 13:23:26.983371 27292 net.cpp:157] Top shape: 1 8 1 1 (8)
I1030 13:23:26.983376 27292 net.cpp:157] Top shape: 1 8 1 1 (8)
I1030 13:23:26.983379 27292 net.cpp:165] Memory required for data: 4746100432
I1030 13:23:26.983384 27292 layer_factory.hpp:77] Creating layer rois_roi-data_0_split
I1030 13:23:26.983392 27292 net.cpp:100] Creating Layer rois_roi-data_0_split
I1030 13:23:26.983395 27292 net.cpp:444] rois_roi-data_0_split <- rois
I1030 13:23:26.983402 27292 net.cpp:418] rois_roi-data_0_split -> rois_roi-data_0_split_0
I1030 13:23:26.983410 27292 net.cpp:418] rois_roi-data_0_split -> rois_roi-data_0_split_1
I1030 13:23:26.983417 27292 net.cpp:418] rois_roi-data_0_split -> rois_roi-data_0_split_2
I1030 13:23:26.983456 27292 net.cpp:150] Setting up rois_roi-data_0_split
I1030 13:23:26.983463 27292 net.cpp:157] Top shape: 1 5 1 1 (5)
I1030 13:23:26.983469 27292 net.cpp:157] Top shape: 1 5 1 1 (5)
I1030 13:23:26.983474 27292 net.cpp:157] Top shape: 1 5 1 1 (5)
I1030 13:23:26.983477 27292 net.cpp:165] Memory required for data: 4746100492
I1030 13:23:26.983481 27292 layer_factory.hpp:77] Creating layer labels_roi-data_1_split
I1030 13:23:26.983487 27292 net.cpp:100] Creating Layer labels_roi-data_1_split
I1030 13:23:26.983491 27292 net.cpp:444] labels_roi-data_1_split <- labels
I1030 13:23:26.983495 27292 net.cpp:418] labels_roi-data_1_split -> labels_roi-data_1_split_0
I1030 13:23:26.983502 27292 net.cpp:418] labels_roi-data_1_split -> labels_roi-data_1_split_1
I1030 13:23:26.983530 27292 net.cpp:150] Setting up labels_roi-data_1_split
I1030 13:23:26.983536 27292 net.cpp:157] Top shape: 1 1 1 1 (1)
I1030 13:23:26.983541 27292 net.cpp:157] Top shape: 1 1 1 1 (1)
I1030 13:23:26.983544 27292 net.cpp:165] Memory required for data: 4746100500
I1030 13:23:26.983547 27292 layer_factory.hpp:77] Creating layer bbox_targets_roi-data_2_split
I1030 13:23:26.983553 27292 net.cpp:100] Creating Layer bbox_targets_roi-data_2_split
I1030 13:23:26.983558 27292 net.cpp:444] bbox_targets_roi-data_2_split <- bbox_targets
I1030 13:23:26.983564 27292 net.cpp:418] bbox_targets_roi-data_2_split -> bbox_targets_roi-data_2_split_0
I1030 13:23:26.983572 27292 net.cpp:418] bbox_targets_roi-data_2_split -> bbox_targets_roi-data_2_split_1
I1030 13:23:26.983598 27292 net.cpp:150] Setting up bbox_targets_roi-data_2_split
I1030 13:23:26.983604 27292 net.cpp:157] Top shape: 1 8 1 1 (8)
I1030 13:23:26.983609 27292 net.cpp:157] Top shape: 1 8 1 1 (8)
I1030 13:23:26.983613 27292 net.cpp:165] Memory required for data: 4746100564
I1030 13:23:26.983618 27292 layer_factory.hpp:77] Creating layer bbox_inside_weights_roi-data_3_split
I1030 13:23:26.983623 27292 net.cpp:100] Creating Layer bbox_inside_weights_roi-data_3_split
I1030 13:23:26.983628 27292 net.cpp:444] bbox_inside_weights_roi-data_3_split <- bbox_inside_weights
I1030 13:23:26.983633 27292 net.cpp:418] bbox_inside_weights_roi-data_3_split -> bbox_inside_weights_roi-data_3_split_0
I1030 13:23:26.983640 27292 net.cpp:418] bbox_inside_weights_roi-data_3_split -> bbox_inside_weights_roi-data_3_split_1
I1030 13:23:26.983666 27292 net.cpp:150] Setting up bbox_inside_weights_roi-data_3_split
I1030 13:23:26.983672 27292 net.cpp:157] Top shape: 1 8 1 1 (8)
I1030 13:23:26.983677 27292 net.cpp:157] Top shape: 1 8 1 1 (8)
I1030 13:23:26.983681 27292 net.cpp:165] Memory required for data: 4746100628
I1030 13:23:26.983686 27292 layer_factory.hpp:77] Creating layer conv_new_1
I1030 13:23:26.983697 27292 net.cpp:100] Creating Layer conv_new_1
I1030 13:23:26.983701 27292 net.cpp:444] conv_new_1 <- res5c
I1030 13:23:26.983708 27292 net.cpp:418] conv_new_1 -> conv_new_1
I1030 13:23:27.028137 27292 net.cpp:150] Setting up conv_new_1
I1030 13:23:27.028164 27292 net.cpp:157] Top shape: 1 1024 38 63 (2451456)
I1030 13:23:27.028169 27292 net.cpp:165] Memory required for data: 4755906452
I1030 13:23:27.028180 27292 layer_factory.hpp:77] Creating layer conv_new_1_relu
I1030 13:23:27.028195 27292 net.cpp:100] Creating Layer conv_new_1_relu
I1030 13:23:27.028203 27292 net.cpp:444] conv_new_1_relu <- conv_new_1
I1030 13:23:27.028211 27292 net.cpp:405] conv_new_1_relu -> conv_new_1 (in-place)
I1030 13:23:27.028220 27292 net.cpp:150] Setting up conv_new_1_relu
I1030 13:23:27.028225 27292 net.cpp:157] Top shape: 1 1024 38 63 (2451456)
I1030 13:23:27.028230 27292 net.cpp:165] Memory required for data: 4765712276
I1030 13:23:27.028234 27292 layer_factory.hpp:77] Creating layer conv_new_1_conv_new_1_relu_0_split
I1030 13:23:27.028241 27292 net.cpp:100] Creating Layer conv_new_1_conv_new_1_relu_0_split
I1030 13:23:27.028245 27292 net.cpp:444] conv_new_1_conv_new_1_relu_0_split <- conv_new_1
I1030 13:23:27.028251 27292 net.cpp:418] conv_new_1_conv_new_1_relu_0_split -> conv_new_1_conv_new_1_relu_0_split_0
I1030 13:23:27.028259 27292 net.cpp:418] conv_new_1_conv_new_1_relu_0_split -> conv_new_1_conv_new_1_relu_0_split_1
I1030 13:23:27.028298 27292 net.cpp:150] Setting up conv_new_1_conv_new_1_relu_0_split
I1030 13:23:27.028306 27292 net.cpp:157] Top shape: 1 1024 38 63 (2451456)
I1030 13:23:27.028311 27292 net.cpp:157] Top shape: 1 1024 38 63 (2451456)
I1030 13:23:27.028314 27292 net.cpp:165] Memory required for data: 4785323924
I1030 13:23:27.028318 27292 layer_factory.hpp:77] Creating layer rfcn_cls
I1030 13:23:27.028328 27292 net.cpp:100] Creating Layer rfcn_cls
I1030 13:23:27.028333 27292 net.cpp:444] rfcn_cls <- conv_new_1_conv_new_1_relu_0_split_0
I1030 13:23:27.028342 27292 net.cpp:418] rfcn_cls -> rfcn_cls
I1030 13:23:27.030571 27292 net.cpp:150] Setting up rfcn_cls
I1030 13:23:27.030586 27292 net.cpp:157] Top shape: 1 98 38 63 (234612)
I1030 13:23:27.030589 27292 net.cpp:165] Memory required for data: 4786262372
I1030 13:23:27.030599 27292 layer_factory.hpp:77] Creating layer rfcn_bbox
I1030 13:23:27.030612 27292 net.cpp:100] Creating Layer rfcn_bbox
I1030 13:23:27.030617 27292 net.cpp:444] rfcn_bbox <- conv_new_1_conv_new_1_relu_0_split_1
I1030 13:23:27.030627 27292 net.cpp:418] rfcn_bbox -> rfcn_bbox
I1030 13:23:27.039711 27292 net.cpp:150] Setting up rfcn_bbox
I1030 13:23:27.039737 27292 net.cpp:157] Top shape: 1 392 38 63 (938448)
I1030 13:23:27.039741 27292 net.cpp:165] Memory required for data: 4790016164
I1030 13:23:27.039752 27292 layer_factory.hpp:77] Creating layer psroipooled_cls_rois
I1030 13:23:27.039773 27292 net.cpp:100] Creating Layer psroipooled_cls_rois
I1030 13:23:27.039780 27292 net.cpp:444] psroipooled_cls_rois <- rfcn_cls
I1030 13:23:27.039788 27292 net.cpp:444] psroipooled_cls_rois <- rois_roi-data_0_split_0
I1030 13:23:27.039796 27292 net.cpp:418] psroipooled_cls_rois -> psroipooled_cls_rois
I1030 13:23:27.039809 27292 psroi_pooling_layer.cpp:26] Spatial scale: 0.0625
I1030 13:23:27.039855 27292 net.cpp:150] Setting up psroipooled_cls_rois
I1030 13:23:27.039862 27292 net.cpp:157] Top shape: 1 2 7 7 (98)
I1030 13:23:27.039867 27292 net.cpp:165] Memory required for data: 4790016556
I1030 13:23:27.039871 27292 layer_factory.hpp:77] Creating layer ave_cls_score_rois
I1030 13:23:27.039880 27292 net.cpp:100] Creating Layer ave_cls_score_rois
I1030 13:23:27.039885 27292 net.cpp:444] ave_cls_score_rois <- psroipooled_cls_rois
I1030 13:23:27.039891 27292 net.cpp:418] ave_cls_score_rois -> cls_score
I1030 13:23:27.039914 27292 net.cpp:150] Setting up ave_cls_score_rois
I1030 13:23:27.039921 27292 net.cpp:157] Top shape: 1 2 1 1 (2)
I1030 13:23:27.039924 27292 net.cpp:165] Memory required for data: 4790016564
I1030 13:23:27.039929 27292 layer_factory.hpp:77] Creating layer cls_score_ave_cls_score_rois_0_split
I1030 13:23:27.039937 27292 net.cpp:100] Creating Layer cls_score_ave_cls_score_rois_0_split
I1030 13:23:27.039940 27292 net.cpp:444] cls_score_ave_cls_score_rois_0_split <- cls_score
I1030 13:23:27.039947 27292 net.cpp:418] cls_score_ave_cls_score_rois_0_split -> cls_score_ave_cls_score_rois_0_split_0
I1030 13:23:27.039958 27292 net.cpp:418] cls_score_ave_cls_score_rois_0_split -> cls_score_ave_cls_score_rois_0_split_1
I1030 13:23:27.039964 27292 net.cpp:418] cls_score_ave_cls_score_rois_0_split -> cls_score_ave_cls_score_rois_0_split_2
I1030 13:23:27.040001 27292 net.cpp:150] Setting up cls_score_ave_cls_score_rois_0_split
I1030 13:23:27.040007 27292 net.cpp:157] Top shape: 1 2 1 1 (2)
I1030 13:23:27.040014 27292 net.cpp:157] Top shape: 1 2 1 1 (2)
I1030 13:23:27.040019 27292 net.cpp:157] Top shape: 1 2 1 1 (2)
I1030 13:23:27.040022 27292 net.cpp:165] Memory required for data: 4790016588
I1030 13:23:27.040027 27292 layer_factory.hpp:77] Creating layer psroipooled_loc_rois
I1030 13:23:27.040033 27292 net.cpp:100] Creating Layer psroipooled_loc_rois
I1030 13:23:27.040038 27292 net.cpp:444] psroipooled_loc_rois <- rfcn_bbox
I1030 13:23:27.040045 27292 net.cpp:444] psroipooled_loc_rois <- rois_roi-data_0_split_1
I1030 13:23:27.040050 27292 net.cpp:418] psroipooled_loc_rois -> psroipooled_loc_rois
I1030 13:23:27.040057 27292 psroi_pooling_layer.cpp:26] Spatial scale: 0.0625
I1030 13:23:27.040086 27292 net.cpp:150] Setting up psroipooled_loc_rois
I1030 13:23:27.040091 27292 net.cpp:157] Top shape: 1 8 7 7 (392)
I1030 13:23:27.040096 27292 net.cpp:165] Memory required for data: 4790018156
I1030 13:23:27.040099 27292 layer_factory.hpp:77] Creating layer ave_bbox_pred_rois
I1030 13:23:27.040110 27292 net.cpp:100] Creating Layer ave_bbox_pred_rois
I1030 13:23:27.040114 27292 net.cpp:444] ave_bbox_pred_rois <- psroipooled_loc_rois
I1030 13:23:27.040119 27292 net.cpp:418] ave_bbox_pred_rois -> bbox_pred
I1030 13:23:27.040139 27292 net.cpp:150] Setting up ave_bbox_pred_rois
I1030 13:23:27.040145 27292 net.cpp:157] Top shape: 1 8 1 1 (8)
I1030 13:23:27.040150 27292 net.cpp:165] Memory required for data: 4790018188
I1030 13:23:27.040155 27292 layer_factory.hpp:77] Creating layer bbox_pred_ave_bbox_pred_rois_0_split
I1030 13:23:27.040161 27292 net.cpp:100] Creating Layer bbox_pred_ave_bbox_pred_rois_0_split
I1030 13:23:27.040165 27292 net.cpp:444] bbox_pred_ave_bbox_pred_rois_0_split <- bbox_pred
I1030 13:23:27.040171 27292 net.cpp:418] bbox_pred_ave_bbox_pred_rois_0_split -> bbox_pred_ave_bbox_pred_rois_0_split_0
I1030 13:23:27.040179 27292 net.cpp:418] bbox_pred_ave_bbox_pred_rois_0_split -> bbox_pred_ave_bbox_pred_rois_0_split_1
I1030 13:23:27.040206 27292 net.cpp:150] Setting up bbox_pred_ave_bbox_pred_rois_0_split
I1030 13:23:27.040212 27292 net.cpp:157] Top shape: 1 8 1 1 (8)
I1030 13:23:27.040217 27292 net.cpp:157] Top shape: 1 8 1 1 (8)
I1030 13:23:27.040221 27292 net.cpp:165] Memory required for data: 4790018252
I1030 13:23:27.040225 27292 layer_factory.hpp:77] Creating layer per_roi_loss_cls
I1030 13:23:27.040235 27292 net.cpp:100] Creating Layer per_roi_loss_cls
I1030 13:23:27.040238 27292 net.cpp:444] per_roi_loss_cls <- cls_score_ave_cls_score_rois_0_split_0
I1030 13:23:27.040243 27292 net.cpp:444] per_roi_loss_cls <- labels_roi-data_1_split_0
I1030 13:23:27.040249 27292 net.cpp:418] per_roi_loss_cls -> temp_loss_cls
I1030 13:23:27.040256 27292 net.cpp:418] per_roi_loss_cls -> temp_prob_cls
I1030 13:23:27.040263 27292 net.cpp:418] per_roi_loss_cls -> per_roi_loss_cls
I1030 13:23:27.040272 27292 layer_factory.hpp:77] Creating layer per_roi_loss_cls
I1030 13:23:27.040343 27292 net.cpp:150] Setting up per_roi_loss_cls
I1030 13:23:27.040349 27292 net.cpp:157] Top shape: (1)
I1030 13:23:27.040354 27292 net.cpp:157] Top shape: 1 2 1 1 (2)
I1030 13:23:27.040359 27292 net.cpp:157] Top shape: 1 1 1 1 (1)
I1030 13:23:27.040362 27292 net.cpp:165] Memory required for data: 4790018268
I1030 13:23:27.040366 27292 layer_factory.hpp:77] Creating layer per_roi_loss_bbox
I1030 13:23:27.040374 27292 net.cpp:100] Creating Layer per_roi_loss_bbox
I1030 13:23:27.040379 27292 net.cpp:444] per_roi_loss_bbox <- bbox_pred_ave_bbox_pred_rois_0_split_0
I1030 13:23:27.040385 27292 net.cpp:444] per_roi_loss_bbox <- bbox_targets_roi-data_2_split_0
I1030 13:23:27.040390 27292 net.cpp:444] per_roi_loss_bbox <- bbox_inside_weights_roi-data_3_split_0
I1030 13:23:27.040396 27292 net.cpp:418] per_roi_loss_bbox -> temp_loss_bbox
I1030 13:23:27.040405 27292 net.cpp:418] per_roi_loss_bbox -> per_roi_loss_bbox
I1030 13:23:27.040441 27292 net.cpp:150] Setting up per_roi_loss_bbox
I1030 13:23:27.040447 27292 net.cpp:157] Top shape: (1)
I1030 13:23:27.040452 27292 net.cpp:157] Top shape: 1 1 1 1 (1)
I1030 13:23:27.040457 27292 net.cpp:165] Memory required for data: 4790018276
I1030 13:23:27.040462 27292 layer_factory.hpp:77] Creating layer per_roi_loss
I1030 13:23:27.040468 27292 net.cpp:100] Creating Layer per_roi_loss
I1030 13:23:27.040472 27292 net.cpp:444] per_roi_loss <- per_roi_loss_cls
I1030 13:23:27.040478 27292 net.cpp:444] per_roi_loss <- per_roi_loss_bbox
I1030 13:23:27.040484 27292 net.cpp:418] per_roi_loss -> per_roi_loss
I1030 13:23:27.040503 27292 net.cpp:150] Setting up per_roi_loss
I1030 13:23:27.040509 27292 net.cpp:157] Top shape: 1 1 1 1 (1)
I1030 13:23:27.040513 27292 net.cpp:165] Memory required for data: 4790018280
I1030 13:23:27.040518 27292 layer_factory.hpp:77] Creating layer annotator_detector
I1030 13:23:27.040526 27292 net.cpp:100] Creating Layer annotator_detector
I1030 13:23:27.040531 27292 net.cpp:444] annotator_detector <- rois_roi-data_0_split_2
I1030 13:23:27.040536 27292 net.cpp:444] annotator_detector <- per_roi_loss
I1030 13:23:27.040541 27292 net.cpp:444] annotator_detector <- labels_roi-data_1_split_1
I1030 13:23:27.040547 27292 net.cpp:444] annotator_detector <- bbox_inside_weights_roi-data_3_split_1
I1030 13:23:27.040554 27292 net.cpp:418] annotator_detector -> labels_ohem
I1030 13:23:27.040560 27292 net.cpp:418] annotator_detector -> bbox_loss_weights_ohem
I1030 13:23:27.040590 27292 net.cpp:150] Setting up annotator_detector
I1030 13:23:27.040596 27292 net.cpp:157] Top shape: 1 1 1 1 (1)
I1030 13:23:27.040601 27292 net.cpp:157] Top shape: 1 8 1 1 (8)
I1030 13:23:27.040606 27292 net.cpp:165] Memory required for data: 4790018316
I1030 13:23:27.040609 27292 layer_factory.hpp:77] Creating layer labels_ohem_annotator_detector_0_split
I1030 13:23:27.040616 27292 net.cpp:100] Creating Layer labels_ohem_annotator_detector_0_split
I1030 13:23:27.040621 27292 net.cpp:444] labels_ohem_annotator_detector_0_split <- labels_ohem
I1030 13:23:27.040627 27292 net.cpp:418] labels_ohem_annotator_detector_0_split -> labels_ohem_annotator_detector_0_split_0
I1030 13:23:27.040633 27292 net.cpp:418] labels_ohem_annotator_detector_0_split -> labels_ohem_annotator_detector_0_split_1
I1030 13:23:27.040660 27292 net.cpp:150] Setting up labels_ohem_annotator_detector_0_split
I1030 13:23:27.040666 27292 net.cpp:157] Top shape: 1 1 1 1 (1)
I1030 13:23:27.040671 27292 net.cpp:157] Top shape: 1 1 1 1 (1)
I1030 13:23:27.040675 27292 net.cpp:165] Memory required for data: 4790018324
I1030 13:23:27.040680 27292 layer_factory.hpp:77] Creating layer silence
I1030 13:23:27.040688 27292 net.cpp:100] Creating Layer silence
I1030 13:23:27.040693 27292 net.cpp:444] silence <- bbox_outside_weights
I1030 13:23:27.040699 27292 net.cpp:444] silence <- temp_loss_cls
I1030 13:23:27.040704 27292 net.cpp:444] silence <- temp_prob_cls
…
