…
snapshot: 0
snapshot_prefix: "resnet101_rfcn_ohem"
iter_size: 2
I1030 11:13:53.002444 26474 solver.cpp:81] Creating training net from train_net file: models/pascal_voc/ResNet-101/rfcn_end2end/train_agonistic_ohem.prototxt
I1030 11:13:53.010012 26474 net.cpp:58] Initializing net from parameters: 
name: "ResNet-101"
state {
  phase: TRAIN
}
layer {
  name: "input-data"
  type: "Python"
  top: "data"
  top: "im_info"
  top: "gt_boxes"
  python_param {
    module: "roi_data_layer.layer"
    layer: "RoIDataLayer"
    param_str: "\'num_classes\': 21"
  }
}
layer {
  name: "conv1"
  type: "Convolution"
  bottom: "data"
  top: "conv1"
  param {
    lr_mult: 0
  }
  convolution_param {
    num_output: 64
    bias_term: false
    pad: 3
    kernel_size: 7
    stride: 2
  }
}
layer {
  name: "bn_conv1"
  type: "BatchNorm"
  bottom: "conv1"
  top: "conv1"
  param {
    lr_mult: 0
    decay_mult: 0
  }
  param {
    lr_mult: 0
    decay_mult: 0
  }
  param {
    lr_mult: 0
    decay_mult: 0
  }
  batch_norm_param {
    use_global_stats: true
  }
}
layer {
  name: "scale_conv1"
  type: "Scale"
  bottom: "conv1"
  top: "conv1"
  param {
    lr_mult: 0
    decay_mult: 0
  }
  param {
    lr_mult: 0
    decay_mult: 0
  }
  scale_param {
    bias_term: true
  }
}
layer {
  name: "conv1_relu"
  type: "ReLU"
  bottom: "conv1"
  top: "conv1"
}
layer {
  name: "pool1"
  type: "Pooling"
  bottom: "conv1"
  top: "pool1"
  pooling_param {
    pool: MAX
    kernel_size: 3
    stride: 2
  }
}
layer {
  name: "res2a_branch1"
  type: "Convolution"
  bottom: "pool1"
  top: "res2a_branch1"
  param {
    lr_mult: 0
  }
  convolution_param {
    num_output: 256
    bias_term: false
    pad: 0
    kernel_size: 1
    stride: 1
  }
}
layer {
  name: "bn2a_branch1"
  type: "BatchNorm"
  bottom: "res2a_branch1"
  top: "res2a_branch1"
  param {
    lr_mult: 0
    decay_mult: 0
  }
  param {
    lr_mult: 0
    decay_mult: 0
  }
  param {
    lr_mult: 0
    decay_mult: 0
  }
  batch_norm_param {
    use_global_stats: true
  }
}
layer {
  name: "scale2a_branch1"
  type: "Scale"
  bottom: "res2a_branch1"
  top: "res2a_branch1"
  param {
    lr_mult: 0
    decay_mult: 0
  }
  param {
    lr_mult: 0
    decay_mult: 0
  }
  scale_param {
    bias_term: true
  }
}
layer {
  name: "res2a_branch2a"
  type: "Convolution"
  bottom: "pool1"
  top: "res2a_branch2a"
  param {
    lr_mult: 0
  }
  convolution_param {
    num_output: 64
    bias_term: false
    pad: 0
    kernel_size: 1
    stride: 1
  }
}
layer {
  name: "bn2a_branch2a"
  type: "BatchNorm"
  bottom: "res2a_branch2a"
  top: "res2a_branch2a"
  param {
    lr_mult: 0
    decay_mult: 0
  }
  param {
    lr_mult: 0
    decay_mult: 0
  }
  param {
    lr_mult: 0
    decay_mult: 0
  }
  batch_norm_param {
    use_global_stats: true
  }
}
layer {
  name: "scale2a_branch2a"
  type: "Scale"
  bottom: "res2a_branch2a"
  top: "res2a_branch2a"
  param {
    lr_mult: 0
    decay_mult: 0
  }
  param {
    lr_mult: 0
    decay_mult: 0
  }
  scale_param {
    bias_term: true
  }
}
layer {
  name: "res2a_branch2a_relu"
  type: "ReLU"
  bottom: "res2a_branch2a"
  top: "res2a_branch2a"
}
layer {
  name: "res2a_branch2b"
  type: "Convolution"
  bottom: "res2a_branch2a"
  top: "res2a_branch2b"
  param {
    lr_mult: 0
  }
  convolution_param {
    num_output: 64
    bias_term: false
    pad: 1
    kernel_size: 3
    stride: 1
  }
}
layer {
  name: "bn2a_branch2b"
  type: "BatchNorm"
  bottom: "res2a_branch2b"
  top: "res2a_branch2b"
  param {
    lr_mult: 0
    decay_mult: 0
  }
  param {
    lr_mult: 0
    decay_mult: 0
  }
  param {
    lr_mult: 0
    decay_mult: 0
  }
  batch_norm_param {
    use_global_stats: true
  }
}
layer {
  name: "scale2a_branch2b"
  type: "Scale"
  bottom: "res2a_branch2b"
  top: "res2a_branch2b"
  param {
    lr_mult: 0
    decay_mult: 0
  }
  param {
    lr_mult: 0
    decay_mult: 0
  }
  scale_param {
    bias_term: true
  }
}
layer {
  name: "res2a_branch2b_relu"
  type: "ReLU"
  bottom: "res2a_branch2b"
  top: "res2a_branch2b"
}
layer {
  name: "res2a_branch2c"
  type: "Convolution"
  bottom: "res2a_branch2b"
  top: "res2a_branch2c"
  param {
    lr_mult: 0
  }
  convolution_param {
    num_output: 256
    bias_term: false
    pad: 0
    kernel_size: 1
    stride: 1
  }
}
layer {
  name: "bn2a_branch2c"
  type: "BatchNorm"
  bottom: "res2a_branch2c"
  top: "res2a_branch2c"
  param {
    lr_mult: 0
    decay_mult: 0
  }
  param {
    lr_mult: 0
    decay_mult: 0
  }
  param {
    lr_mult: 0
    decay_mult: 0
  }
  batch_norm_param {
    use_global_stats: true
  }
}
layer {
  name: "scale2a_branch2c"
  type: "Scale"
  bottom: "res2a_branch2c"
  top: "res2a_branch2c"
  param {
    lr_mult: 0
    decay_mult: 0
  }
  param {
    lr_mult: 0
    decay_mult: 0
  }
  scale_param {
    bias_term: true
  }
}
layer {
  name: "res2a"
  type: "Eltwise"
  bottom: "res2a_branch1"
  bottom: "res2a_branch2c"
  top: "res2a"
}
layer {
  name: "res2a_relu"
  type: "ReLU"
  bottom: "res2a"
  top: "res2a"
}
layer {
  name: "res2b_branch2a"
  type: "Convolution"
  bottom: "res2a"
  top: "res2b_branch2a"
  param {
    lr_mult: 0
  }
  convolution_param {
    num_output: 64
    bias_term: false
    pad: 0
    kernel_size: 1
    stride: 1
  }
}
layer {
  name: "bn2b_branch2a"
  type: "BatchNorm"
  bottom: "res2b_branch2a"
  top: "res2b_branch2a"
  param {
    lr_mult: 0
    decay_mult: 0
  }
  param {
    lr_mult: 0
    decay_mult: 0
  }
  param {
    lr_mult: 0
    decay_mult: 0
  }
  batch_norm_param {
    use_global_stats: true
  }
}
layer {
  name: "scale2b_branch2a"
  type: "Scale"
  bottom: "res2b_branch2a"
  top: "res2b_branch2a"
  param {
    lr_mult: 0
    decay_mult: 0
  }
  param {
    lr_mult: 0
    decay_mult: 0
  }
  scale_param {
    bias_term: true
  }
}
layer {
  name: "res2b_branch2a_relu"
  type: "ReLU"
  bottom: "res2b_branch2a"
  top: "res2b_branch2a"
}
layer {
  name: "res2b_branch2b"
  type: "Convolution"
  bottom: "res2b_branch2a"
  top: "res2b_branch2b"
  param {
    lr_mult: 0
  }
  convolution_param {
    num_output: 64
    bias_term: false
    pad: 1
    kernel_size: 3
    stride: 1
  }
}
layer {
  name: "bn2b_branch2b"
  type: "BatchNorm"
  bottom: "res2b_branch2b"
  top: "res2b_branch2b"
  param {
    lr_mult: 0
    decay_mult: 0
  }
  param {
    lr_mult: 0
    decay_mult: 0
  }
  param {
    lr_mult: 0
    decay_mult: 0
  }
  batch_norm_param {
    use_global_stats: true
  }
}
layer {
  name: "scale2b_branch2b"
  type: "Scale"
  bottom: "res2b_branch2b"
  top: "res2b_branch2b"
  param {
    lr_mult: 0
    decay_mult: 0
  }
  param {
    lr_mult: 0
    decay_mult: 0
  }
  scale_param {
    bias_term: true
  }
}
layer {
  name: "res2b_branch2b_relu"
  type: "ReLU"
  bottom: "res2b_branch2b"
  top: "res2b_branch2b"
}
layer {
  name: "res2b_branch2c"
  type: "Convolution"
  bottom: "res2b_branch2b"
  top: "res2b_branch2c"
  param {
    lr_mult: 0
  }
  convolution_param {
    num_output: 256
    bias_term: false
    pad: 0
    kernel_size: 1
    stride: 1
  }
}
layer {
  name: "bn2b_branch2c"
  type: "BatchNorm"
  bottom: "res2b_branch2c"
  top: "res2b_branch2c"
  param {
    lr_mult: 0
    decay_mult: 0
  }
  param {
    lr_mult: 0
    decay_mult: 0
  }
  param {
    lr_mult: 0
    decay_mult: 0
  }
  batch_norm_param {
    use_global_stats: true
  }
}
layer {
  name: "scale2b_branch2c"
  type: "Scale"
  bottom: "res2b_branch2c"
  top: "res2b_branch2c"
  param {
    lr_mult: 0
    decay_mult: 0
  }
  param {
    lr_mult: 0
    decay_mult: 0
  }
  scale_param {
    bias_term: true
  }
}
layer {
  name: "res2b"
  type: "Eltwise"
  bottom: "res2a"
  bottom: "res2b_branch2c"
  top: "res2b"
}
layer {
  name: "res2b_relu"
  type: "ReLU"
  bottom: "res2b"
  top: "res2b"
}
layer {
  name: "res2c_branch2a"
  type: "Convolution"
  bottom: "res2b"
  top: "res2c_branch2a"
  param {
    lr_mult: 0
  }
  convolution_param {
    num_output: 64
    bias_term: false
    pad: 0
    kernel_size: 1
    stride: 1
  }
}
layer {
  name: "bn2c_branch2a"
  type: "BatchNorm"
  bottom: "res2c_branch2a"
  top: "res2c_branch2a"
  param {
    lr_mult: 0
    decay_mult: 0
  }
  param {
    lr_mult: 0
    decay_mult: 0
  }
  param {
    lr_mult: 0
    decay_mult: 0
  }
  batch_norm_param {
    use_global_stats: true
  }
}
layer {
  name: "scale2c_branch2a"
  type: "Scale"
  bottom: "res2c_branch2a"
  top: "res2c_branch2a"
  param {
    lr_mult: 0
    decay_mult: 0
  }
  param {
    lr_mult: 0
    decay_mult: 0
  }
  scale_param {
    bias_term: true
  }
}
layer {
  name: "res2c_branch2a_relu"
  type: "ReLU"
  bottom: "res2c_branch2a"
  top: "res2c_branch2a"
}
layer {
  name: "res2c_branch2b"
  type: "Convolution"
  bottom: "res2c_branch2a"
  top: "res2c_branch2b"
  param {
    lr_mult: 0
  }
  convolution_param {
    num_output: 64
    bias_term: false
    pad: 1
    kernel_size: 3
    stride: 1
  }
}
layer {
  name: "bn2c_branch2b"
  type: "BatchNorm"
  bottom: "res2c_branch2b"
  top: "res2c_branch2b"
  param {
    lr_mult: 0
    decay_mult: 0
  }
  param {
    lr_mult: 0
    decay_mult: 0
  }
  param {
    lr_mult: 0
    decay_mult: 0
  }
  batch_norm_param {
    use_global_stats: true
  }
}
layer {
  name: "scale2c_branch2b"
  type: "Scale"
  bottom: "res2c_branch2b"
  top: "res2c_branch2b"
  param {
    lr_mult: 0
    decay_mult: 0
  }
  param {
    lr_mult: 0
    decay_mult: 0
  }
  scale_param {
    bias_term: true
  }
}
layer {
  name: "res2c_branch2b_relu"
  type: "ReLU"
  bottom: "res2c_branch2b"
  top: "res2c_branch2b"
}
layer {
  name: "res2c_branch2c"
  type: "Convolution"
  bottom: "res2c_branch2b"
  top: "res2c_branch2c"
  param {
    lr_mult: 0
  }
  convolution_param {
    num_output: 256
    bias_term: false
    pad: 0
    kernel_size: 1
    stride: 1
  }
}
layer {
  name: "bn2c_branch2c"
  type: "BatchNorm"
  bottom: "res2c_branch2c"
  top: "res2c_branch2c"
  param {
    lr_mult: 0
    decay_mult: 0
  }
  param {
    lr_mult: 0
    decay_mult: 0
  }
  param {
    lr_mult: 0
    decay_mult: 0
  }
  batch_norm_param {
    use_global_stats: true
  }
}
layer {
  name: "scale2c_branch2c"
  type: "Scale"
  bottom: "res2c_branch2c"
  top: "res2c_branch2c"
  param {
    lr_mult: 0
    decay_mult: 0
  }
  param {
    lr_mult: 0
    decay_mult: 0
  }
  scale_param {
    bias_term: true
  }
}
layer {
  name: "res2c"
  type: "Eltwise"
  bottom: "res2b"
  bottom: "res2c_branch2c"
  top: "res2c"
}
layer {
  name: "res2c_relu"
  type: "ReLU"
  bottom: "res2c"
  top: "res2c"
}
layer {
  name: "res3a_branch1"
  type: "Convolution"
  bottom: "res2c"
  top: "res3a_branch1"
  param {
    lr_mult: 1
  }
  convolution_param {
    num_output: 512
    bias_term: false
    pad: 0
    kernel_size: 1
    stride: 2
  }
}
layer {
  name: "bn3a_branch1"
  type: "BatchNorm"
  bottom: "res3a_branch1"
  top: "res3a_branch1"
  param {
    lr_mult: 0
    decay_mult: 0
  }
  param {
    lr_mult: 0
    decay_mult: 0
  }
  param {
    lr_mult: 0
    decay_mult: 0
  }
  batch_norm_param {
    use_global_stats: true
  }
}
layer {
  name: "scale3a_branch1"
  type: "Scale"
  bottom: "res3a_branch1"
  top: "res3a_branch1"
  param {
    lr_mult: 0
    decay_mult: 0
  }
  param {
    lr_mult: 0
    decay_mult: 0
  }
  scale_param {
    bias_term: true
  }
}
layer {
  name: "res3a_branch2a"
  type: "Convolution"
  bottom: "res2c"
  top: "res3a_branch2a"
  param {
    lr_mult: 1
  }
  convolution_param {
    num_output: 128
    bias_term: false
    pad: 0
    kernel_size: 1
    stride: 2
  }
}
layer {
  name: "bn3a_branch2a"
  type: "BatchNorm"
  bottom: "res3a_branch2a"
  top: "res3a_branch2a"
  param {
    lr_mult: 0
    decay_mult: 0
  }
  param {
    lr_mult: 0
    decay_mult: 0
  }
  param {
    lr_mult: 0
    decay_mult: 0
  }
  batch_norm_param {
    use_global_stats: true
  }
}
layer {
  name: "scale3a_branch2a"
  type: "Scale"
  bottom: "res3a_branch2a"
  top: "res3a_branch2a"
  param {
    lr_mult: 0
    decay_mult: 0
  }
  param {
    lr_mult: 0
    decay_mult: 0
  }
  scale_param {
    bias_term: true
  }
}
layer {
  name: "res3a_branch2a_relu"
  type: "ReLU"
  bottom: "res3a_branch2a"
  top: "res3a_branch2a"
}
layer {
  name: "res3a_branch2b"
  type: "Convolution"
  bottom: "res3a_branch2a"
  top: "res3a_branch2b"
  param {
    lr_mult: 1
  }
  convolution_param {
    num_output: 128
    bias_term: false
    pad: 1
    kernel_size: 3
    stride: 1
  }
}
layer {
  name: "bn3a_branch2b"
  type: "BatchNorm"
  bottom: "res3a_branch2b"
  top: "res3a_branch2b"
  param {
    lr_mult: 0
    decay_mult: 0
  }
  param {
    lr_mult: 0
    decay_mult: 0
  }
  param {
    lr_mult: 0
    decay_mult: 0
  }
  batch_norm_param {
    use_global_stats: true
  }
}
layer {
  name: "scale3a_branch2b"
  type: "Scale"
  bottom: "res3a_branch2b"
  top: "res3a_branch2b"
  param {
    lr_mult: 0
    decay_mult: 0
  }
  param {
    lr_mult: 0
    decay_mult: 0
  }
  scale_param {
    bias_term: true
  }
}
layer {
  name: "res3a_branch2b_relu"
  type: "ReLU"
  bottom: "res3a_branch2b"
  top: "res3a_branch2b"
}
layer {
  name: "res3a_branch2c"
  type: "Convolution"
  bottom: "res3a_branch2b"
  top: "res3a_branch2c"
  param {
    lr_mult: 1
  }
  convolution_param {
    num_output: 512
    bias_term: false
    pad: 0
    kernel_size: 1
    stride: 1
  }
}
layer {
  name: "bn3a_branch2c"
  type: "BatchNorm"
  bottom: "res3a_branch2c"
  top: "res3a_branch2c"
  param {
    lr_mult: 0
    decay_mult: 0
  }
  param {
    lr_mult: 0
    decay_mult: 0
  }
  param {
    lr_mult: 0
    decay_mult: 0
  }
  batch_norm_param {
    use_global_stats: true
  }
}
layer {
  name: "scale3a_branch2c"
  type: "Scale"
  bottom: "res3a_branch2c"
  top: "res3a_branch2c"
  param {
    lr_mult: 0
    decay_mult: 0
  }
  param {
    lr_mult: 0
    decay_mult: 0
  }
  scale_param {
    bias_term: true
  }
}
layer {
  name: "res3a"
  type: "Eltwise"
  bottom: "res3a_branch1"
  bottom: "res3a_branch2c"
  top: "res3a"
}
layer {
  name: "res3a_relu"
  type: "ReLU"
  bottom: "res3a"
  top: "res3a"
}
layer {
  name: "res3b1_branch2a"
  type: "Convolution"
  bottom: "res3a"
  top: "res3b1_branch2a"
  param {
    lr_mult: 1
  }
  convolution_param {
    num_output: 128
    bias_term: false
    pad: 0
    kernel_size: 1
    stride: 1
  }
}
layer {
  name: "bn3b1_branch2a"
  type: "BatchNorm"
  bottom: "res3b1_branch2a"
  top: "res3b1_branch2a"
  param {
    lr_mult: 0
    decay_mult: 0
  }
  param {
    lr_mult: 0
    decay_mult: 0
  }
  param {
    lr_mult: 0
    decay_mult: 0
  }
  batch_norm_param {
    use_global_stats: true
  }
}
layer {
  name: "scale3b1_branch2a"
  type: "Scale"
  bottom: "res3b1_branch2a"
  top: "res3b1_branch2a"
  param {
    lr_mult: 0
    decay_mult: 0
  }
  param {
    lr_mult: 0
    decay_mult: 0
  }
  scale_param {
    bias_term: true
  }
}
layer {
  name: "res3b1_branch2a_relu"
  type: "ReLU"
  bottom: "res3b1_branch2a"
  top: "res3b1_branch2a"
}
layer {
  name: "res3b1_branch2b"
  type: "Convolution"
  bottom: "res3b1_branch2a"
  top: "res3b1_branch2b"
  param {
    lr_mult: 1
  }
  convolution_param {
    num_output: 128
    bias_term: false
    pad: 1
    kernel_size: 3
    stride: 1
  }
}
layer {
  name: "bn3b1_branch2b"
  type: "BatchNorm"
  bottom: "res3b1_branch2b"
  top: "res3b1_branch2b"
  param {
    lr_mult: 0
    decay_mult: 0
  }
  param {
    lr_mult: 0
    decay_mult: 0
  }
  param {
    lr_mult: 0
    decay_mult: 0
  }
  batch_norm_param {
    use_global_stats: true
  }
}
layer {
  name: "scale3b1_branch2b"
  type: "Scale"
  bottom: "res3b1_branch2b"
  top: "res3b1_branch2b"
  param {
    lr_mult: 0
    decay_mult: 0
  }
  param {
    lr_mult: 0
    decay_mult: 0
  }
  scale_param {
    bias_term: true
  }
}
layer {
  name: "res3b1_branch2b_relu"
  type: "ReLU"
  bottom: "res3b1_branch2b"
  top: "res3b1_branch2b"
}
layer {
  name: "res3b1_branch2c"
  type: "Convolution"
  bottom: "res3b1_branch2b"
  top: "res3b1_branch2c"
  param {
    lr_mult: 1
  }
  convolution_param {
    num_output: 512
    bias_term: false
    pad: 0
    kernel_size: 1
    stride: 1
  }
}
layer {
  name: "bn3b1_branch2c"
  type: "BatchNorm"
  bottom: "res3b1_branch2c"
  top: "res3b1_branch2c"
  param {
    lr_mult: 0
    decay_mult: 0
  }
  param {
    lr_mult: 0
    decay_mult: 0
  }
  param {
    lr_mult: 0
    decay_mult: 0
  }
  batch_norm_param {
    use_global_stats: true
  }
}
layer {
  name: "scale3b1_branch2c"
  type: "Scale"
  bottom: "res3b1_branch2c"
  top: "res3b1_branch2c"
  param {
    lr_mult: 0
    decay_mult: 0
  }
  param {
    lr_mult: 0
    decay_mult: 0
  }
  scale_param {
    bias_term: true
  }
}
layer {
  name: "res3b1"
  type: "Eltwise"
  bottom: "res3a"
  bottom: "res3b1_branch2c"
  top: "res3b1"
}
layer {
  name: "res3b1_relu"
  type: "ReLU"
  bottom: "res3b1"
  top: "res3b1"
}
layer {
  name: "res3b2_branch2a"
  type: "Convolution"
  bottom: "res3b1"
  top: "res3b2_branch2a"
  param {
    lr_mult: 1
  }
  convolution_param {
    num_output: 128
    bias_term: false
    pad: 0
    kernel_size: 1
    stride: 1
  }
}
layer {
  name: "bn3b2_branch2a"
  type: "BatchNorm"
  bottom: "res3b2_branch2a"
  top: "res3b2_branch2a"
  param {
    lr_mult: 0
    decay_mult: 0
  }
  param {
    lr_mult: 0
    decay_mult: 0
  }
  param {
    lr_mult: 0
    decay_mult: 0
  }
  batch_norm_param {
    use_global_stats: true
  }
}
layer {
  name: "scale3b2_branch2a"
  type: "Scale"
  bottom: "res3b2_branch2a"
  top: "res3b2_branch2a"
  param {
    lr_mult: 0
    decay_mult: 0
  }
  param {
    lr_mult: 0
    decay_mult: 0
  }
  scale_param {
    bias_term: true
  }
}
layer {
  name: "res3b2_branch2a_relu"
  type: "ReLU"
  bottom: "res3b2_branch2a"
  top: "res3b2_branch2a"
}
layer {
  name: "res3b2_branch2b"
  type: "Convolution"
  bottom: "res3b2_branch2a"
  top: "res3b2_branch2b"
  param {
    lr_mult: 1
  }
  convolution_param {
    num_output: 128
    bias_term: false
    pad: 1
    kernel_size: 3
    stride: 1
  }
}
layer {
  name: "bn3b2_branch2b"
  type: "BatchNorm"
  bottom: "res3b2_branch2b"
  top: "res3b2_branch2b"
  param {
    lr_mult: 0
    decay_mult: 0
  }
  param {
    lr_mult: 0
    decay_mult: 0
  }
  param {
    lr_mult: 0
    decay_mult: 0
  }
  batch_norm_param {
    use_global_stats: true
  }
}
layer {
  name: "scale3b2_branch2b"
  type: "Scale"
  bottom: "res3b2_branch2b"
  top: "res3b2_branch2b"
  param {
    lr_mult: 0
    decay_mult: 0
  }
  param {
    lr_mult: 0
    decay_mult: 0
  }
  scale_param {
    bias_term: true
  }
}
layer {
  name: "res3b2_branch2b_relu"
  type: "ReLU"
  bottom: "res3b2_branch2b"
  top: "res3b2_branch2b"
}
layer {
  name: "res3b2_branch2c"
  type: "Convolution"
  bottom: "res3b2_branch2b"
  top: "res3b2_branch2c"
  param {
    lr_mult: 1
  }
  convolution_param {
    num_output: 512
    bias_term: false
    pad: 0
    kernel_size: 1
    stride: 1
  }
}
layer {
  name: "bn3b2_branch2c"
  type: "BatchNorm"
  bottom: "res3b2_branch2c"
  top: "res3b2_branch2c"
  param {
    lr_mult: 0
    decay_mult: 0
  }
  param {
    lr_mult: 0
    decay_mult: 0
  }
  param {
    lr_mult: 0
    decay_mult: 0
  }
  batch_norm_param {
    use_global_stats: true
  }
}
layer {
  name: "scale3b2_branch2c"
  type: "Scale"
  bottom: "res3b2_branch2c"
  top: "res3b2_branch2c"
  param {
    lr_mult: 0
    decay_mult: 0
  }
  param {
    lr_mult: 0
    decay_mult: 0
  }
  scale_param {
    bias_term: true
  }
}
layer {
  name: "res3b2"
  type: "Eltwise"
  bottom: "res3b1"
  bottom: "res3b2_branch2c"
  top: "res3b2"
}
layer {
  name: "res3b2_relu"
  type: "ReLU"
  bottom: "res3b2"
  top: "res3b2"
}
layer {
  name: "res3b3_branch2a"
  type: "Convolution"
  bottom: "res3b2"
  top: "res3b3_branch2a"
  param {
    lr_mult: 1
  }
  convolution_param {
    num_output: 128
    bias_term: false
    pad: 0
    kernel_size: 1
    stride: 1
  }
}
layer {
  name: "bn3b3_branch2a"
  type: "BatchNorm"
  bottom: "res3b3_branch2a"
  top: "res3b3_branch2a"
  param {
    lr_mult: 0
    decay_mult: 0
  }
  param {
    lr_mult: 0
    decay_mult: 0
  }
  param {
    lr_mult: 0
    decay_mult: 0
  }
  batch_norm_param {
    use_global_stats: true
  }
}
layer {
  name: "scale3b3_branch2a"
  type: "Scale"
  bottom: "res3b3_branch2a"
  top: "res3b3_branch2a"
  param {
    lr_mult: 0
    decay_mult: 0
  }
  param {
    lr_mult: 0
    decay_mult: 0
  }
  scale_param {
    bias_term: true
  }
}
layer {
  name: "res3b3_branch2a_relu"
  type: "ReLU"
  bottom: "res3b3_branch2a"
  top: "res3b3_branch2a"
}
layer {
  name: "res3b3_branch2b"
  type: "Convolution"
  bottom: "res3b3_branch2a"
  top: "res3b3_branch2b"
  param {
    lr_mult: 1
  }
  convolution_param {
    num_output: 128
    bias_term: false
    pad: 1
    kernel_size: 3
    stride: 1
  }
}
layer {
  name: "bn3b3_branch2b"
  type: "BatchNorm"
  bottom: "res3b3_branch2b"
  top: "res3b3_branch2b"
  param {
    lr_mult: 0
    decay_mult: 0
  }
  param {
    lr_mult: 0
    decay_mult: 0
  }
  param {
    lr_mult: 0
    decay_mult: 0
  }
  batch_norm_param {
    use_global_stats: true
  }
}
layer {
  name: "scale3b3_branch2b"
  type: "Scale"
  bottom: "res3b3_branch2b"
  top: "res3b3_branch2b"
  param {
    lr_mult: 0
    decay_mult: 0
  }
  param {
    lr_mult: 0
    decay_mult: 0
  }
  scale_param {
    bias_term: true
  }
}
layer {
  name: "res3b3_branch2b_relu"
  type: "ReLU"
  bottom: "res3b3_branch2b"
  top: "res3b3_branch2b"
}
layer {
  name: "res3b3_branch2c"
  type: "Convolution"
  bottom: "res3b3_branch2b"
  top: "res3b3_branch2c"
  param {
    lr_mult: 1
  }
  convolution_param {
    num_output: 512
    bias_term: false
    pad: 0
    kernel_size: 1
    stride: 1
  }
}
layer {
  name: "bn3b3_branch2c"
  type: "BatchNorm"
  bottom: "res3b3_branch2c"
  top: "res3b3_branch2c"
  param {
    lr_mult: 0
    decay_mult: 0
  }
  param {
    lr_mult: 0
    decay_mult: 0
  }
  param {
    lr_mult: 0
    decay_mult: 0
  }
  batch_norm_param {
    use_global_stats: true
  }
}
layer {
  name: "scale3b3_branch2c"
  type: "Scale"
  bottom: "res3b3_branch2c"
  top: "res3b3_branch2c"
  param {
    lr_mult: 0
    decay_mult: 0
  }
  param {
    lr_mult: 0
    decay_mult: 0
  }
  scale_param {
    bias_term: true
  }
}
layer {
  name: "res3b3"
  type: "Eltwise"
  bottom: "res3b2"
  bottom: "res3b3_branch2c"
  top: "res3b3"
}
layer {
  name: "res3b3_relu"
  type: "ReLU"
  bottom: "res3b3"
  top: "res3b3"
}
layer {
  name: "res4a_branch1"
  type: "Convolution"
  bottom: "res3b3"
  top: "res4a_branch1"
  param {
    lr_mult: 1
  }
  convolution_param {
    num_output: 1024
    bias_term: false
    pad: 0
    kernel_size: 1
    stride: 2
  }
}
layer {
  name: "bn4a_branch1"
  type: "BatchNorm"
  bottom: "res4a_branch1"
  top: "res4a_branch1"
  param {
    lr_mult: 0
    decay_mult: 0
  }
  param {
    lr_mult: 0
    decay_mult: 0
  }
  param {
    lr_mult: 0
    decay_mult: 0
  }
  batch_norm_param {
    use_global_stats: true
  }
}
layer {
  name: "scale4a_branch1"
  type: "Scale"
  bottom: "res4a_branch1"
  top: "res4a_branch1"
  param {
    lr_mult: 0
    decay_mult: 0
  }
  param {
    lr_mult: 0
    decay_mult: 0
  }
  scale_param {
    bias_term: true
  }
}
layer {
  name: "res4a_branch2a"
  type: "Convolution"
  bottom: "res3b3"
  top: "res4a_branch2a"
  param {
    lr_mult: 1
  }
  convolution_param {
    num_output: 256
    bias_term: false
    pad: 0
    kernel_size: 1
    stride: 2
  }
}
layer {
  name: "bn4a_branch2a"
  type: "BatchNorm"
  bottom: "res4a_branch2a"
  top: "res4a_branch2a"
  param {
    lr_mult: 0
    decay_mult: 0
  }
  param {
    lr_mult: 0
    decay_mult: 0
  }
  param {
    lr_mult: 0
    decay_mult: 0
  }
  batch_norm_param {
    use_global_stats: true
  }
}
layer {
  name: "scale4a_branch2a"
  type: "Scale"
  bottom: "res4a_branch2a"
  top: "res4a_branch2a"
  param {
    lr_mult: 0
    decay_mult: 0
  }
  param {
    lr_mult: 0
    decay_mult: 0
  }
  scale_param {
    bias_term: true
  }
}
layer {
  name: "res4a_branch2a_relu"
  type: "ReLU"
  bottom: "res4a_branch2a"
  top: "res4a_branch2a"
}
layer {
  name: "res4a_branch2b"
  type: "Convolution"
  bottom: "res4a_branch2a"
  top: "res4a_branch2b"
  param {
    lr_mult: 1
  }
  convolution_param {
    num_output: 256
    bias_term: false
    pad: 1
    kernel_size: 3
    stride: 1
  }
}
layer {
  name: "bn4a_branch2b"
  type: "BatchNorm"
  bottom: "res4a_branch2b"
  top: "res4a_branch2b"
  param {
    lr_mult: 0
    decay_mult: 0
  }
  param {
    lr_mult: 0
    decay_mult: 0
  }
  param {
    lr_mult: 0
    decay_mult: 0
  }
  batch_norm_param {
    use_global_stats: true
  }
}
layer {
  name: "scale4a_branch2b"
  type: "Scale"
  bottom: "res4a_branch2b"
  top: "res4a_branch2b"
  param {
    lr_mult: 0
    decay_mult: 0
  }
  param {
    lr_mult: 0
    decay_mult: 0
  }
  scale_param {
    bias_term: true
  }
}
layer {
  name: "res4a_branch2b_relu"
  type: "ReLU"
  bottom: "res4a_branch2b"
  top: "res4a_branch2b"
}
layer {
  name: "res4a_branch2c"
  type: "Convolution"
  bottom: "res4a_branch2b"
  top: "res4a_branch2c"
  param {
    lr_mult: 1
  }
  convolution_param {
    num_output: 1024
    bias_term: false
    pad: 0
    kernel_size: 1
    stride: 1
  }
}
layer {
  name: "bn4a_branch2c"
  type: "BatchNorm"
  bottom: "res4a_branch2c"
  top: "res4a_branch2c"
  param {
    lr_mult: 0
    decay_mult: 0
  }
  param {
    lr_mult: 0
    decay_mult: 0
  }
  param {
    lr_mult: 0
    decay_mult: 0
  }
  batch_norm_param {
    use_global_stats: true
  }
}
layer {
  name: "scale4a_branch2c"
  type: "Scale"
  bottom: "res4a_branch2c"
  top: "res4a_branch2c"
  param {
    lr_mult: 0
    decay_mult: 0
  }
  param {
    lr_mult: 0
    decay_mult: 0
  }
  scale_param {
    bias_term: true
  }
}
layer {
  name: "res4a"
  type: "Eltwise"
  bottom: "res4a_branch1"
  bottom: "res4a_branch2c"
  top: "res4a"
}
layer {
  name: "res4a_relu"
  type: "ReLU"
  bottom: "res4a"
  top: "res4a"
}
layer {
  name: "res4b1_branch2a"
  type: "Convolution"
  bottom: "res4a"
  top: "res4b1_branch2a"
  param {
    lr_mult: 1
  }
  convolution_param {
    num_output: 256
    bias_term: false
    pad: 0
    kernel_size: 1
    stride: 1
  }
}
layer {
  name: "bn4b1_branch2a"
  type: "BatchNorm"
  bottom: "res4b1_branch2a"
  top: "res4b1_branch2a"
  param {
    lr_mult: 0
    decay_mult: 0
  }
  param {
    lr_mult: 0
    decay_mult: 0
  }
  param {
    lr_mult: 0
    decay_mult: 0
  }
  batch_norm_param {
    use_global_stats: true
  }
}
layer {
  name: "scale4b1_branch2a"
  type: "Scale"
  bottom: "res4b1_branch2a"
  top: "res4b1_branch2a"
  param {
    lr_mult: 0
    decay_mult: 0
  }
  param {
    lr_mult: 0
    decay_mult: 0
  }
  scale_param {
    bias_term: true
  }
}
layer {
  name: "res4b1_branch2a_relu"
  type: "ReLU"
  bottom: "res4b1_branch2a"
  top: "res4b1_branch2a"
}
layer {
  name: "res4b1_branch2b"
  type: "Convolution"
  bottom: "res4b1_branch2a"
  top: "res4b1_branch2b"
  param {
    lr_mult: 1
  }
  convolution_param {
    num_output: 256
    bias_term: false
    pad: 1
    kernel_size: 3
    stride: 1
  }
}
layer {
  name: "bn4b1_branch2b"
  type: "BatchNorm"
  bottom: "res4b1_branch2b"
  top: "res4b1_branch2b"
  param {
    lr_mult: 0
    decay_mult: 0
  }
  param {
    lr_mult: 0
    decay_mult: 0
  }
  param {
    lr_mult: 0
    decay_mult: 0
  }
  batch_norm_param {
    use_global_stats: true
  }
}
layer {
  name: "scale4b1_branch2b"
  type: "Scale"
  bottom: "res4b1_branch2b"
  top: "res4b1_branch2b"
  param {
    lr_mult: 0
    decay_mult: 0
  }
  param {
    lr_mult: 0
    decay_mult: 0
  }
  scale_param {
    bias_term: true
  }
}
layer {
  name: "res4b1_branch2b_relu"
  type: "ReLU"
  bottom: "res4b1_branch2b"
  top: "res4b1_branch2b"
}
layer {
  name: "res4b1_branch2c"
  type: "Convolution"
  bottom: "res4b1_branch2b"
  top: "res4b1_branch2c"
  param {
    lr_mult: 1
  }
  convolution_param {
    num_output: 1024
    bias_term: false
    pad: 0
    kernel_size: 1
    stride: 1
  }
}
layer {
  name: "bn4b1_branch2c"
  type: "BatchNorm"
  bottom: "res4b1_branch2c"
  top: "res4b1_branch2c"
  param {
    lr_mult: 0
    decay_mult: 0
  }
  param {
    lr_mult: 0
    decay_mult: 0
  }
  param {
    lr_mult: 0
    decay_mult: 0
  }
  batch_norm_param {
    use_global_stats: true
  }
}
layer {
  name: "scale4b1_branch2c"
  type: "Scale"
  bottom: "res4b1_branch2c"
  top: "res4b1_branch2c"
  param {
    lr_mult: 0
    decay_mult: 0
  }
  param {
    lr_mult: 0
    decay_mult: 0
  }
  scale_param {
    bias_term: true
  }
}
layer {
  name: "res4b1"
  type: "Eltwise"
  bottom: "res4a"
  bottom: "res4b1_branch2c"
  top: "res4b1"
}
layer {
  name: "res4b1_relu"
  type: "ReLU"
  bottom: "res4b1"
  top: "res4b1"
}
layer {
  name: "res4b2_branch2a"
  type: "Convolution"
  bottom: "res4b1"
  top: "res4b2_branch2a"
  param {
    lr_mult: 1
  }
  convolution_param {
    num_output: 256
    bias_term: false
    pad: 0
    kernel_size: 1
    stride: 1
  }
}
layer {
  name: "bn4b2_branch2a"
  type: "BatchNorm"
  bottom: "res4b2_branch2a"
  top: "res4b2_branch2a"
  param {
    lr_mult: 0
    decay_mult: 0
  }
  param {
    lr_mult: 0
    decay_mult: 0
  }
  param {
    lr_mult: 0
    decay_mult: 0
  }
  batch_norm_param {
    use_global_stats: true
  }
}
layer {
  name: "scale4b2_branch2a"
  type: "Scale"
  bottom: "res4b2_branch2a"
  top: "res4b2_branch2a"
  param {
    lr_mult: 0
    decay_mult: 0
  }
  param {
    lr_mult: 0
    decay_mult: 0
  }
  scale_param {
    bias_term: true
  }
}
layer {
  name: "res4b2_branch2a_relu"
  type: "ReLU"
  bottom: "res4b2_branch2a"
  top: "res4b2_branch2a"
}
layer {
  name: "res4b2_branch2b"
  type: "Convolution"
  bottom: "res4b2_branch2a"
  top: "res4b2_branch2b"
  param {
    lr_mult: 1
  }
  convolution_param {
    num_output: 256
    bias_term: false
    pad: 1
    kernel_size: 3
    stride: 1
  }
}
layer {
  name: "bn4b2_branch2b"
  type: "BatchNorm"
  bottom: "res4b2_branch2b"
  top: "res4b2_branch2b"
  param {
    lr_mult: 0
    decay_mult: 0
  }
  param {
    lr_mult: 0
    decay_mult: 0
  }
  param {
    lr_mult: 0
    decay_mult: 0
  }
  batch_norm_param {
    use_global_stats: true
  }
}
layer {
  name: "scale4b2_branch2b"
  type: "Scale"
  bottom: "res4b2_branch2b"
  top: "res4b2_branch2b"
  param {
    lr_mult: 0
    decay_mult: 0
  }
  param {
I1030 11:13:53.011126 26474 layer_factory.hpp:77] Creating layer input-data
I1030 11:13:53.031934 26474 net.cpp:100] Creating Layer input-data
I1030 11:13:53.031960 26474 net.cpp:418] input-data -> data
I1030 11:13:53.031975 26474 net.cpp:418] input-data -> im_info
I1030 11:13:53.031981 26474 net.cpp:418] input-data -> gt_boxes
RoiDataLayer: name_to_top: {'gt_boxes': 2, 'data': 0, 'im_info': 1}
I1030 11:14:16.034992 26474 net.cpp:150] Setting up input-data
I1030 11:14:16.035014 26474 net.cpp:157] Top shape: 1 3 600 1000 (1800000)
I1030 11:14:16.035020 26474 net.cpp:157] Top shape: 1 3 (3)
I1030 11:14:16.035028 26474 net.cpp:157] Top shape: 1 4 (4)
I1030 11:14:16.035032 26474 net.cpp:165] Memory required for data: 7200028
I1030 11:14:16.035042 26474 layer_factory.hpp:77] Creating layer data_input-data_0_split
I1030 11:14:16.035054 26474 net.cpp:100] Creating Layer data_input-data_0_split
I1030 11:14:16.035058 26474 net.cpp:444] data_input-data_0_split <- data
I1030 11:14:16.035068 26474 net.cpp:418] data_input-data_0_split -> data_input-data_0_split_0
I1030 11:14:16.035078 26474 net.cpp:418] data_input-data_0_split -> data_input-data_0_split_1
I1030 11:14:16.035105 26474 net.cpp:150] Setting up data_input-data_0_split
I1030 11:14:16.035111 26474 net.cpp:157] Top shape: 1 3 600 1000 (1800000)
I1030 11:14:16.035117 26474 net.cpp:157] Top shape: 1 3 600 1000 (1800000)
I1030 11:14:16.035122 26474 net.cpp:165] Memory required for data: 21600028
I1030 11:14:16.035126 26474 layer_factory.hpp:77] Creating layer im_info_input-data_1_split
I1030 11:14:16.035133 26474 net.cpp:100] Creating Layer im_info_input-data_1_split
I1030 11:14:16.035137 26474 net.cpp:444] im_info_input-data_1_split <- im_info
I1030 11:14:16.035142 26474 net.cpp:418] im_info_input-data_1_split -> im_info_input-data_1_split_0
I1030 11:14:16.035150 26474 net.cpp:418] im_info_input-data_1_split -> im_info_input-data_1_split_1
I1030 11:14:16.035171 26474 net.cpp:150] Setting up im_info_input-data_1_split
I1030 11:14:16.035176 26474 net.cpp:157] Top shape: 1 3 (3)
I1030 11:14:16.035181 26474 net.cpp:157] Top shape: 1 3 (3)
I1030 11:14:16.035186 26474 net.cpp:165] Memory required for data: 21600052
I1030 11:14:16.035189 26474 layer_factory.hpp:77] Creating layer gt_boxes_input-data_2_split
I1030 11:14:16.035195 26474 net.cpp:100] Creating Layer gt_boxes_input-data_2_split
I1030 11:14:16.035199 26474 net.cpp:444] gt_boxes_input-data_2_split <- gt_boxes
I1030 11:14:16.035204 26474 net.cpp:418] gt_boxes_input-data_2_split -> gt_boxes_input-data_2_split_0
I1030 11:14:16.035210 26474 net.cpp:418] gt_boxes_input-data_2_split -> gt_boxes_input-data_2_split_1
I1030 11:14:16.035234 26474 net.cpp:150] Setting up gt_boxes_input-data_2_split
I1030 11:14:16.035239 26474 net.cpp:157] Top shape: 1 4 (4)
I1030 11:14:16.035245 26474 net.cpp:157] Top shape: 1 4 (4)
I1030 11:14:16.035249 26474 net.cpp:165] Memory required for data: 21600084
I1030 11:14:16.035254 26474 layer_factory.hpp:77] Creating layer conv1
I1030 11:14:16.035267 26474 net.cpp:100] Creating Layer conv1
I1030 11:14:16.035271 26474 net.cpp:444] conv1 <- data_input-data_0_split_0
I1030 11:14:16.035277 26474 net.cpp:418] conv1 -> conv1
I1030 11:14:16.035691 26474 net.cpp:150] Setting up conv1
I1030 11:14:16.035709 26474 net.cpp:157] Top shape: 1 64 300 500 (9600000)
I1030 11:14:16.035722 26474 net.cpp:165] Memory required for data: 60000084
I1030 11:14:16.035732 26474 layer_factory.hpp:77] Creating layer bn_conv1
I1030 11:14:16.035740 26474 net.cpp:100] Creating Layer bn_conv1
I1030 11:14:16.035744 26474 net.cpp:444] bn_conv1 <- conv1
I1030 11:14:16.035749 26474 net.cpp:405] bn_conv1 -> conv1 (in-place)
I1030 11:14:16.036161 26474 net.cpp:150] Setting up bn_conv1
I1030 11:14:16.036170 26474 net.cpp:157] Top shape: 1 64 300 500 (9600000)
I1030 11:14:16.036173 26474 net.cpp:165] Memory required for data: 98400084
I1030 11:14:16.036185 26474 layer_factory.hpp:77] Creating layer scale_conv1
I1030 11:14:16.036193 26474 net.cpp:100] Creating Layer scale_conv1
I1030 11:14:16.036197 26474 net.cpp:444] scale_conv1 <- conv1
I1030 11:14:16.036203 26474 net.cpp:405] scale_conv1 -> conv1 (in-place)
I1030 11:14:16.036232 26474 layer_factory.hpp:77] Creating layer scale_conv1
I1030 11:14:16.036908 26474 net.cpp:150] Setting up scale_conv1
I1030 11:14:16.036918 26474 net.cpp:157] Top shape: 1 64 300 500 (9600000)
I1030 11:14:16.036921 26474 net.cpp:165] Memory required for data: 136800084
I1030 11:14:16.036931 26474 layer_factory.hpp:77] Creating layer conv1_relu
I1030 11:14:16.036938 26474 net.cpp:100] Creating Layer conv1_relu
I1030 11:14:16.036942 26474 net.cpp:444] conv1_relu <- conv1
I1030 11:14:16.036948 26474 net.cpp:405] conv1_relu -> conv1 (in-place)
I1030 11:14:16.036955 26474 net.cpp:150] Setting up conv1_relu
I1030 11:14:16.036960 26474 net.cpp:157] Top shape: 1 64 300 500 (9600000)
I1030 11:14:16.036964 26474 net.cpp:165] Memory required for data: 175200084
I1030 11:14:16.036969 26474 layer_factory.hpp:77] Creating layer pool1
I1030 11:14:16.036976 26474 net.cpp:100] Creating Layer pool1
I1030 11:14:16.036980 26474 net.cpp:444] pool1 <- conv1
I1030 11:14:16.036985 26474 net.cpp:418] pool1 -> pool1
I1030 11:14:16.037014 26474 net.cpp:150] Setting up pool1
I1030 11:14:16.037020 26474 net.cpp:157] Top shape: 1 64 150 250 (2400000)
I1030 11:14:16.037024 26474 net.cpp:165] Memory required for data: 184800084
I1030 11:14:16.037029 26474 layer_factory.hpp:77] Creating layer pool1_pool1_0_split
I1030 11:14:16.037035 26474 net.cpp:100] Creating Layer pool1_pool1_0_split
I1030 11:14:16.037039 26474 net.cpp:444] pool1_pool1_0_split <- pool1
I1030 11:14:16.037045 26474 net.cpp:418] pool1_pool1_0_split -> pool1_pool1_0_split_0
I1030 11:14:16.037052 26474 net.cpp:418] pool1_pool1_0_split -> pool1_pool1_0_split_1
I1030 11:14:16.037073 26474 net.cpp:150] Setting up pool1_pool1_0_split
I1030 11:14:16.037078 26474 net.cpp:157] Top shape: 1 64 150 250 (2400000)
I1030 11:14:16.037084 26474 net.cpp:157] Top shape: 1 64 150 250 (2400000)
I1030 11:14:16.037088 26474 net.cpp:165] Memory required for data: 204000084
I1030 11:14:16.037091 26474 layer_factory.hpp:77] Creating layer res2a_branch1
I1030 11:14:16.037099 26474 net.cpp:100] Creating Layer res2a_branch1
I1030 11:14:16.037103 26474 net.cpp:444] res2a_branch1 <- pool1_pool1_0_split_0
I1030 11:14:16.037109 26474 net.cpp:418] res2a_branch1 -> res2a_branch1
I1030 11:14:16.037215 26474 net.cpp:150] Setting up res2a_branch1
I1030 11:14:16.037221 26474 net.cpp:157] Top shape: 1 256 150 250 (9600000)
I1030 11:14:16.037226 26474 net.cpp:165] Memory required for data: 242400084
I1030 11:14:16.037232 26474 layer_factory.hpp:77] Creating layer bn2a_branch1
I1030 11:14:16.037240 26474 net.cpp:100] Creating Layer bn2a_branch1
I1030 11:14:16.037243 26474 net.cpp:444] bn2a_branch1 <- res2a_branch1
I1030 11:14:16.037248 26474 net.cpp:405] bn2a_branch1 -> res2a_branch1 (in-place)
I1030 11:14:16.037606 26474 net.cpp:150] Setting up bn2a_branch1
I1030 11:14:16.037616 26474 net.cpp:157] Top shape: 1 256 150 250 (9600000)
I1030 11:14:16.037619 26474 net.cpp:165] Memory required for data: 280800084
I1030 11:14:16.037629 26474 layer_factory.hpp:77] Creating layer scale2a_branch1
I1030 11:14:16.037637 26474 net.cpp:100] Creating Layer scale2a_branch1
I1030 11:14:16.037642 26474 net.cpp:444] scale2a_branch1 <- res2a_branch1
I1030 11:14:16.037647 26474 net.cpp:405] scale2a_branch1 -> res2a_branch1 (in-place)
I1030 11:14:16.037672 26474 layer_factory.hpp:77] Creating layer scale2a_branch1
I1030 11:14:16.037758 26474 net.cpp:150] Setting up scale2a_branch1
I1030 11:14:16.037765 26474 net.cpp:157] Top shape: 1 256 150 250 (9600000)
I1030 11:14:16.037770 26474 net.cpp:165] Memory required for data: 319200084
I1030 11:14:16.037777 26474 layer_factory.hpp:77] Creating layer res2a_branch2a
I1030 11:14:16.037786 26474 net.cpp:100] Creating Layer res2a_branch2a
I1030 11:14:16.037789 26474 net.cpp:444] res2a_branch2a <- pool1_pool1_0_split_1
I1030 11:14:16.037796 26474 net.cpp:418] res2a_branch2a -> res2a_branch2a
I1030 11:14:16.038149 26474 net.cpp:150] Setting up res2a_branch2a
I1030 11:14:16.038158 26474 net.cpp:157] Top shape: 1 64 150 250 (2400000)
I1030 11:14:16.038162 26474 net.cpp:165] Memory required for data: 328800084
I1030 11:14:16.038167 26474 layer_factory.hpp:77] Creating layer bn2a_branch2a
I1030 11:14:16.038175 26474 net.cpp:100] Creating Layer bn2a_branch2a
I1030 11:14:16.038180 26474 net.cpp:444] bn2a_branch2a <- res2a_branch2a
I1030 11:14:16.038187 26474 net.cpp:405] bn2a_branch2a -> res2a_branch2a (in-place)
I1030 11:14:16.038298 26474 net.cpp:150] Setting up bn2a_branch2a
I1030 11:14:16.038305 26474 net.cpp:157] Top shape: 1 64 150 250 (2400000)
I1030 11:14:16.038311 26474 net.cpp:165] Memory required for data: 338400084
I1030 11:14:16.038318 26474 layer_factory.hpp:77] Creating layer scale2a_branch2a
I1030 11:14:16.038324 26474 net.cpp:100] Creating Layer scale2a_branch2a
I1030 11:14:16.038329 26474 net.cpp:444] scale2a_branch2a <- res2a_branch2a
I1030 11:14:16.038344 26474 net.cpp:405] scale2a_branch2a -> res2a_branch2a (in-place)
I1030 11:14:16.038368 26474 layer_factory.hpp:77] Creating layer scale2a_branch2a
I1030 11:14:16.038461 26474 net.cpp:150] Setting up scale2a_branch2a
I1030 11:14:16.038468 26474 net.cpp:157] Top shape: 1 64 150 250 (2400000)
I1030 11:14:16.038473 26474 net.cpp:165] Memory required for data: 348000084
I1030 11:14:16.038482 26474 layer_factory.hpp:77] Creating layer res2a_branch2a_relu
I1030 11:14:16.038488 26474 net.cpp:100] Creating Layer res2a_branch2a_relu
I1030 11:14:16.038492 26474 net.cpp:444] res2a_branch2a_relu <- res2a_branch2a
I1030 11:14:16.038498 26474 net.cpp:405] res2a_branch2a_relu -> res2a_branch2a (in-place)
I1030 11:14:16.038506 26474 net.cpp:150] Setting up res2a_branch2a_relu
I1030 11:14:16.038511 26474 net.cpp:157] Top shape: 1 64 150 250 (2400000)
I1030 11:14:16.038514 26474 net.cpp:165] Memory required for data: 357600084
I1030 11:14:16.038518 26474 layer_factory.hpp:77] Creating layer res2a_branch2b
I1030 11:14:16.038527 26474 net.cpp:100] Creating Layer res2a_branch2b
I1030 11:14:16.038530 26474 net.cpp:444] res2a_branch2b <- res2a_branch2a
I1030 11:14:16.038537 26474 net.cpp:418] res2a_branch2b -> res2a_branch2b
I1030 11:14:16.038648 26474 net.cpp:150] Setting up res2a_branch2b
I1030 11:14:16.038655 26474 net.cpp:157] Top shape: 1 64 150 250 (2400000)
I1030 11:14:16.038660 26474 net.cpp:165] Memory required for data: 367200084
I1030 11:14:16.038666 26474 layer_factory.hpp:77] Creating layer bn2a_branch2b
I1030 11:14:16.038672 26474 net.cpp:100] Creating Layer bn2a_branch2b
I1030 11:14:16.038677 26474 net.cpp:444] bn2a_branch2b <- res2a_branch2b
I1030 11:14:16.038683 26474 net.cpp:405] bn2a_branch2b -> res2a_branch2b (in-place)
I1030 11:14:16.039085 26474 net.cpp:150] Setting up bn2a_branch2b
I1030 11:14:16.039094 26474 net.cpp:157] Top shape: 1 64 150 250 (2400000)
I1030 11:14:16.039098 26474 net.cpp:165] Memory required for data: 376800084
I1030 11:14:16.039108 26474 layer_factory.hpp:77] Creating layer scale2a_branch2b
I1030 11:14:16.039115 26474 net.cpp:100] Creating Layer scale2a_branch2b
I1030 11:14:16.039119 26474 net.cpp:444] scale2a_branch2b <- res2a_branch2b
I1030 11:14:16.039125 26474 net.cpp:405] scale2a_branch2b -> res2a_branch2b (in-place)
I1030 11:14:16.039153 26474 layer_factory.hpp:77] Creating layer scale2a_branch2b
I1030 11:14:16.039260 26474 net.cpp:150] Setting up scale2a_branch2b
I1030 11:14:16.039268 26474 net.cpp:157] Top shape: 1 64 150 250 (2400000)
I1030 11:14:16.039273 26474 net.cpp:165] Memory required for data: 386400084
I1030 11:14:16.039280 26474 layer_factory.hpp:77] Creating layer res2a_branch2b_relu
I1030 11:14:16.039288 26474 net.cpp:100] Creating Layer res2a_branch2b_relu
I1030 11:14:16.039294 26474 net.cpp:444] res2a_branch2b_relu <- res2a_branch2b
I1030 11:14:16.039300 26474 net.cpp:405] res2a_branch2b_relu -> res2a_branch2b (in-place)
I1030 11:14:16.039307 26474 net.cpp:150] Setting up res2a_branch2b_relu
I1030 11:14:16.039314 26474 net.cpp:157] Top shape: 1 64 150 250 (2400000)
I1030 11:14:16.039317 26474 net.cpp:165] Memory required for data: 396000084
I1030 11:14:16.039321 26474 layer_factory.hpp:77] Creating layer res2a_branch2c
I1030 11:14:16.039331 26474 net.cpp:100] Creating Layer res2a_branch2c
I1030 11:14:16.039335 26474 net.cpp:444] res2a_branch2c <- res2a_branch2b
I1030 11:14:16.039340 26474 net.cpp:418] res2a_branch2c -> res2a_branch2c
I1030 11:14:16.039453 26474 net.cpp:150] Setting up res2a_branch2c
I1030 11:14:16.039460 26474 net.cpp:157] Top shape: 1 256 150 250 (9600000)
I1030 11:14:16.039465 26474 net.cpp:165] Memory required for data: 434400084
I1030 11:14:16.039471 26474 layer_factory.hpp:77] Creating layer bn2a_branch2c
I1030 11:14:16.039479 26474 net.cpp:100] Creating Layer bn2a_branch2c
I1030 11:14:16.039482 26474 net.cpp:444] bn2a_branch2c <- res2a_branch2c
I1030 11:14:16.039489 26474 net.cpp:405] bn2a_branch2c -> res2a_branch2c (in-place)
I1030 11:14:16.039603 26474 net.cpp:150] Setting up bn2a_branch2c
I1030 11:14:16.039610 26474 net.cpp:157] Top shape: 1 256 150 250 (9600000)
I1030 11:14:16.039614 26474 net.cpp:165] Memory required for data: 472800084
I1030 11:14:16.039623 26474 layer_factory.hpp:77] Creating layer scale2a_branch2c
I1030 11:14:16.039628 26474 net.cpp:100] Creating Layer scale2a_branch2c
I1030 11:14:16.039633 26474 net.cpp:444] scale2a_branch2c <- res2a_branch2c
I1030 11:14:16.039639 26474 net.cpp:405] scale2a_branch2c -> res2a_branch2c (in-place)
I1030 11:14:16.039664 26474 layer_factory.hpp:77] Creating layer scale2a_branch2c
I1030 11:14:16.039762 26474 net.cpp:150] Setting up scale2a_branch2c
I1030 11:14:16.039768 26474 net.cpp:157] Top shape: 1 256 150 250 (9600000)
I1030 11:14:16.039772 26474 net.cpp:165] Memory required for data: 511200084
I1030 11:14:16.039779 26474 layer_factory.hpp:77] Creating layer res2a
I1030 11:14:16.039789 26474 net.cpp:100] Creating Layer res2a
I1030 11:14:16.039793 26474 net.cpp:444] res2a <- res2a_branch1
I1030 11:14:16.039798 26474 net.cpp:444] res2a <- res2a_branch2c
I1030 11:14:16.039803 26474 net.cpp:418] res2a -> res2a
I1030 11:14:16.039824 26474 net.cpp:150] Setting up res2a
I1030 11:14:16.039829 26474 net.cpp:157] Top shape: 1 256 150 250 (9600000)
I1030 11:14:16.039834 26474 net.cpp:165] Memory required for data: 549600084
I1030 11:14:16.039839 26474 layer_factory.hpp:77] Creating layer res2a_relu
I1030 11:14:16.039845 26474 net.cpp:100] Creating Layer res2a_relu
I1030 11:14:16.039849 26474 net.cpp:444] res2a_relu <- res2a
I1030 11:14:16.039855 26474 net.cpp:405] res2a_relu -> res2a (in-place)
I1030 11:14:16.039861 26474 net.cpp:150] Setting up res2a_relu
I1030 11:14:16.039867 26474 net.cpp:157] Top shape: 1 256 150 250 (9600000)
I1030 11:14:16.039871 26474 net.cpp:165] Memory required for data: 588000084
I1030 11:14:16.039875 26474 layer_factory.hpp:77] Creating layer res2a_res2a_relu_0_split
I1030 11:14:16.039881 26474 net.cpp:100] Creating Layer res2a_res2a_relu_0_split
I1030 11:14:16.039885 26474 net.cpp:444] res2a_res2a_relu_0_split <- res2a
I1030 11:14:16.039891 26474 net.cpp:418] res2a_res2a_relu_0_split -> res2a_res2a_relu_0_split_0
I1030 11:14:16.039897 26474 net.cpp:418] res2a_res2a_relu_0_split -> res2a_res2a_relu_0_split_1
I1030 11:14:16.039921 26474 net.cpp:150] Setting up res2a_res2a_relu_0_split
I1030 11:14:16.039927 26474 net.cpp:157] Top shape: 1 256 150 250 (9600000)
I1030 11:14:16.039932 26474 net.cpp:157] Top shape: 1 256 150 250 (9600000)
I1030 11:14:16.039937 26474 net.cpp:165] Memory required for data: 664800084
I1030 11:14:16.039942 26474 layer_factory.hpp:77] Creating layer res2b_branch2a
I1030 11:14:16.039949 26474 net.cpp:100] Creating Layer res2b_branch2a
I1030 11:14:16.039953 26474 net.cpp:444] res2b_branch2a <- res2a_res2a_relu_0_split_0
I1030 11:14:16.039959 26474 net.cpp:418] res2b_branch2a -> res2b_branch2a
I1030 11:14:16.040068 26474 net.cpp:150] Setting up res2b_branch2a
I1030 11:14:16.040076 26474 net.cpp:157] Top shape: 1 64 150 250 (2400000)
I1030 11:14:16.040082 26474 net.cpp:165] Memory required for data: 674400084
I1030 11:14:16.040089 26474 layer_factory.hpp:77] Creating layer bn2b_branch2a
I1030 11:14:16.040097 26474 net.cpp:100] Creating Layer bn2b_branch2a
I1030 11:14:16.040102 26474 net.cpp:444] bn2b_branch2a <- res2b_branch2a
I1030 11:14:16.040109 26474 net.cpp:405] bn2b_branch2a -> res2b_branch2a (in-place)
I1030 11:14:16.040874 26474 net.cpp:150] Setting up bn2b_branch2a
I1030 11:14:16.040910 26474 net.cpp:157] Top shape: 1 64 150 250 (2400000)
I1030 11:14:16.040915 26474 net.cpp:165] Memory required for data: 684000084
I1030 11:14:16.040942 26474 layer_factory.hpp:77] Creating layer scale2b_branch2a
I1030 11:14:16.040959 26474 net.cpp:100] Creating Layer scale2b_branch2a
I1030 11:14:16.040966 26474 net.cpp:444] scale2b_branch2a <- res2b_branch2a
I1030 11:14:16.040973 26474 net.cpp:405] scale2b_branch2a -> res2b_branch2a (in-place)
I1030 11:14:16.041018 26474 layer_factory.hpp:77] Creating layer scale2b_branch2a
I1030 11:14:16.041179 26474 net.cpp:150] Setting up scale2b_branch2a
I1030 11:14:16.041188 26474 net.cpp:157] Top shape: 1 64 150 250 (2400000)
I1030 11:14:16.041193 26474 net.cpp:165] Memory required for data: 693600084
I1030 11:14:16.041200 26474 layer_factory.hpp:77] Creating layer res2b_branch2a_relu
I1030 11:14:16.041210 26474 net.cpp:100] Creating Layer res2b_branch2a_relu
I1030 11:14:16.041214 26474 net.cpp:444] res2b_branch2a_relu <- res2b_branch2a
I1030 11:14:16.041219 26474 net.cpp:405] res2b_branch2a_relu -> res2b_branch2a (in-place)
I1030 11:14:16.041227 26474 net.cpp:150] Setting up res2b_branch2a_relu
I1030 11:14:16.041234 26474 net.cpp:157] Top shape: 1 64 150 250 (2400000)
I1030 11:14:16.041239 26474 net.cpp:165] Memory required for data: 703200084
I1030 11:14:16.041244 26474 layer_factory.hpp:77] Creating layer res2b_branch2b
I1030 11:14:16.041255 26474 net.cpp:100] Creating Layer res2b_branch2b
I1030 11:14:16.041260 26474 net.cpp:444] res2b_branch2b <- res2b_branch2a
I1030 11:14:16.041267 26474 net.cpp:418] res2b_branch2b -> res2b_branch2b
I1030 11:14:16.041420 26474 net.cpp:150] Setting up res2b_branch2b
I1030 11:14:16.041427 26474 net.cpp:157] Top shape: 1 64 150 250 (2400000)
I1030 11:14:16.041440 26474 net.cpp:165] Memory required for data: 712800084
I1030 11:14:16.041446 26474 layer_factory.hpp:77] Creating layer bn2b_branch2b
I1030 11:14:16.041455 26474 net.cpp:100] Creating Layer bn2b_branch2b
I1030 11:14:16.041458 26474 net.cpp:444] bn2b_branch2b <- res2b_branch2b
I1030 11:14:16.041465 26474 net.cpp:405] bn2b_branch2b -> res2b_branch2b (in-place)
I1030 11:14:16.041585 26474 net.cpp:150] Setting up bn2b_branch2b
I1030 11:14:16.041591 26474 net.cpp:157] Top shape: 1 64 150 250 (2400000)
I1030 11:14:16.041595 26474 net.cpp:165] Memory required for data: 722400084
I1030 11:14:16.041604 26474 layer_factory.hpp:77] Creating layer scale2b_branch2b
I1030 11:14:16.041610 26474 net.cpp:100] Creating Layer scale2b_branch2b
I1030 11:14:16.041613 26474 net.cpp:444] scale2b_branch2b <- res2b_branch2b
I1030 11:14:16.041620 26474 net.cpp:405] scale2b_branch2b -> res2b_branch2b (in-place)
I1030 11:14:16.041646 26474 layer_factory.hpp:77] Creating layer scale2b_branch2b
I1030 11:14:16.041779 26474 net.cpp:150] Setting up scale2b_branch2b
I1030 11:14:16.041786 26474 net.cpp:157] Top shape: 1 64 150 250 (2400000)
I1030 11:14:16.041790 26474 net.cpp:165] Memory required for data: 732000084
I1030 11:14:16.041796 26474 layer_factory.hpp:77] Creating layer res2b_branch2b_relu
I1030 11:14:16.041803 26474 net.cpp:100] Creating Layer res2b_branch2b_relu
I1030 11:14:16.041808 26474 net.cpp:444] res2b_branch2b_relu <- res2b_branch2b
I1030 11:14:16.041813 26474 net.cpp:405] res2b_branch2b_relu -> res2b_branch2b (in-place)
I1030 11:14:16.041820 26474 net.cpp:150] Setting up res2b_branch2b_relu
I1030 11:14:16.041826 26474 net.cpp:157] Top shape: 1 64 150 250 (2400000)
I1030 11:14:16.041828 26474 net.cpp:165] Memory required for data: 741600084
I1030 11:14:16.041833 26474 layer_factory.hpp:77] Creating layer res2b_branch2c
I1030 11:14:16.041842 26474 net.cpp:100] Creating Layer res2b_branch2c
I1030 11:14:16.041846 26474 net.cpp:444] res2b_branch2c <- res2b_branch2b
I1030 11:14:16.041851 26474 net.cpp:418] res2b_branch2c -> res2b_branch2c
I1030 11:14:16.041976 26474 net.cpp:150] Setting up res2b_branch2c
I1030 11:14:16.041985 26474 net.cpp:157] Top shape: 1 256 150 250 (9600000)
I1030 11:14:16.041988 26474 net.cpp:165] Memory required for data: 780000084
I1030 11:14:16.041993 26474 layer_factory.hpp:77] Creating layer bn2b_branch2c
I1030 11:14:16.042001 26474 net.cpp:100] Creating Layer bn2b_branch2c
I1030 11:14:16.042006 26474 net.cpp:444] bn2b_branch2c <- res2b_branch2c
I1030 11:14:16.042012 26474 net.cpp:405] bn2b_branch2c -> res2b_branch2c (in-place)
I1030 11:14:16.042647 26474 net.cpp:150] Setting up bn2b_branch2c
I1030 11:14:16.042665 26474 net.cpp:157] Top shape: 1 256 150 250 (9600000)
I1030 11:14:16.042670 26474 net.cpp:165] Memory required for data: 818400084
I1030 11:14:16.042680 26474 layer_factory.hpp:77] Creating layer scale2b_branch2c
I1030 11:14:16.042692 26474 net.cpp:100] Creating Layer scale2b_branch2c
I1030 11:14:16.042697 26474 net.cpp:444] scale2b_branch2c <- res2b_branch2c
I1030 11:14:16.042704 26474 net.cpp:405] scale2b_branch2c -> res2b_branch2c (in-place)
I1030 11:14:16.042737 26474 layer_factory.hpp:77] Creating layer scale2b_branch2c
I1030 11:14:16.042851 26474 net.cpp:150] Setting up scale2b_branch2c
I1030 11:14:16.042857 26474 net.cpp:157] Top shape: 1 256 150 250 (9600000)
I1030 11:14:16.042861 26474 net.cpp:165] Memory required for data: 856800084
I1030 11:14:16.042868 26474 layer_factory.hpp:77] Creating layer res2b
I1030 11:14:16.042875 26474 net.cpp:100] Creating Layer res2b
I1030 11:14:16.042879 26474 net.cpp:444] res2b <- res2a_res2a_relu_0_split_1
I1030 11:14:16.042884 26474 net.cpp:444] res2b <- res2b_branch2c
I1030 11:14:16.042891 26474 net.cpp:418] res2b -> res2b
I1030 11:14:16.042909 26474 net.cpp:150] Setting up res2b
I1030 11:14:16.042915 26474 net.cpp:157] Top shape: 1 256 150 250 (9600000)
I1030 11:14:16.042919 26474 net.cpp:165] Memory required for data: 895200084
I1030 11:14:16.042923 26474 layer_factory.hpp:77] Creating layer res2b_relu
I1030 11:14:16.042930 26474 net.cpp:100] Creating Layer res2b_relu
I1030 11:14:16.042934 26474 net.cpp:444] res2b_relu <- res2b
I1030 11:14:16.042939 26474 net.cpp:405] res2b_relu -> res2b (in-place)
I1030 11:14:16.042945 26474 net.cpp:150] Setting up res2b_relu
I1030 11:14:16.042950 26474 net.cpp:157] Top shape: 1 256 150 250 (9600000)
I1030 11:14:16.042954 26474 net.cpp:165] Memory required for data: 933600084
I1030 11:14:16.042959 26474 layer_factory.hpp:77] Creating layer res2b_res2b_relu_0_split
I1030 11:14:16.042966 26474 net.cpp:100] Creating Layer res2b_res2b_relu_0_split
I1030 11:14:16.042970 26474 net.cpp:444] res2b_res2b_relu_0_split <- res2b
I1030 11:14:16.042974 26474 net.cpp:418] res2b_res2b_relu_0_split -> res2b_res2b_relu_0_split_0
I1030 11:14:16.042980 26474 net.cpp:418] res2b_res2b_relu_0_split -> res2b_res2b_relu_0_split_1
I1030 11:14:16.043002 26474 net.cpp:150] Setting up res2b_res2b_relu_0_split
I1030 11:14:16.043009 26474 net.cpp:157] Top shape: 1 256 150 250 (9600000)
I1030 11:14:16.043014 26474 net.cpp:157] Top shape: 1 256 150 250 (9600000)
I1030 11:14:16.043018 26474 net.cpp:165] Memory required for data: 1010400084
I1030 11:14:16.043022 26474 layer_factory.hpp:77] Creating layer res2c_branch2a
I1030 11:14:16.043031 26474 net.cpp:100] Creating Layer res2c_branch2a
I1030 11:14:16.043035 26474 net.cpp:444] res2c_branch2a <- res2b_res2b_relu_0_split_0
I1030 11:14:16.043040 26474 net.cpp:418] res2c_branch2a -> res2c_branch2a
I1030 11:14:16.043154 26474 net.cpp:150] Setting up res2c_branch2a
I1030 11:14:16.043160 26474 net.cpp:157] Top shape: 1 64 150 250 (2400000)
I1030 11:14:16.043165 26474 net.cpp:165] Memory required for data: 1020000084
I1030 11:14:16.043171 26474 layer_factory.hpp:77] Creating layer bn2c_branch2a
I1030 11:14:16.043179 26474 net.cpp:100] Creating Layer bn2c_branch2a
I1030 11:14:16.043184 26474 net.cpp:444] bn2c_branch2a <- res2c_branch2a
I1030 11:14:16.043189 26474 net.cpp:405] bn2c_branch2a -> res2c_branch2a (in-place)
I1030 11:14:16.043311 26474 net.cpp:150] Setting up bn2c_branch2a
I1030 11:14:16.043318 26474 net.cpp:157] Top shape: 1 64 150 250 (2400000)
I1030 11:14:16.043321 26474 net.cpp:165] Memory required for data: 1029600084
I1030 11:14:16.043329 26474 layer_factory.hpp:77] Creating layer scale2c_branch2a
I1030 11:14:16.043336 26474 net.cpp:100] Creating Layer scale2c_branch2a
I1030 11:14:16.043340 26474 net.cpp:444] scale2c_branch2a <- res2c_branch2a
I1030 11:14:16.043345 26474 net.cpp:405] scale2c_branch2a -> res2c_branch2a (in-place)
I1030 11:14:16.043370 26474 layer_factory.hpp:77] Creating layer scale2c_branch2a
I1030 11:14:16.043468 26474 net.cpp:150] Setting up scale2c_branch2a
I1030 11:14:16.043475 26474 net.cpp:157] Top shape: 1 64 150 250 (2400000)
I1030 11:14:16.043479 26474 net.cpp:165] Memory required for data: 1039200084
I1030 11:14:16.043488 26474 layer_factory.hpp:77] Creating layer res2c_branch2a_relu
I1030 11:14:16.043493 26474 net.cpp:100] Creating Layer res2c_branch2a_relu
I1030 11:14:16.043498 26474 net.cpp:444] res2c_branch2a_relu <- res2c_branch2a
I1030 11:14:16.043503 26474 net.cpp:405] res2c_branch2a_relu -> res2c_branch2a (in-place)
I1030 11:14:16.043509 26474 net.cpp:150] Setting up res2c_branch2a_relu
I1030 11:14:16.043515 26474 net.cpp:157] Top shape: 1 64 150 250 (2400000)
I1030 11:14:16.043519 26474 net.cpp:165] Memory required for data: 1048800084
I1030 11:14:16.043522 26474 layer_factory.hpp:77] Creating layer res2c_branch2b
I1030 11:14:16.043530 26474 net.cpp:100] Creating Layer res2c_branch2b
I1030 11:14:16.043534 26474 net.cpp:444] res2c_branch2b <- res2c_branch2a
I1030 11:14:16.043540 26474 net.cpp:418] res2c_branch2b -> res2c_branch2b
I1030 11:14:16.043663 26474 net.cpp:150] Setting up res2c_branch2b
I1030 11:14:16.043670 26474 net.cpp:157] Top shape: 1 64 150 250 (2400000)
I1030 11:14:16.043675 26474 net.cpp:165] Memory required for data: 1058400084
I1030 11:14:16.043681 26474 layer_factory.hpp:77] Creating layer bn2c_branch2b
I1030 11:14:16.043689 26474 net.cpp:100] Creating Layer bn2c_branch2b
I1030 11:14:16.043694 26474 net.cpp:444] bn2c_branch2b <- res2c_branch2b
I1030 11:14:16.043699 26474 net.cpp:405] bn2c_branch2b -> res2c_branch2b (in-place)
I1030 11:14:16.044268 26474 net.cpp:150] Setting up bn2c_branch2b
I1030 11:14:16.044283 26474 net.cpp:157] Top shape: 1 64 150 250 (2400000)
I1030 11:14:16.044287 26474 net.cpp:165] Memory required for data: 1068000084
I1030 11:14:16.044296 26474 layer_factory.hpp:77] Creating layer scale2c_branch2b
I1030 11:14:16.044306 26474 net.cpp:100] Creating Layer scale2c_branch2b
I1030 11:14:16.044311 26474 net.cpp:444] scale2c_branch2b <- res2c_branch2b
I1030 11:14:16.044317 26474 net.cpp:405] scale2c_branch2b -> res2c_branch2b (in-place)
I1030 11:14:16.044358 26474 layer_factory.hpp:77] Creating layer scale2c_branch2b
I1030 11:14:16.044455 26474 net.cpp:150] Setting up scale2c_branch2b
I1030 11:14:16.044461 26474 net.cpp:157] Top shape: 1 64 150 250 (2400000)
I1030 11:14:16.044466 26474 net.cpp:165] Memory required for data: 1077600084
I1030 11:14:16.044472 26474 layer_factory.hpp:77] Creating layer res2c_branch2b_relu
I1030 11:14:16.044477 26474 net.cpp:100] Creating Layer res2c_branch2b_relu
I1030 11:14:16.044482 26474 net.cpp:444] res2c_branch2b_relu <- res2c_branch2b
I1030 11:14:16.044487 26474 net.cpp:405] res2c_branch2b_relu -> res2c_branch2b (in-place)
I1030 11:14:16.044493 26474 net.cpp:150] Setting up res2c_branch2b_relu
I1030 11:14:16.044498 26474 net.cpp:157] Top shape: 1 64 150 250 (2400000)
I1030 11:14:16.044502 26474 net.cpp:165] Memory required for data: 1087200084
I1030 11:14:16.044505 26474 layer_factory.hpp:77] Creating layer res2c_branch2c
I1030 11:14:16.044513 26474 net.cpp:100] Creating Layer res2c_branch2c
I1030 11:14:16.044517 26474 net.cpp:444] res2c_branch2c <- res2c_branch2b
I1030 11:14:16.044523 26474 net.cpp:418] res2c_branch2c -> res2c_branch2c
I1030 11:14:16.044646 26474 net.cpp:150] Setting up res2c_branch2c
I1030 11:14:16.044651 26474 net.cpp:157] Top shape: 1 256 150 250 (9600000)
I1030 11:14:16.044656 26474 net.cpp:165] Memory required for data: 1125600084
I1030 11:14:16.044662 26474 layer_factory.hpp:77] Creating layer bn2c_branch2c
I1030 11:14:16.044669 26474 net.cpp:100] Creating Layer bn2c_branch2c
I1030 11:14:16.044673 26474 net.cpp:444] bn2c_branch2c <- res2c_branch2c
I1030 11:14:16.044678 26474 net.cpp:405] bn2c_branch2c -> res2c_branch2c (in-place)
I1030 11:14:16.044792 26474 net.cpp:150] Setting up bn2c_branch2c
I1030 11:14:16.044798 26474 net.cpp:157] Top shape: 1 256 150 250 (9600000)
I1030 11:14:16.044803 26474 net.cpp:165] Memory required for data: 1164000084
I1030 11:14:16.044811 26474 layer_factory.hpp:77] Creating layer scale2c_branch2c
I1030 11:14:16.044817 26474 net.cpp:100] Creating Layer scale2c_branch2c
I1030 11:14:16.044821 26474 net.cpp:444] scale2c_branch2c <- res2c_branch2c
I1030 11:14:16.044827 26474 net.cpp:405] scale2c_branch2c -> res2c_branch2c (in-place)
I1030 11:14:16.044852 26474 layer_factory.hpp:77] Creating layer scale2c_branch2c
I1030 11:14:16.044942 26474 net.cpp:150] Setting up scale2c_branch2c
I1030 11:14:16.044948 26474 net.cpp:157] Top shape: 1 256 150 250 (9600000)
I1030 11:14:16.044953 26474 net.cpp:165] Memory required for data: 1202400084
I1030 11:14:16.044965 26474 layer_factory.hpp:77] Creating layer res2c
I1030 11:14:16.044970 26474 net.cpp:100] Creating Layer res2c
I1030 11:14:16.044975 26474 net.cpp:444] res2c <- res2b_res2b_relu_0_split_1
I1030 11:14:16.044981 26474 net.cpp:444] res2c <- res2c_branch2c
I1030 11:14:16.044986 26474 net.cpp:418] res2c -> res2c
I1030 11:14:16.045003 26474 net.cpp:150] Setting up res2c
I1030 11:14:16.045009 26474 net.cpp:157] Top shape: 1 256 150 250 (9600000)
I1030 11:14:16.045013 26474 net.cpp:165] Memory required for data: 1240800084
I1030 11:14:16.045018 26474 layer_factory.hpp:77] Creating layer res2c_relu
I1030 11:14:16.045024 26474 net.cpp:100] Creating Layer res2c_relu
I1030 11:14:16.045028 26474 net.cpp:444] res2c_relu <- res2c
I1030 11:14:16.045034 26474 net.cpp:405] res2c_relu -> res2c (in-place)
I1030 11:14:16.045040 26474 net.cpp:150] Setting up res2c_relu
I1030 11:14:16.045047 26474 net.cpp:157] Top shape: 1 256 150 250 (9600000)
I1030 11:14:16.045050 26474 net.cpp:165] Memory required for data: 1279200084
I1030 11:14:16.045053 26474 layer_factory.hpp:77] Creating layer res2c_res2c_relu_0_split
I1030 11:14:16.045059 26474 net.cpp:100] Creating Layer res2c_res2c_relu_0_split
I1030 11:14:16.045063 26474 net.cpp:444] res2c_res2c_relu_0_split <- res2c
I1030 11:14:16.045068 26474 net.cpp:418] res2c_res2c_relu_0_split -> res2c_res2c_relu_0_split_0
I1030 11:14:16.045075 26474 net.cpp:418] res2c_res2c_relu_0_split -> res2c_res2c_relu_0_split_1
I1030 11:14:16.045099 26474 net.cpp:150] Setting up res2c_res2c_relu_0_split
I1030 11:14:16.045104 26474 net.cpp:157] Top shape: 1 256 150 250 (9600000)
I1030 11:14:16.045107 26474 net.cpp:157] Top shape: 1 256 150 250 (9600000)
I1030 11:14:16.045111 26474 net.cpp:165] Memory required for data: 1356000084
I1030 11:14:16.045115 26474 layer_factory.hpp:77] Creating layer res3a_branch1
I1030 11:14:16.045123 26474 net.cpp:100] Creating Layer res3a_branch1
I1030 11:14:16.045127 26474 net.cpp:444] res3a_branch1 <- res2c_res2c_relu_0_split_0
I1030 11:14:16.045133 26474 net.cpp:418] res3a_branch1 -> res3a_branch1
I1030 11:14:16.045569 26474 net.cpp:150] Setting up res3a_branch1
I1030 11:14:16.045578 26474 net.cpp:157] Top shape: 1 512 75 125 (4800000)
I1030 11:14:16.045583 26474 net.cpp:165] Memory required for data: 1375200084
I1030 11:14:16.045588 26474 layer_factory.hpp:77] Creating layer bn3a_branch1
I1030 11:14:16.045595 26474 net.cpp:100] Creating Layer bn3a_branch1
I1030 11:14:16.045599 26474 net.cpp:444] bn3a_branch1 <- res3a_branch1
I1030 11:14:16.045606 26474 net.cpp:405] bn3a_branch1 -> res3a_branch1 (in-place)
I1030 11:14:16.046057 26474 net.cpp:150] Setting up bn3a_branch1
I1030 11:14:16.046066 26474 net.cpp:157] Top shape: 1 512 75 125 (4800000)
I1030 11:14:16.046070 26474 net.cpp:165] Memory required for data: 1394400084
I1030 11:14:16.046079 26474 layer_factory.hpp:77] Creating layer scale3a_branch1
I1030 11:14:16.046087 26474 net.cpp:100] Creating Layer scale3a_branch1
I1030 11:14:16.046090 26474 net.cpp:444] scale3a_branch1 <- res3a_branch1
I1030 11:14:16.046097 26474 net.cpp:405] scale3a_branch1 -> res3a_branch1 (in-place)
I1030 11:14:16.046121 26474 layer_factory.hpp:77] Creating layer scale3a_branch1
I1030 11:14:16.046197 26474 net.cpp:150] Setting up scale3a_branch1
I1030 11:14:16.046205 26474 net.cpp:157] Top shape: 1 512 75 125 (4800000)
I1030 11:14:16.046208 26474 net.cpp:165] Memory required for data: 1413600084
I1030 11:14:16.046216 26474 layer_factory.hpp:77] Creating layer res3a_branch2a
I1030 11:14:16.046223 26474 net.cpp:100] Creating Layer res3a_branch2a
I1030 11:14:16.046228 26474 net.cpp:444] res3a_branch2a <- res2c_res2c_relu_0_split_1
I1030 11:14:16.046234 26474 net.cpp:418] res3a_branch2a -> res3a_branch2a
I1030 11:14:16.046350 26474 net.cpp:150] Setting up res3a_branch2a
I1030 11:14:16.046357 26474 net.cpp:157] Top shape: 1 128 75 125 (1200000)
I1030 11:14:16.046362 26474 net.cpp:165] Memory required for data: 1418400084
I1030 11:14:16.046368 26474 layer_factory.hpp:77] Creating layer bn3a_branch2a
I1030 11:14:16.046375 26474 net.cpp:100] Creating Layer bn3a_branch2a
I1030 11:14:16.046380 26474 net.cpp:444] bn3a_branch2a <- res3a_branch2a
I1030 11:14:16.046386 26474 net.cpp:405] bn3a_branch2a -> res3a_branch2a (in-place)
I1030 11:14:16.046489 26474 net.cpp:150] Setting up bn3a_branch2a
I1030 11:14:16.046494 26474 net.cpp:157] Top shape: 1 128 75 125 (1200000)
I1030 11:14:16.046499 26474 net.cpp:165] Memory required for data: 1423200084
I1030 11:14:16.046507 26474 layer_factory.hpp:77] Creating layer scale3a_branch2a
I1030 11:14:16.046512 26474 net.cpp:100] Creating Layer scale3a_branch2a
I1030 11:14:16.046517 26474 net.cpp:444] scale3a_branch2a <- res3a_branch2a
I1030 11:14:16.046524 26474 net.cpp:405] scale3a_branch2a -> res3a_branch2a (in-place)
I1030 11:14:16.046547 26474 layer_factory.hpp:77] Creating layer scale3a_branch2a
I1030 11:14:16.046619 26474 net.cpp:150] Setting up scale3a_branch2a
I1030 11:14:16.046627 26474 net.cpp:157] Top shape: 1 128 75 125 (1200000)
I1030 11:14:16.046630 26474 net.cpp:165] Memory required for data: 1428000084
I1030 11:14:16.046638 26474 layer_factory.hpp:77] Creating layer res3a_branch2a_relu
I1030 11:14:16.046643 26474 net.cpp:100] Creating Layer res3a_branch2a_relu
I1030 11:14:16.046648 26474 net.cpp:444] res3a_branch2a_relu <- res3a_branch2a
I1030 11:14:16.046653 26474 net.cpp:405] res3a_branch2a_relu -> res3a_branch2a (in-place)
I1030 11:14:16.046659 26474 net.cpp:150] Setting up res3a_branch2a_relu
I1030 11:14:16.046665 26474 net.cpp:157] Top shape: 1 128 75 125 (1200000)
I1030 11:14:16.046669 26474 net.cpp:165] Memory required for data: 1432800084
I1030 11:14:16.046674 26474 layer_factory.hpp:77] Creating layer res3a_branch2b
I1030 11:14:16.046680 26474 net.cpp:100] Creating Layer res3a_branch2b
I1030 11:14:16.046684 26474 net.cpp:444] res3a_branch2b <- res3a_branch2a
I1030 11:14:16.046690 26474 net.cpp:418] res3a_branch2b -> res3a_branch2b
I1030 11:14:16.047102 26474 net.cpp:150] Setting up res3a_branch2b
I1030 11:14:16.047112 26474 net.cpp:157] Top shape: 1 128 75 125 (1200000)
I1030 11:14:16.047116 26474 net.cpp:165] Memory required for data: 1437600084
I1030 11:14:16.047122 26474 layer_factory.hpp:77] Creating layer bn3a_branch2b
I1030 11:14:16.047127 26474 net.cpp:100] Creating Layer bn3a_branch2b
I1030 11:14:16.047132 26474 net.cpp:444] bn3a_branch2b <- res3a_branch2b
I1030 11:14:16.047139 26474 net.cpp:405] bn3a_branch2b -> res3a_branch2b (in-place)
I1030 11:14:16.047242 26474 net.cpp:150] Setting up bn3a_branch2b
I1030 11:14:16.047248 26474 net.cpp:157] Top shape: 1 128 75 125 (1200000)
I1030 11:14:16.047253 26474 net.cpp:165] Memory required for data: 1442400084
I1030 11:14:16.047261 26474 layer_factory.hpp:77] Creating layer scale3a_branch2b
I1030 11:14:16.047269 26474 net.cpp:100] Creating Layer scale3a_branch2b
I1030 11:14:16.047272 26474 net.cpp:444] scale3a_branch2b <- res3a_branch2b
I1030 11:14:16.047278 26474 net.cpp:405] scale3a_branch2b -> res3a_branch2b (in-place)
I1030 11:14:16.047304 26474 layer_factory.hpp:77] Creating layer scale3a_branch2b
I1030 11:14:16.047376 26474 net.cpp:150] Setting up scale3a_branch2b
I1030 11:14:16.047384 26474 net.cpp:157] Top shape: 1 128 75 125 (1200000)
I1030 11:14:16.047387 26474 net.cpp:165] Memory required for data: 1447200084
I1030 11:14:16.047395 26474 layer_factory.hpp:77] Creating layer res3a_branch2b_relu
I1030 11:14:16.047400 26474 net.cpp:100] Creating Layer res3a_branch2b_relu
I1030 11:14:16.047405 26474 net.cpp:444] res3a_branch2b_relu <- res3a_branch2b
I1030 11:14:16.047410 26474 net.cpp:405] res3a_branch2b_relu -> res3a_branch2b (in-place)
I1030 11:14:16.047417 26474 net.cpp:150] Setting up res3a_branch2b_relu
I1030 11:14:16.047422 26474 net.cpp:157] Top shape: 1 128 75 125 (1200000)
I1030 11:14:16.047426 26474 net.cpp:165] Memory required for data: 1452000084
I1030 11:14:16.047440 26474 layer_factory.hpp:77] Creating layer res3a_branch2c
I1030 11:14:16.047447 26474 net.cpp:100] Creating Layer res3a_branch2c
I1030 11:14:16.047451 26474 net.cpp:444] res3a_branch2c <- res3a_branch2b
I1030 11:14:16.047457 26474 net.cpp:418] res3a_branch2c -> res3a_branch2c
I1030 11:14:16.047842 26474 net.cpp:150] Setting up res3a_branch2c
I1030 11:14:16.047852 26474 net.cpp:157] Top shape: 1 512 75 125 (4800000)
I1030 11:14:16.047855 26474 net.cpp:165] Memory required for data: 1471200084
I1030 11:14:16.047861 26474 layer_factory.hpp:77] Creating layer bn3a_branch2c
I1030 11:14:16.047868 26474 net.cpp:100] Creating Layer bn3a_branch2c
I1030 11:14:16.047873 26474 net.cpp:444] bn3a_branch2c <- res3a_branch2c
I1030 11:14:16.047879 26474 net.cpp:405] bn3a_branch2c -> res3a_branch2c (in-place)
I1030 11:14:16.047988 26474 net.cpp:150] Setting up bn3a_branch2c
I1030 11:14:16.047994 26474 net.cpp:157] Top shape: 1 512 75 125 (4800000)
I1030 11:14:16.047998 26474 net.cpp:165] Memory required for data: 1490400084
I1030 11:14:16.048007 26474 layer_factory.hpp:77] Creating layer scale3a_branch2c
I1030 11:14:16.048013 26474 net.cpp:100] Creating Layer scale3a_branch2c
I1030 11:14:16.048017 26474 net.cpp:444] scale3a_branch2c <- res3a_branch2c
I1030 11:14:16.048023 26474 net.cpp:405] scale3a_branch2c -> res3a_branch2c (in-place)
I1030 11:14:16.048048 26474 layer_factory.hpp:77] Creating layer scale3a_branch2c
I1030 11:14:16.048125 26474 net.cpp:150] Setting up scale3a_branch2c
I1030 11:14:16.048130 26474 net.cpp:157] Top shape: 1 512 75 125 (4800000)
I1030 11:14:16.048135 26474 net.cpp:165] Memory required for data: 1509600084
I1030 11:14:16.048141 26474 layer_factory.hpp:77] Creating layer res3a
I1030 11:14:16.048147 26474 net.cpp:100] Creating Layer res3a
I1030 11:14:16.048151 26474 net.cpp:444] res3a <- res3a_branch1
I1030 11:14:16.048156 26474 net.cpp:444] res3a <- res3a_branch2c
I1030 11:14:16.048162 26474 net.cpp:418] res3a -> res3a
I1030 11:14:16.048180 26474 net.cpp:150] Setting up res3a
I1030 11:14:16.048185 26474 net.cpp:157] Top shape: 1 512 75 125 (4800000)
I1030 11:14:16.048190 26474 net.cpp:165] Memory required for data: 1528800084
I1030 11:14:16.048194 26474 layer_factory.hpp:77] Creating layer res3a_relu
I1030 11:14:16.048200 26474 net.cpp:100] Creating Layer res3a_relu
I1030 11:14:16.048204 26474 net.cpp:444] res3a_relu <- res3a
I1030 11:14:16.048209 26474 net.cpp:405] res3a_relu -> res3a (in-place)
I1030 11:14:16.048215 26474 net.cpp:150] Setting up res3a_relu
I1030 11:14:16.048220 26474 net.cpp:157] Top shape: 1 512 75 125 (4800000)
I1030 11:14:16.048224 26474 net.cpp:165] Memory required for data: 1548000084
I1030 11:14:16.048229 26474 layer_factory.hpp:77] Creating layer res3a_res3a_relu_0_split
I1030 11:14:16.048235 26474 net.cpp:100] Creating Layer res3a_res3a_relu_0_split
I1030 11:14:16.048239 26474 net.cpp:444] res3a_res3a_relu_0_split <- res3a
I1030 11:14:16.048244 26474 net.cpp:418] res3a_res3a_relu_0_split -> res3a_res3a_relu_0_split_0
I1030 11:14:16.048250 26474 net.cpp:418] res3a_res3a_relu_0_split -> res3a_res3a_relu_0_split_1
I1030 11:14:16.048274 26474 net.cpp:150] Setting up res3a_res3a_relu_0_split
I1030 11:14:16.048279 26474 net.cpp:157] Top shape: 1 512 75 125 (4800000)
I1030 11:14:16.048285 26474 net.cpp:157] Top shape: 1 512 75 125 (4800000)
I1030 11:14:16.048288 26474 net.cpp:165] Memory required for data: 1586400084
I1030 11:14:16.048292 26474 layer_factory.hpp:77] Creating layer res3b1_branch2a
I1030 11:14:16.048300 26474 net.cpp:100] Creating Layer res3b1_branch2a
I1030 11:14:16.048305 26474 net.cpp:444] res3b1_branch2a <- res3a_res3a_relu_0_split_0
I1030 11:14:16.048310 26474 net.cpp:418] res3b1_branch2a -> res3b1_branch2a
I1030 11:14:16.048434 26474 net.cpp:150] Setting up res3b1_branch2a
I1030 11:14:16.048440 26474 net.cpp:157] Top shape: 1 128 75 125 (1200000)
I1030 11:14:16.048445 26474 net.cpp:165] Memory required for data: 1591200084
I1030 11:14:16.048450 26474 layer_factory.hpp:77] Creating layer bn3b1_branch2a
I1030 11:14:16.048456 26474 net.cpp:100] Creating Layer bn3b1_branch2a
I1030 11:14:16.048461 26474 net.cpp:444] bn3b1_branch2a <- res3b1_branch2a
I1030 11:14:16.048467 26474 net.cpp:405] bn3b1_branch2a -> res3b1_branch2a (in-place)
I1030 11:14:16.048573 26474 net.cpp:150] Setting up bn3b1_branch2a
I1030 11:14:16.048579 26474 net.cpp:157] Top shape: 1 128 75 125 (1200000)
I1030 11:14:16.048584 26474 net.cpp:165] Memory required for data: 1596000084
I1030 11:14:16.048593 26474 layer_factory.hpp:77] Creating layer scale3b1_branch2a
I1030 11:14:16.048599 26474 net.cpp:100] Creating Layer scale3b1_branch2a
I1030 11:14:16.048602 26474 net.cpp:444] scale3b1_branch2a <- res3b1_branch2a
I1030 11:14:16.048609 26474 net.cpp:405] scale3b1_branch2a -> res3b1_branch2a (in-place)
I1030 11:14:16.048634 26474 layer_factory.hpp:77] Creating layer scale3b1_branch2a
I1030 11:14:16.048705 26474 net.cpp:150] Setting up scale3b1_branch2a
I1030 11:14:16.048712 26474 net.cpp:157] Top shape: 1 128 75 125 (1200000)
I1030 11:14:16.048715 26474 net.cpp:165] Memory required for data: 1600800084
I1030 11:14:16.048723 26474 layer_factory.hpp:77] Creating layer res3b1_branch2a_relu
I1030 11:14:16.048728 26474 net.cpp:100] Creating Layer res3b1_branch2a_relu
I1030 11:14:16.048733 26474 net.cpp:444] res3b1_branch2a_relu <- res3b1_branch2a
I1030 11:14:16.048738 26474 net.cpp:405] res3b1_branch2a_relu -> res3b1_branch2a (in-place)
I1030 11:14:16.048744 26474 net.cpp:150] Setting up res3b1_branch2a_relu
I1030 11:14:16.048750 26474 net.cpp:157] Top shape: 1 128 75 125 (1200000)
I1030 11:14:16.048753 26474 net.cpp:165] Memory required for data: 1605600084
I1030 11:14:16.048758 26474 layer_factory.hpp:77] Creating layer res3b1_branch2b
I1030 11:14:16.048765 26474 net.cpp:100] Creating Layer res3b1_branch2b
I1030 11:14:16.048769 26474 net.cpp:444] res3b1_branch2b <- res3b1_branch2a
I1030 11:14:16.048774 26474 net.cpp:418] res3b1_branch2b -> res3b1_branch2b
I1030 11:14:16.049191 26474 net.cpp:150] Setting up res3b1_branch2b
I1030 11:14:16.049201 26474 net.cpp:157] Top shape: 1 128 75 125 (1200000)
I1030 11:14:16.049204 26474 net.cpp:165] Memory required for data: 1610400084
I1030 11:14:16.049209 26474 layer_factory.hpp:77] Creating layer bn3b1_branch2b
I1030 11:14:16.049217 26474 net.cpp:100] Creating Layer bn3b1_branch2b
I1030 11:14:16.049221 26474 net.cpp:444] bn3b1_branch2b <- res3b1_branch2b
I1030 11:14:16.049227 26474 net.cpp:405] bn3b1_branch2b -> res3b1_branch2b (in-place)
I1030 11:14:16.049336 26474 net.cpp:150] Setting up bn3b1_branch2b
I1030 11:14:16.049342 26474 net.cpp:157] Top shape: 1 128 75 125 (1200000)
I1030 11:14:16.049347 26474 net.cpp:165] Memory required for data: 1615200084
I1030 11:14:16.049356 26474 layer_factory.hpp:77] Creating layer scale3b1_branch2b
I1030 11:14:16.049362 26474 net.cpp:100] Creating Layer scale3b1_branch2b
I1030 11:14:16.049366 26474 net.cpp:444] scale3b1_branch2b <- res3b1_branch2b
I1030 11:14:16.049372 26474 net.cpp:405] scale3b1_branch2b -> res3b1_branch2b (in-place)
I1030 11:14:16.049397 26474 layer_factory.hpp:77] Creating layer scale3b1_branch2b
I1030 11:14:16.049723 26474 net.cpp:150] Setting up scale3b1_branch2b
I1030 11:14:16.049732 26474 net.cpp:157] Top shape: 1 128 75 125 (1200000)
I1030 11:14:16.049736 26474 net.cpp:165] Memory required for data: 1620000084
I1030 11:14:16.049743 26474 layer_factory.hpp:77] Creating layer res3b1_branch2b_relu
I1030 11:14:16.049749 26474 net.cpp:100] Creating Layer res3b1_branch2b_relu
I1030 11:14:16.049753 26474 net.cpp:444] res3b1_branch2b_relu <- res3b1_branch2b
I1030 11:14:16.049759 26474 net.cpp:405] res3b1_branch2b_relu -> res3b1_branch2b (in-place)
I1030 11:14:16.049767 26474 net.cpp:150] Setting up res3b1_branch2b_relu
I1030 11:14:16.049772 26474 net.cpp:157] Top shape: 1 128 75 125 (1200000)
I1030 11:14:16.049775 26474 net.cpp:165] Memory required for data: 1624800084
I1030 11:14:16.049778 26474 layer_factory.hpp:77] Creating layer res3b1_branch2c
I1030 11:14:16.049787 26474 net.cpp:100] Creating Layer res3b1_branch2c
I1030 11:14:16.049790 26474 net.cpp:444] res3b1_branch2c <- res3b1_branch2b
I1030 11:14:16.049795 26474 net.cpp:418] res3b1_branch2c -> res3b1_branch2c
I1030 11:14:16.049924 26474 net.cpp:150] Setting up res3b1_branch2c
I1030 11:14:16.049935 26474 net.cpp:157] Top shape: 1 512 75 125 (4800000)
I1030 11:14:16.049940 26474 net.cpp:165] Memory required for data: 1644000084
I1030 11:14:16.049947 26474 layer_factory.hpp:77] Creating layer bn3b1_branch2c
I1030 11:14:16.049953 26474 net.cpp:100] Creating Layer bn3b1_branch2c
I1030 11:14:16.049957 26474 net.cpp:444] bn3b1_branch2c <- res3b1_branch2c
I1030 11:14:16.049963 26474 net.cpp:405] bn3b1_branch2c -> res3b1_branch2c (in-place)
I1030 11:14:16.050071 26474 net.cpp:150] Setting up bn3b1_branch2c
I1030 11:14:16.050076 26474 net.cpp:157] Top shape: 1 512 75 125 (4800000)
I1030 11:14:16.050081 26474 net.cpp:165] Memory required for data: 1663200084
I1030 11:14:16.050091 26474 layer_factory.hpp:77] Creating layer scale3b1_branch2c
I1030 11:14:16.050096 26474 net.cpp:100] Creating Layer scale3b1_branch2c
I1030 11:14:16.050101 26474 net.cpp:444] scale3b1_branch2c <- res3b1_branch2c
I1030 11:14:16.050107 26474 net.cpp:405] scale3b1_branch2c -> res3b1_branch2c (in-place)
I1030 11:14:16.050130 26474 layer_factory.hpp:77] Creating layer scale3b1_branch2c
I1030 11:14:16.050201 26474 net.cpp:150] Setting up scale3b1_branch2c
I1030 11:14:16.050207 26474 net.cpp:157] Top shape: 1 512 75 125 (4800000)
I1030 11:14:16.050212 26474 net.cpp:165] Memory required for data: 1682400084
I1030 11:14:16.050220 26474 layer_factory.hpp:77] Creating layer res3b1
I1030 11:14:16.050225 26474 net.cpp:100] Creating Layer res3b1
I1030 11:14:16.050230 26474 net.cpp:444] res3b1 <- res3a_res3a_relu_0_split_1
I1030 11:14:16.050235 26474 net.cpp:444] res3b1 <- res3b1_branch2c
I1030 11:14:16.050240 26474 net.cpp:418] res3b1 -> res3b1
I1030 11:14:16.050258 26474 net.cpp:150] Setting up res3b1
I1030 11:14:16.050263 26474 net.cpp:157] Top shape: 1 512 75 125 (4800000)
I1030 11:14:16.050267 26474 net.cpp:165] Memory required for data: 1701600084
I1030 11:14:16.050281 26474 layer_factory.hpp:77] Creating layer res3b1_relu
I1030 11:14:16.050287 26474 net.cpp:100] Creating Layer res3b1_relu
I1030 11:14:16.050290 26474 net.cpp:444] res3b1_relu <- res3b1
I1030 11:14:16.050295 26474 net.cpp:405] res3b1_relu -> res3b1 (in-place)
I1030 11:14:16.050302 26474 net.cpp:150] Setting up res3b1_relu
I1030 11:14:16.050307 26474 net.cpp:157] Top shape: 1 512 75 125 (4800000)
I1030 11:14:16.050310 26474 net.cpp:165] Memory required for data: 1720800084
I1030 11:14:16.050314 26474 layer_factory.hpp:77] Creating layer res3b1_res3b1_relu_0_split
I1030 11:14:16.050320 26474 net.cpp:100] Creating Layer res3b1_res3b1_relu_0_split
I1030 11:14:16.050324 26474 net.cpp:444] res3b1_res3b1_relu_0_split <- res3b1
I1030 11:14:16.050338 26474 net.cpp:418] res3b1_res3b1_relu_0_split -> res3b1_res3b1_relu_0_split_0
I1030 11:14:16.050344 26474 net.cpp:418] res3b1_res3b1_relu_0_split -> res3b1_res3b1_relu_0_split_1
I1030 11:14:16.050367 26474 net.cpp:150] Setting up res3b1_res3b1_relu_0_split
I1030 11:14:16.050372 26474 net.cpp:157] Top shape: 1 512 75 125 (4800000)
I1030 11:14:16.050379 26474 net.cpp:157] Top shape: 1 512 75 125 (4800000)
I1030 11:14:16.050382 26474 net.cpp:165] Memory required for data: 1759200084
I1030 11:14:16.050385 26474 layer_factory.hpp:77] Creating layer res3b2_branch2a
I1030 11:14:16.050393 26474 net.cpp:100] Creating Layer res3b2_branch2a
I1030 11:14:16.050397 26474 net.cpp:444] res3b2_branch2a <- res3b1_res3b1_relu_0_split_0
I1030 11:14:16.050402 26474 net.cpp:418] res3b2_branch2a -> res3b2_branch2a
I1030 11:14:16.050524 26474 net.cpp:150] Setting up res3b2_branch2a
I1030 11:14:16.050531 26474 net.cpp:157] Top shape: 1 128 75 125 (1200000)
I1030 11:14:16.050535 26474 net.cpp:165] Memory required for data: 1764000084
I1030 11:14:16.050541 26474 layer_factory.hpp:77] Creating layer bn3b2_branch2a
I1030 11:14:16.050556 26474 net.cpp:100] Creating Layer bn3b2_branch2a
I1030 11:14:16.050560 26474 net.cpp:444] bn3b2_branch2a <- res3b2_branch2a
I1030 11:14:16.050566 26474 net.cpp:405] bn3b2_branch2a -> res3b2_branch2a (in-place)
I1030 11:14:16.050673 26474 net.cpp:150] Setting up bn3b2_branch2a
I1030 11:14:16.050679 26474 net.cpp:157] Top shape: 1 128 75 125 (1200000)
I1030 11:14:16.050684 26474 net.cpp:165] Memory required for data: 1768800084
I1030 11:14:16.050693 26474 layer_factory.hpp:77] Creating layer scale3b2_branch2a
I1030 11:14:16.050698 26474 net.cpp:100] Creating Layer scale3b2_branch2a
I1030 11:14:16.050703 26474 net.cpp:444] scale3b2_branch2a <- res3b2_branch2a
I1030 11:14:16.050707 26474 net.cpp:405] scale3b2_branch2a -> res3b2_branch2a (in-place)
I1030 11:14:16.050732 26474 layer_factory.hpp:77] Creating layer scale3b2_branch2a
I1030 11:14:16.050802 26474 net.cpp:150] Setting up scale3b2_branch2a
I1030 11:14:16.050808 26474 net.cpp:157] Top shape: 1 128 75 125 (1200000)
I1030 11:14:16.050813 26474 net.cpp:165] Memory required for data: 1773600084
I1030 11:14:16.050820 26474 layer_factory.hpp:77] Creating layer res3b2_branch2a_relu
I1030 11:14:16.050827 26474 net.cpp:100] Creating Layer res3b2_branch2a_relu
I1030 11:14:16.050830 26474 net.cpp:444] res3b2_branch2a_relu <- res3b2_branch2a
I1030 11:14:16.050837 26474 net.cpp:405] res3b2_branch2a_relu -> res3b2_branch2a (in-place)
I1030 11:14:16.050843 26474 net.cpp:150] Setting up res3b2_branch2a_relu
I1030 11:14:16.050848 26474 net.cpp:157] Top shape: 1 128 75 125 (1200000)
I1030 11:14:16.050851 26474 net.cpp:165] Memory required for data: 1778400084
I1030 11:14:16.050856 26474 layer_factory.hpp:77] Creating layer res3b2_branch2b
I1030 11:14:16.050863 26474 net.cpp:100] Creating Layer res3b2_branch2b
I1030 11:14:16.050868 26474 net.cpp:444] res3b2_branch2b <- res3b2_branch2a
I1030 11:14:16.050873 26474 net.cpp:418] res3b2_branch2b -> res3b2_branch2b
I1030 11:14:16.051295 26474 net.cpp:150] Setting up res3b2_branch2b
I1030 11:14:16.051304 26474 net.cpp:157] Top shape: 1 128 75 125 (1200000)
I1030 11:14:16.051308 26474 net.cpp:165] Memory required for data: 1783200084
I1030 11:14:16.051313 26474 layer_factory.hpp:77] Creating layer bn3b2_branch2b
I1030 11:14:16.051321 26474 net.cpp:100] Creating Layer bn3b2_branch2b
I1030 11:14:16.051326 26474 net.cpp:444] bn3b2_branch2b <- res3b2_branch2b
I1030 11:14:16.051331 26474 net.cpp:405] bn3b2_branch2b -> res3b2_branch2b (in-place)
I1030 11:14:16.051439 26474 net.cpp:150] Setting up bn3b2_branch2b
I1030 11:14:16.051445 26474 net.cpp:157] Top shape: 1 128 75 125 (1200000)
I1030 11:14:16.051448 26474 net.cpp:165] Memory required for data: 1788000084
I1030 11:14:16.051456 26474 layer_factory.hpp:77] Creating layer scale3b2_branch2b
I1030 11:14:16.051463 26474 net.cpp:100] Creating Layer scale3b2_branch2b
I1030 11:14:16.051467 26474 net.cpp:444] scale3b2_branch2b <- res3b2_branch2b
I1030 11:14:16.051475 26474 net.cpp:405] scale3b2_branch2b -> res3b2_branch2b (in-place)
I1030 11:14:16.051501 26474 layer_factory.hpp:77] Creating layer scale3b2_branch2b
I1030 11:14:16.051583 26474 net.cpp:150] Setting up scale3b2_branch2b
I1030 11:14:16.051589 26474 net.cpp:157] Top shape: 1 128 75 125 (1200000)
I1030 11:14:16.051594 26474 net.cpp:165] Memory required for data: 1792800084
I1030 11:14:16.051602 26474 layer_factory.hpp:77] Creating layer res3b2_branch2b_relu
I1030 11:14:16.051609 26474 net.cpp:100] Creating Layer res3b2_branch2b_relu
I1030 11:14:16.051614 26474 net.cpp:444] res3b2_branch2b_relu <- res3b2_branch2b
I1030 11:14:16.051620 26474 net.cpp:405] res3b2_branch2b_relu -> res3b2_branch2b (in-place)
I1030 11:14:16.051626 26474 net.cpp:150] Setting up res3b2_branch2b_relu
I1030 11:14:16.051631 26474 net.cpp:157] Top shape: 1 128 75 125 (1200000)
I1030 11:14:16.051636 26474 net.cpp:165] Memory required for data: 1797600084
I1030 11:14:16.051641 26474 layer_factory.hpp:77] Creating layer res3b2_branch2c
I1030 11:14:16.051650 26474 net.cpp:100] Creating Layer res3b2_branch2c
I1030 11:14:16.051653 26474 net.cpp:444] res3b2_branch2c <- res3b2_branch2b
I1030 11:14:16.051661 26474 net.cpp:418] res3b2_branch2c -> res3b2_branch2c
I1030 11:14:16.052108 26474 net.cpp:150] Setting up res3b2_branch2c
I1030 11:14:16.052117 26474 net.cpp:157] Top shape: 1 512 75 125 (4800000)
I1030 11:14:16.052121 26474 net.cpp:165] Memory required for data: 1816800084
I1030 11:14:16.052127 26474 layer_factory.hpp:77] Creating layer bn3b2_branch2c
I1030 11:14:16.052135 26474 net.cpp:100] Creating Layer bn3b2_branch2c
I1030 11:14:16.052139 26474 net.cpp:444] bn3b2_branch2c <- res3b2_branch2c
I1030 11:14:16.052146 26474 net.cpp:405] bn3b2_branch2c -> res3b2_branch2c (in-place)
I1030 11:14:16.052260 26474 net.cpp:150] Setting up bn3b2_branch2c
I1030 11:14:16.052268 26474 net.cpp:157] Top shape: 1 512 75 125 (4800000)
I1030 11:14:16.052271 26474 net.cpp:165] Memory required for data: 1836000084
I1030 11:14:16.052280 26474 layer_factory.hpp:77] Creating layer scale3b2_branch2c
I1030 11:14:16.052286 26474 net.cpp:100] Creating Layer scale3b2_branch2c
I1030 11:14:16.052290 26474 net.cpp:444] scale3b2_branch2c <- res3b2_branch2c
I1030 11:14:16.052295 26474 net.cpp:405] scale3b2_branch2c -> res3b2_branch2c (in-place)
I1030 11:14:16.052320 26474 layer_factory.hpp:77] Creating layer scale3b2_branch2c
I1030 11:14:16.052400 26474 net.cpp:150] Setting up scale3b2_branch2c
I1030 11:14:16.052407 26474 net.cpp:157] Top shape: 1 512 75 125 (4800000)
I1030 11:14:16.052412 26474 net.cpp:165] Memory required for data: 1855200084
I1030 11:14:16.052419 26474 layer_factory.hpp:77] Creating layer res3b2
I1030 11:14:16.052425 26474 net.cpp:100] Creating Layer res3b2
I1030 11:14:16.052430 26474 net.cpp:444] res3b2 <- res3b1_res3b1_relu_0_split_1
I1030 11:14:16.052435 26474 net.cpp:444] res3b2 <- res3b2_branch2c
I1030 11:14:16.052441 26474 net.cpp:418] res3b2 -> res3b2
I1030 11:14:16.052460 26474 net.cpp:150] Setting up res3b2
I1030 11:14:16.052466 26474 net.cpp:157] Top shape: 1 512 75 125 (4800000)
I1030 11:14:16.052480 26474 net.cpp:165] Memory required for data: 1874400084
I1030 11:14:16.052484 26474 layer_factory.hpp:77] Creating layer res3b2_relu
I1030 11:14:16.052491 26474 net.cpp:100] Creating Layer res3b2_relu
I1030 11:14:16.052495 26474 net.cpp:444] res3b2_relu <- res3b2
I1030 11:14:16.052500 26474 net.cpp:405] res3b2_relu -> res3b2 (in-place)
I1030 11:14:16.052506 26474 net.cpp:150] Setting up res3b2_relu
I1030 11:14:16.052512 26474 net.cpp:157] Top shape: 1 512 75 125 (4800000)
I1030 11:14:16.052516 26474 net.cpp:165] Memory required for data: 1893600084
I1030 11:14:16.052520 26474 layer_factory.hpp:77] Creating layer res3b2_res3b2_relu_0_split
I1030 11:14:16.052526 26474 net.cpp:100] Creating Layer res3b2_res3b2_relu_0_split
I1030 11:14:16.052531 26474 net.cpp:444] res3b2_res3b2_relu_0_split <- res3b2
I1030 11:14:16.052536 26474 net.cpp:418] res3b2_res3b2_relu_0_split -> res3b2_res3b2_relu_0_split_0
I1030 11:14:16.052551 26474 net.cpp:418] res3b2_res3b2_relu_0_split -> res3b2_res3b2_relu_0_split_1
I1030 11:14:16.052575 26474 net.cpp:150] Setting up res3b2_res3b2_relu_0_split
I1030 11:14:16.052582 26474 net.cpp:157] Top shape: 1 512 75 125 (4800000)
I1030 11:14:16.052587 26474 net.cpp:157] Top shape: 1 512 75 125 (4800000)
I1030 11:14:16.052590 26474 net.cpp:165] Memory required for data: 1932000084
I1030 11:14:16.052594 26474 layer_factory.hpp:77] Creating layer res3b3_branch2a
I1030 11:14:16.052601 26474 net.cpp:100] Creating Layer res3b3_branch2a
I1030 11:14:16.052606 26474 net.cpp:444] res3b3_branch2a <- res3b2_res3b2_relu_0_split_0
I1030 11:14:16.052611 26474 net.cpp:418] res3b3_branch2a -> res3b3_branch2a
I1030 11:14:16.052742 26474 net.cpp:150] Setting up res3b3_branch2a
I1030 11:14:16.052748 26474 net.cpp:157] Top shape: 1 128 75 125 (1200000)
I1030 11:14:16.052752 26474 net.cpp:165] Memory required for data: 1936800084
I1030 11:14:16.052757 26474 layer_factory.hpp:77] Creating layer bn3b3_branch2a
I1030 11:14:16.052764 26474 net.cpp:100] Creating Layer bn3b3_branch2a
I1030 11:14:16.052768 26474 net.cpp:444] bn3b3_branch2a <- res3b3_branch2a
I1030 11:14:16.052775 26474 net.cpp:405] bn3b3_branch2a -> res3b3_branch2a (in-place)
I1030 11:14:16.052884 26474 net.cpp:150] Setting up bn3b3_branch2a
I1030 11:14:16.052891 26474 net.cpp:157] Top shape: 1 128 75 125 (1200000)
I1030 11:14:16.052894 26474 net.cpp:165] Memory required for data: 1941600084
I1030 11:14:16.052907 26474 layer_factory.hpp:77] Creating layer scale3b3_branch2a
I1030 11:14:16.052913 26474 net.cpp:100] Creating Layer scale3b3_branch2a
I1030 11:14:16.052918 26474 net.cpp:444] scale3b3_branch2a <- res3b3_branch2a
I1030 11:14:16.052923 26474 net.cpp:405] scale3b3_branch2a -> res3b3_branch2a (in-place)
I1030 11:14:16.052949 26474 layer_factory.hpp:77] Creating layer scale3b3_branch2a
I1030 11:14:16.053035 26474 net.cpp:150] Setting up scale3b3_branch2a
I1030 11:14:16.053041 26474 net.cpp:157] Top shape: 1 128 75 125 (1200000)
I1030 11:14:16.053047 26474 net.cpp:165] Memory required for data: 1946400084
I1030 11:14:16.053056 26474 layer_factory.hpp:77] Creating layer res3b3_branch2a_relu
I1030 11:14:16.053061 26474 net.cpp:100] Creating Layer res3b3_branch2a_relu
I1030 11:14:16.053066 26474 net.cpp:444] res3b3_branch2a_relu <- res3b3_branch2a
I1030 11:14:16.053073 26474 net.cpp:405] res3b3_branch2a_relu -> res3b3_branch2a (in-place)
I1030 11:14:16.053081 26474 net.cpp:150] Setting up res3b3_branch2a_relu
I1030 11:14:16.053086 26474 net.cpp:157] Top shape: 1 128 75 125 (1200000)
I1030 11:14:16.053091 26474 net.cpp:165] Memory required for data: 1951200084
I1030 11:14:16.053094 26474 layer_factory.hpp:77] Creating layer res3b3_branch2b
I1030 11:14:16.053102 26474 net.cpp:100] Creating Layer res3b3_branch2b
I1030 11:14:16.053107 26474 net.cpp:444] res3b3_branch2b <- res3b3_branch2a
I1030 11:14:16.053112 26474 net.cpp:418] res3b3_branch2b -> res3b3_branch2b
I1030 11:14:16.053658 26474 net.cpp:150] Setting up res3b3_branch2b
I1030 11:14:16.053675 26474 net.cpp:157] Top shape: 1 128 75 125 (1200000)
I1030 11:14:16.053679 26474 net.cpp:165] Memory required for data: 1956000084
I1030 11:14:16.053686 26474 layer_factory.hpp:77] Creating layer bn3b3_branch2b
I1030 11:14:16.053699 26474 net.cpp:100] Creating Layer bn3b3_branch2b
I1030 11:14:16.053704 26474 net.cpp:444] bn3b3_branch2b <- res3b3_branch2b
I1030 11:14:16.053711 26474 net.cpp:405] bn3b3_branch2b -> res3b3_branch2b (in-place)
I1030 11:14:16.053844 26474 net.cpp:150] Setting up bn3b3_branch2b
I1030 11:14:16.053851 26474 net.cpp:157] Top shape: 1 128 75 125 (1200000)
I1030 11:14:16.053856 26474 net.cpp:165] Memory required for data: 1960800084
I1030 11:14:16.053864 26474 layer_factory.hpp:77] Creating layer scale3b3_branch2b
I1030 11:14:16.053880 26474 net.cpp:100] Creating Layer scale3b3_branch2b
I1030 11:14:16.053885 26474 net.cpp:444] scale3b3_branch2b <- res3b3_branch2b
I1030 11:14:16.053891 26474 net.cpp:405] scale3b3_branch2b -> res3b3_branch2b (in-place)
I1030 11:14:16.053920 26474 layer_factory.hpp:77] Creating layer scale3b3_branch2b
I1030 11:14:16.054023 26474 net.cpp:150] Setting up scale3b3_branch2b
I1030 11:14:16.054030 26474 net.cpp:157] Top shape: 1 128 75 125 (1200000)
I1030 11:14:16.054034 26474 net.cpp:165] Memory required for data: 1965600084
I1030 11:14:16.054042 26474 layer_factory.hpp:77] Creating layer res3b3_branch2b_relu
I1030 11:14:16.054049 26474 net.cpp:100] Creating Layer res3b3_branch2b_relu
I1030 11:14:16.054052 26474 net.cpp:444] res3b3_branch2b_relu <- res3b3_branch2b
I1030 11:14:16.054059 26474 net.cpp:405] res3b3_branch2b_relu -> res3b3_branch2b (in-place)
I1030 11:14:16.054065 26474 net.cpp:150] Setting up res3b3_branch2b_relu
I1030 11:14:16.054070 26474 net.cpp:157] Top shape: 1 128 75 125 (1200000)
I1030 11:14:16.054075 26474 net.cpp:165] Memory required for data: 1970400084
I1030 11:14:16.054078 26474 layer_factory.hpp:77] Creating layer res3b3_branch2c
I1030 11:14:16.054086 26474 net.cpp:100] Creating Layer res3b3_branch2c
I1030 11:14:16.054090 26474 net.cpp:444] res3b3_branch2c <- res3b3_branch2b
I1030 11:14:16.054095 26474 net.cpp:418] res3b3_branch2c -> res3b3_branch2c
I1030 11:14:16.054242 26474 net.cpp:150] Setting up res3b3_branch2c
I1030 11:14:16.054250 26474 net.cpp:157] Top shape: 1 512 75 125 (4800000)
I1030 11:14:16.054252 26474 net.cpp:165] Memory required for data: 1989600084
I1030 11:14:16.054258 26474 layer_factory.hpp:77] Creating layer bn3b3_branch2c
I1030 11:14:16.054265 26474 net.cpp:100] Creating Layer bn3b3_branch2c
I1030 11:14:16.054270 26474 net.cpp:444] bn3b3_branch2c <- res3b3_branch2c
I1030 11:14:16.054275 26474 net.cpp:405] bn3b3_branch2c -> res3b3_branch2c (in-place)
I1030 11:14:16.054401 26474 net.cpp:150] Setting up bn3b3_branch2c
I1030 11:14:16.054407 26474 net.cpp:157] Top shape: 1 512 75 125 (4800000)
I1030 11:14:16.054412 26474 net.cpp:165] Memory required for data: 2008800084
I1030 11:14:16.054421 26474 layer_factory.hpp:77] Creating layer scale3b3_branch2c
I1030 11:14:16.054427 26474 net.cpp:100] Creating Layer scale3b3_branch2c
I1030 11:14:16.054431 26474 net.cpp:444] scale3b3_branch2c <- res3b3_branch2c
I1030 11:14:16.054438 26474 net.cpp:405] scale3b3_branch2c -> res3b3_branch2c (in-place)
I1030 11:14:16.054462 26474 layer_factory.hpp:77] Creating layer scale3b3_branch2c
I1030 11:14:16.054550 26474 net.cpp:150] Setting up scale3b3_branch2c
I1030 11:14:16.054556 26474 net.cpp:157] Top shape: 1 512 75 125 (4800000)
I1030 11:14:16.054561 26474 net.cpp:165] Memory required for data: 2028000084
I1030 11:14:16.054569 26474 layer_factory.hpp:77] Creating layer res3b3
I1030 11:14:16.054576 26474 net.cpp:100] Creating Layer res3b3
I1030 11:14:16.054581 26474 net.cpp:444] res3b3 <- res3b2_res3b2_relu_0_split_1
I1030 11:14:16.054586 26474 net.cpp:444] res3b3 <- res3b3_branch2c
I1030 11:14:16.054592 26474 net.cpp:418] res3b3 -> res3b3
I1030 11:14:16.054611 26474 net.cpp:150] Setting up res3b3
I1030 11:14:16.054616 26474 net.cpp:157] Top shape: 1 512 75 125 (4800000)
I1030 11:14:16.054621 26474 net.cpp:165] Memory required for data: 2047200084
I1030 11:14:16.054626 26474 layer_factory.hpp:77] Creating layer res3b3_relu
I1030 11:14:16.054635 26474 net.cpp:100] Creating Layer res3b3_relu
I1030 11:14:16.054638 26474 net.cpp:444] res3b3_relu <- res3b3
I1030 11:14:16.054646 26474 net.cpp:405] res3b3_relu -> res3b3 (in-place)
I1030 11:14:16.054653 26474 net.cpp:150] Setting up res3b3_relu
I1030 11:14:16.054659 26474 net.cpp:157] Top shape: 1 512 75 125 (4800000)
I1030 11:14:16.054664 26474 net.cpp:165] Memory required for data: 2066400084
I1030 11:14:16.054669 26474 layer_factory.hpp:77] Creating layer res3b3_res3b3_relu_0_split
I1030 11:14:16.054678 26474 net.cpp:100] Creating Layer res3b3_res3b3_relu_0_split
I1030 11:14:16.054682 26474 net.cpp:444] res3b3_res3b3_relu_0_split <- res3b3
I1030 11:14:16.054688 26474 net.cpp:418] res3b3_res3b3_relu_0_split -> res3b3_res3b3_relu_0_split_0
I1030 11:14:16.054695 26474 net.cpp:418] res3b3_res3b3_relu_0_split -> res3b3_res3b3_relu_0_split_1
I1030 11:14:16.054723 26474 net.cpp:150] Setting up res3b3_res3b3_relu_0_split
I1030 11:14:16.054731 26474 net.cpp:157] Top shape: 1 512 75 125 (4800000)
I1030 11:14:16.054738 26474 net.cpp:157] Top shape: 1 512 75 125 (4800000)
I1030 11:14:16.054744 26474 net.cpp:165] Memory required for data: 2104800084
I1030 11:14:16.054747 26474 layer_factory.hpp:77] Creating layer res4a_branch1
I1030 11:14:16.054759 26474 net.cpp:100] Creating Layer res4a_branch1
I1030 11:14:16.054762 26474 net.cpp:444] res4a_branch1 <- res3b3_res3b3_relu_0_split_0
I1030 11:14:16.054770 26474 net.cpp:418] res4a_branch1 -> res4a_branch1
I1030 11:14:16.055884 26474 net.cpp:150] Setting up res4a_branch1
I1030 11:14:16.055901 26474 net.cpp:157] Top shape: 1 1024 38 63 (2451456)
I1030 11:14:16.055904 26474 net.cpp:165] Memory required for data: 2114605908
I1030 11:14:16.055912 26474 layer_factory.hpp:77] Creating layer bn4a_branch1
I1030 11:14:16.055922 26474 net.cpp:100] Creating Layer bn4a_branch1
I1030 11:14:16.055925 26474 net.cpp:444] bn4a_branch1 <- res4a_branch1
I1030 11:14:16.055933 26474 net.cpp:405] bn4a_branch1 -> res4a_branch1 (in-place)
I1030 11:14:16.056071 26474 net.cpp:150] Setting up bn4a_branch1
I1030 11:14:16.056080 26474 net.cpp:157] Top shape: 1 1024 38 63 (2451456)
I1030 11:14:16.056084 26474 net.cpp:165] Memory required for data: 2124411732
I1030 11:14:16.056094 26474 layer_factory.hpp:77] Creating layer scale4a_branch1
I1030 11:14:16.056107 26474 net.cpp:100] Creating Layer scale4a_branch1
I1030 11:14:16.056113 26474 net.cpp:444] scale4a_branch1 <- res4a_branch1
I1030 11:14:16.056120 26474 net.cpp:405] scale4a_branch1 -> res4a_branch1 (in-place)
I1030 11:14:16.056162 26474 layer_factory.hpp:77] Creating layer scale4a_branch1
I1030 11:14:16.056270 26474 net.cpp:150] Setting up scale4a_branch1
I1030 11:14:16.056279 26474 net.cpp:157] Top shape: 1 1024 38 63 (2451456)
I1030 11:14:16.056283 26474 net.cpp:165] Memory required for data: 2134217556
I1030 11:14:16.056291 26474 layer_factory.hpp:77] Creating layer res4a_branch2a
I1030 11:14:16.056306 26474 net.cpp:100] Creating Layer res4a_branch2a
I1030 11:14:16.056313 26474 net.cpp:444] res4a_branch2a <- res3b3_res3b3_relu_0_split_1
I1030 11:14:16.056324 26474 net.cpp:418] res4a_branch2a -> res4a_branch2a
I1030 11:14:16.056627 26474 net.cpp:150] Setting up res4a_branch2a
I1030 11:14:16.056638 26474 net.cpp:157] Top shape: 1 256 38 63 (612864)
I1030 11:14:16.056641 26474 net.cpp:165] Memory required for data: 2136669012
I1030 11:14:16.056649 26474 layer_factory.hpp:77] Creating layer bn4a_branch2a
I1030 11:14:16.056659 26474 net.cpp:100] Creating Layer bn4a_branch2a
I1030 11:14:16.056664 26474 net.cpp:444] bn4a_branch2a <- res4a_branch2a
I1030 11:14:16.056673 26474 net.cpp:405] bn4a_branch2a -> res4a_branch2a (in-place)
I1030 11:14:16.056803 26474 net.cpp:150] Setting up bn4a_branch2a
I1030 11:14:16.056812 26474 net.cpp:157] Top shape: 1 256 38 63 (612864)
I1030 11:14:16.056815 26474 net.cpp:165] Memory required for data: 2139120468
I1030 11:14:16.056826 26474 layer_factory.hpp:77] Creating layer scale4a_branch2a
I1030 11:14:16.056838 26474 net.cpp:100] Creating Layer scale4a_branch2a
I1030 11:14:16.056843 26474 net.cpp:444] scale4a_branch2a <- res4a_branch2a
I1030 11:14:16.056849 26474 net.cpp:405] scale4a_branch2a -> res4a_branch2a (in-place)
I1030 11:14:16.056880 26474 layer_factory.hpp:77] Creating layer scale4a_branch2a
I1030 11:14:16.056977 26474 net.cpp:150] Setting up scale4a_branch2a
I1030 11:14:16.056985 26474 net.cpp:157] Top shape: 1 256 38 63 (612864)
I1030 11:14:16.056990 26474 net.cpp:165] Memory required for data: 2141571924
I1030 11:14:16.056999 26474 layer_factory.hpp:77] Creating layer res4a_branch2a_relu
I1030 11:14:16.057010 26474 net.cpp:100] Creating Layer res4a_branch2a_relu
I1030 11:14:16.057015 26474 net.cpp:444] res4a_branch2a_relu <- res4a_branch2a
I1030 11:14:16.057021 26474 net.cpp:405] res4a_branch2a_relu -> res4a_branch2a (in-place)
I1030 11:14:16.057029 26474 net.cpp:150] Setting up res4a_branch2a_relu
I1030 11:14:16.057035 26474 net.cpp:157] Top shape: 1 256 38 63 (612864)
I1030 11:14:16.057040 26474 net.cpp:165] Memory required for data: 2144023380
I1030 11:14:16.057045 26474 layer_factory.hpp:77] Creating layer res4a_branch2b
I1030 11:14:16.057057 26474 net.cpp:100] Creating Layer res4a_branch2b
I1030 11:14:16.057063 26474 net.cpp:444] res4a_branch2b <- res4a_branch2a
I1030 11:14:16.057070 26474 net.cpp:418] res4a_branch2b -> res4a_branch2b
I1030 11:14:16.058163 26474 net.cpp:150] Setting up res4a_branch2b
I1030 11:14:16.058176 26474 net.cpp:157] Top shape: 1 256 38 63 (612864)
I1030 11:14:16.058178 26474 net.cpp:165] Memory required for data: 2146474836
I1030 11:14:16.058184 26474 layer_factory.hpp:77] Creating layer bn4a_branch2b
I1030 11:14:16.058193 26474 net.cpp:100] Creating Layer bn4a_branch2b
I1030 11:14:16.058197 26474 net.cpp:444] bn4a_branch2b <- res4a_branch2b
I1030 11:14:16.058204 26474 net.cpp:405] bn4a_branch2b -> res4a_branch2b (in-place)
I1030 11:14:16.058313 26474 net.cpp:150] Setting up bn4a_branch2b
I1030 11:14:16.058320 26474 net.cpp:157] Top shape: 1 256 38 63 (612864)
I1030 11:14:16.058325 26474 net.cpp:165] Memory required for data: 2148926292
I1030 11:14:16.058333 26474 layer_factory.hpp:77] Creating layer scale4a_branch2b
I1030 11:14:16.058341 26474 net.cpp:100] Creating Layer scale4a_branch2b
I1030 11:14:16.058344 26474 net.cpp:444] scale4a_branch2b <- res4a_branch2b
I1030 11:14:16.058351 26474 net.cpp:405] scale4a_branch2b -> res4a_branch2b (in-place)
I1030 11:14:16.058377 26474 layer_factory.hpp:77] Creating layer scale4a_branch2b
I1030 11:14:16.058465 26474 net.cpp:150] Setting up scale4a_branch2b
I1030 11:14:16.058471 26474 net.cpp:157] Top shape: 1 256 38 63 (612864)
I1030 11:14:16.058475 26474 net.cpp:165] Memory required for data: 2151377748
I1030 11:14:16.058483 26474 layer_factory.hpp:77] Creating layer res4a_branch2b_relu
I1030 11:14:16.058490 26474 net.cpp:100] Creating Layer res4a_branch2b_relu
I1030 11:14:16.058493 26474 net.cpp:444] res4a_branch2b_relu <- res4a_branch2b
I1030 11:14:16.058500 26474 net.cpp:405] res4a_branch2b_relu -> res4a_branch2b (in-place)
I1030 11:14:16.058506 26474 net.cpp:150] Setting up res4a_branch2b_relu
I1030 11:14:16.058511 26474 net.cpp:157] Top shape: 1 256 38 63 (612864)
I1030 11:14:16.058514 26474 net.cpp:165] Memory required for data: 2153829204
I1030 11:14:16.058519 26474 layer_factory.hpp:77] Creating layer res4a_branch2c
I1030 11:14:16.058527 26474 net.cpp:100] Creating Layer res4a_branch2c
I1030 11:14:16.058531 26474 net.cpp:444] res4a_branch2c <- res4a_branch2b
I1030 11:14:16.058537 26474 net.cpp:418] res4a_branch2c -> res4a_branch2c
I1030 11:14:16.058997 26474 net.cpp:150] Setting up res4a_branch2c
I1030 11:14:16.059007 26474 net.cpp:157] Top shape: 1 1024 38 63 (2451456)
I1030 11:14:16.059010 26474 net.cpp:165] Memory required for data: 2163635028
I1030 11:14:16.059016 26474 layer_factory.hpp:77] Creating layer bn4a_branch2c
I1030 11:14:16.059023 26474 net.cpp:100] Creating Layer bn4a_branch2c
I1030 11:14:16.059028 26474 net.cpp:444] bn4a_branch2c <- res4a_branch2c
I1030 11:14:16.059034 26474 net.cpp:405] bn4a_branch2c -> res4a_branch2c (in-place)
I1030 11:14:16.059145 26474 net.cpp:150] Setting up bn4a_branch2c
I1030 11:14:16.059151 26474 net.cpp:157] Top shape: 1 1024 38 63 (2451456)
I1030 11:14:16.059156 26474 net.cpp:165] Memory required for data: 2173440852
I1030 11:14:16.059165 26474 layer_factory.hpp:77] Creating layer scale4a_branch2c
I1030 11:14:16.059172 26474 net.cpp:100] Creating Layer scale4a_branch2c
I1030 11:14:16.059176 26474 net.cpp:444] scale4a_branch2c <- res4a_branch2c
I1030 11:14:16.059182 26474 net.cpp:405] scale4a_branch2c -> res4a_branch2c (in-place)
I1030 11:14:16.059208 26474 layer_factory.hpp:77] Creating layer scale4a_branch2c
I1030 11:14:16.059278 26474 net.cpp:150] Setting up scale4a_branch2c
I1030 11:14:16.059285 26474 net.cpp:157] Top shape: 1 1024 38 63 (2451456)
I1030 11:14:16.059288 26474 net.cpp:165] Memory required for data: 2183246676
I1030 11:14:16.059294 26474 layer_factory.hpp:77] Creating layer res4a
I1030 11:14:16.059303 26474 net.cpp:100] Creating Layer res4a
I1030 11:14:16.059308 26474 net.cpp:444] res4a <- res4a_branch1
I1030 11:14:16.059314 26474 net.cpp:444] res4a <- res4a_branch2c
I1030 11:14:16.059319 26474 net.cpp:418] res4a -> res4a
I1030 11:14:16.059337 26474 net.cpp:150] Setting up res4a
I1030 11:14:16.059342 26474 net.cpp:157] Top shape: 1 1024 38 63 (2451456)
I1030 11:14:16.059347 26474 net.cpp:165] Memory required for data: 2193052500
I1030 11:14:16.059352 26474 layer_factory.hpp:77] Creating layer res4a_relu
I1030 11:14:16.059357 26474 net.cpp:100] Creating Layer res4a_relu
I1030 11:14:16.059362 26474 net.cpp:444] res4a_relu <- res4a
I1030 11:14:16.059368 26474 net.cpp:405] res4a_relu -> res4a (in-place)
I1030 11:14:16.059375 26474 net.cpp:150] Setting up res4a_relu
I1030 11:14:16.059379 26474 net.cpp:157] Top shape: 1 1024 38 63 (2451456)
I1030 11:14:16.059383 26474 net.cpp:165] Memory required for data: 2202858324
I1030 11:14:16.059387 26474 layer_factory.hpp:77] Creating layer res4a_res4a_relu_0_split
I1030 11:14:16.059393 26474 net.cpp:100] Creating Layer res4a_res4a_relu_0_split
I1030 11:14:16.059397 26474 net.cpp:444] res4a_res4a_relu_0_split <- res4a
I1030 11:14:16.059402 26474 net.cpp:418] res4a_res4a_relu_0_split -> res4a_res4a_relu_0_split_0
I1030 11:14:16.059409 26474 net.cpp:418] res4a_res4a_relu_0_split -> res4a_res4a_relu_0_split_1
I1030 11:14:16.059432 26474 net.cpp:150] Setting up res4a_res4a_relu_0_split
I1030 11:14:16.059437 26474 net.cpp:157] Top shape: 1 1024 38 63 (2451456)
I1030 11:14:16.059443 26474 net.cpp:157] Top shape: 1 1024 38 63 (2451456)
I1030 11:14:16.059448 26474 net.cpp:165] Memory required for data: 2222469972
I1030 11:14:16.059451 26474 layer_factory.hpp:77] Creating layer res4b1_branch2a
I1030 11:14:16.059459 26474 net.cpp:100] Creating Layer res4b1_branch2a
I1030 11:14:16.059463 26474 net.cpp:444] res4b1_branch2a <- res4a_res4a_relu_0_split_0
I1030 11:14:16.059469 26474 net.cpp:418] res4b1_branch2a -> res4b1_branch2a
I1030 11:14:16.059927 26474 net.cpp:150] Setting up res4b1_branch2a
I1030 11:14:16.059937 26474 net.cpp:157] Top shape: 1 256 38 63 (612864)
I1030 11:14:16.059940 26474 net.cpp:165] Memory required for data: 2224921428
I1030 11:14:16.059947 26474 layer_factory.hpp:77] Creating layer bn4b1_branch2a
I1030 11:14:16.059955 26474 net.cpp:100] Creating Layer bn4b1_branch2a
I1030 11:14:16.059959 26474 net.cpp:444] bn4b1_branch2a <- res4b1_branch2a
I1030 11:14:16.059965 26474 net.cpp:405] bn4b1_branch2a -> res4b1_branch2a (in-place)
I1030 11:14:16.060075 26474 net.cpp:150] Setting up bn4b1_branch2a
I1030 11:14:16.060081 26474 net.cpp:157] Top shape: 1 256 38 63 (612864)
I1030 11:14:16.060086 26474 net.cpp:165] Memory required for data: 2227372884
I1030 11:14:16.060093 26474 layer_factory.hpp:77] Creating layer scale4b1_branch2a
I1030 11:14:16.060099 26474 net.cpp:100] Creating Layer scale4b1_branch2a
I1030 11:14:16.060104 26474 net.cpp:444] scale4b1_branch2a <- res4b1_branch2a
I1030 11:14:16.060111 26474 net.cpp:405] scale4b1_branch2a -> res4b1_branch2a (in-place)
I1030 11:14:16.060137 26474 layer_factory.hpp:77] Creating layer scale4b1_branch2a
I1030 11:14:16.060204 26474 net.cpp:150] Setting up scale4b1_branch2a
I1030 11:14:16.060209 26474 net.cpp:157] Top shape: 1 256 38 63 (612864)
I1030 11:14:16.060214 26474 net.cpp:165] Memory required for data: 2229824340
I1030 11:14:16.060221 26474 layer_factory.hpp:77] Creating layer res4b1_branch2a_relu
I1030 11:14:16.060227 26474 net.cpp:100] Creating Layer res4b1_branch2a_relu
I1030 11:14:16.060231 26474 net.cpp:444] res4b1_branch2a_relu <- res4b1_branch2a
I1030 11:14:16.060235 26474 net.cpp:405] res4b1_branch2a_relu -> res4b1_branch2a (in-place)
I1030 11:14:16.060242 26474 net.cpp:150] Setting up res4b1_branch2a_relu
I1030 11:14:16.060247 26474 net.cpp:157] Top shape: 1 256 38 63 (612864)
I1030 11:14:16.060251 26474 net.cpp:165] Memory required for data: 2232275796
I1030 11:14:16.060256 26474 layer_factory.hpp:77] Creating layer res4b1_branch2b
I1030 11:14:16.060262 26474 net.cpp:100] Creating Layer res4b1_branch2b
I1030 11:14:16.060266 26474 net.cpp:444] res4b1_branch2b <- res4b1_branch2a
I1030 11:14:16.060271 26474 net.cpp:418] res4b1_branch2b -> res4b1_branch2b
I1030 11:14:16.061095 26474 net.cpp:150] Setting up res4b1_branch2b
I1030 11:14:16.061105 26474 net.cpp:157] Top shape: 1 256 38 63 (612864)
I1030 11:14:16.061110 26474 net.cpp:165] Memory required for data: 2234727252
I1030 11:14:16.061115 26474 layer_factory.hpp:77] Creating layer bn4b1_branch2b
I1030 11:14:16.061122 26474 net.cpp:100] Creating Layer bn4b1_branch2b
I1030 11:14:16.061127 26474 net.cpp:444] bn4b1_branch2b <- res4b1_branch2b
I1030 11:14:16.061133 26474 net.cpp:405] bn4b1_branch2b -> res4b1_branch2b (in-place)
I1030 11:14:16.061244 26474 net.cpp:150] Setting up bn4b1_branch2b
I1030 11:14:16.061250 26474 net.cpp:157] Top shape: 1 256 38 63 (612864)
I1030 11:14:16.061254 26474 net.cpp:165] Memory required for data: 2237178708
I1030 11:14:16.061264 26474 layer_factory.hpp:77] Creating layer scale4b1_branch2b
I1030 11:14:16.061269 26474 net.cpp:100] Creating Layer scale4b1_branch2b
I1030 11:14:16.061274 26474 net.cpp:444] scale4b1_branch2b <- res4b1_branch2b
I1030 11:14:16.061280 26474 net.cpp:405] scale4b1_branch2b -> res4b1_branch2b (in-place)
I1030 11:14:16.061305 26474 layer_factory.hpp:77] Creating layer scale4b1_branch2b
I1030 11:14:16.061374 26474 net.cpp:150] Setting up scale4b1_branch2b
I1030 11:14:16.061380 26474 net.cpp:157] Top shape: 1 256 38 63 (612864)
I1030 11:14:16.061385 26474 net.cpp:165] Memory required for data: 2239630164
I1030 11:14:16.061393 26474 layer_factory.hpp:77] Creating layer res4b1_branch2b_relu
I1030 11:14:16.061398 26474 net.cpp:100] Creating Layer res4b1_branch2b_relu
I1030 11:14:16.061403 26474 net.cpp:444] res4b1_branch2b_relu <- res4b1_branch2b
I1030 11:14:16.061408 26474 net.cpp:405] res4b1_branch2b_relu -> res4b1_branch2b (in-place)
I1030 11:14:16.061414 26474 net.cpp:150] Setting up res4b1_branch2b_relu
I1030 11:14:16.061419 26474 net.cpp:157] Top shape: 1 256 38 63 (612864)
I1030 11:14:16.061424 26474 net.cpp:165] Memory required for data: 2242081620
I1030 11:14:16.061429 26474 layer_factory.hpp:77] Creating layer res4b1_branch2c
I1030 11:14:16.061435 26474 net.cpp:100] Creating Layer res4b1_branch2c
I1030 11:14:16.061439 26474 net.cpp:444] res4b1_branch2c <- res4b1_branch2b
I1030 11:14:16.061445 26474 net.cpp:418] res4b1_branch2c -> res4b1_branch2c
I1030 11:14:16.061925 26474 net.cpp:150] Setting up res4b1_branch2c
I1030 11:14:16.061939 26474 net.cpp:157] Top shape: 1 1024 38 63 (2451456)
I1030 11:14:16.061944 26474 net.cpp:165] Memory required for data: 2251887444
I1030 11:14:16.061949 26474 layer_factory.hpp:77] Creating layer bn4b1_branch2c
I1030 11:14:16.061957 26474 net.cpp:100] Creating Layer bn4b1_branch2c
I1030 11:14:16.061961 26474 net.cpp:444] bn4b1_branch2c <- res4b1_branch2c
I1030 11:14:16.061969 26474 net.cpp:405] bn4b1_branch2c -> res4b1_branch2c (in-place)
I1030 11:14:16.062084 26474 net.cpp:150] Setting up bn4b1_branch2c
I1030 11:14:16.062090 26474 net.cpp:157] Top shape: 1 1024 38 63 (2451456)
I1030 11:14:16.062095 26474 net.cpp:165] Memory required for data: 2261693268
I1030 11:14:16.062104 26474 layer_factory.hpp:77] Creating layer scale4b1_branch2c
I1030 11:14:16.062110 26474 net.cpp:100] Creating Layer scale4b1_branch2c
I1030 11:14:16.062114 26474 net.cpp:444] scale4b1_branch2c <- res4b1_branch2c
I1030 11:14:16.062120 26474 net.cpp:405] scale4b1_branch2c -> res4b1_branch2c (in-place)
I1030 11:14:16.062150 26474 layer_factory.hpp:77] Creating layer scale4b1_branch2c
I1030 11:14:16.062224 26474 net.cpp:150] Setting up scale4b1_branch2c
I1030 11:14:16.062232 26474 net.cpp:157] Top shape: 1 1024 38 63 (2451456)
I1030 11:14:16.062235 26474 net.cpp:165] Memory required for data: 2271499092
I1030 11:14:16.062242 26474 layer_factory.hpp:77] Creating layer res4b1
I1030 11:14:16.062249 26474 net.cpp:100] Creating Layer res4b1
I1030 11:14:16.062253 26474 net.cpp:444] res4b1 <- res4a_res4a_relu_0_split_1
I1030 11:14:16.062258 26474 net.cpp:444] res4b1 <- res4b1_branch2c
I1030 11:14:16.062263 26474 net.cpp:418] res4b1 -> res4b1
I1030 11:14:16.062283 26474 net.cpp:150] Setting up res4b1
I1030 11:14:16.062288 26474 net.cpp:157] Top shape: 1 1024 38 63 (2451456)
I1030 11:14:16.062292 26474 net.cpp:165] Memory required for data: 2281304916
I1030 11:14:16.062296 26474 layer_factory.hpp:77] Creating layer res4b1_relu
I1030 11:14:16.062304 26474 net.cpp:100] Creating Layer res4b1_relu
I1030 11:14:16.062307 26474 net.cpp:444] res4b1_relu <- res4b1
I1030 11:14:16.062314 26474 net.cpp:405] res4b1_relu -> res4b1 (in-place)
I1030 11:14:16.062319 26474 net.cpp:150] Setting up res4b1_relu
I1030 11:14:16.062325 26474 net.cpp:157] Top shape: 1 1024 38 63 (2451456)
I1030 11:14:16.062328 26474 net.cpp:165] Memory required for data: 2291110740
I1030 11:14:16.062332 26474 layer_factory.hpp:77] Creating layer res4b1_res4b1_relu_0_split
I1030 11:14:16.062338 26474 net.cpp:100] Creating Layer res4b1_res4b1_relu_0_split
I1030 11:14:16.062342 26474 net.cpp:444] res4b1_res4b1_relu_0_split <- res4b1
I1030 11:14:16.062350 26474 net.cpp:418] res4b1_res4b1_relu_0_split -> res4b1_res4b1_relu_0_split_0
I1030 11:14:16.062355 26474 net.cpp:418] res4b1_res4b1_relu_0_split -> res4b1_res4b1_relu_0_split_1
I1030 11:14:16.062381 26474 net.cpp:150] Setting up res4b1_res4b1_relu_0_split
I1030 11:14:16.062386 26474 net.cpp:157] Top shape: 1 1024 38 63 (2451456)
I1030 11:14:16.062391 26474 net.cpp:157] Top shape: 1 1024 38 63 (2451456)
I1030 11:14:16.062396 26474 net.cpp:165] Memory required for data: 2310722388
I1030 11:14:16.062400 26474 layer_factory.hpp:77] Creating layer res4b2_branch2a
I1030 11:14:16.062407 26474 net.cpp:100] Creating Layer res4b2_branch2a
I1030 11:14:16.062412 26474 net.cpp:444] res4b2_branch2a <- res4b1_res4b1_relu_0_split_0
I1030 11:14:16.062418 26474 net.cpp:418] res4b2_branch2a -> res4b2_branch2a
I1030 11:14:16.062891 26474 net.cpp:150] Setting up res4b2_branch2a
I1030 11:14:16.062901 26474 net.cpp:157] Top shape: 1 256 38 63 (612864)
I1030 11:14:16.062904 26474 net.cpp:165] Memory required for data: 2313173844
I1030 11:14:16.062911 26474 layer_factory.hpp:77] Creating layer bn4b2_branch2a
I1030 11:14:16.062917 26474 net.cpp:100] Creating Layer bn4b2_branch2a
I1030 11:14:16.062922 26474 net.cpp:444] bn4b2_branch2a <- res4b2_branch2a
I1030 11:14:16.062928 26474 net.cpp:405] bn4b2_branch2a -> res4b2_branch2a (in-place)
I1030 11:14:16.063061 26474 net.cpp:150] Setting up bn4b2_branch2a
I1030 11:14:16.063067 26474 net.cpp:157] Top shape: 1 256 38 63 (612864)
I1030 11:14:16.063072 26474 net.cpp:165] Memory required for data: 2315625300
I1030 11:14:16.063081 26474 layer_factory.hpp:77] Creating layer scale4b2_branch2a
I1030 11:14:16.063086 26474 net.cpp:100] Creating Layer scale4b2_branch2a
I1030 11:14:16.063091 26474 net.cpp:444] scale4b2_branch2a <- res4b2_branch2a
I1030 11:14:16.063096 26474 net.cpp:405] scale4b2_branch2a -> res4b2_branch2a (in-place)
I1030 11:14:16.063122 26474 layer_factory.hpp:77] Creating layer scale4b2_branch2a
I1030 11:14:16.063192 26474 net.cpp:150] Setting up scale4b2_branch2a
I1030 11:14:16.063199 26474 net.cpp:157] Top shape: 1 256 38 63 (612864)
I1030 11:14:16.063204 26474 net.cpp:165] Memory required for data: 2318076756
I1030 11:14:16.063210 26474 layer_factory.hpp:77] Creating layer res4b2_branch2a_relu
I1030 11:14:16.063216 26474 net.cpp:100] Creating Layer res4b2_branch2a_relu
I1030 11:14:16.063220 26474 net.cpp:444] res4b2_branch2a_relu <- res4b2_branch2a
I1030 11:14:16.063226 26474 net.cpp:405] res4b2_branch2a_relu -> res4b2_branch2a (in-place)
I1030 11:14:16.063232 26474 net.cpp:150] Setting up res4b2_branch2a_relu
I1030 11:14:16.063237 26474 net.cpp:157] Top shape: 1 256 38 63 (612864)
I1030 11:14:16.063241 26474 net.cpp:165] Memory required for data: 2320528212
I1030 11:14:16.063246 26474 layer_factory.hpp:77] Creating layer res4b2_branch2b
I1030 11:14:16.063253 26474 net.cpp:100] Creating Layer res4b2_branch2b
I1030 11:14:16.063257 26474 net.cpp:444] res4b2_branch2b <- res4b2_branch2a
I1030 11:14:16.063262 26474 net.cpp:418] res4b2_branch2b -> res4b2_branch2b
I1030 11:14:16.064106 26474 net.cpp:150] Setting up res4b2_branch2b
I1030 11:14:16.064121 26474 net.cpp:157] Top shape: 1 256 38 63 (612864)
I1030 11:14:16.064123 26474 net.cpp:165] Memory required for data: 2322979668
I1030 11:14:16.064131 26474 layer_factory.hpp:77] Creating layer bn4b2_branch2b
I1030 11:14:16.064139 26474 net.cpp:100] Creating Layer bn4b2_branch2b
I1030 11:14:16.064152 26474 net.cpp:444] bn4b2_branch2b <- res4b2_branch2b
I1030 11:14:16.064160 26474 net.cpp:405] bn4b2_branch2b -> res4b2_branch2b (in-place)
I1030 11:14:16.064285 26474 net.cpp:150] Setting up bn4b2_branch2b
I1030 11:14:16.064292 26474 net.cpp:157] Top shape: 1 256 38 63 (612864)
I1030 11:14:16.064297 26474 net.cpp:165] Memory required for data: 2325431124
I1030 11:14:16.064306 26474 layer_factory.hpp:77] Creating layer scale4b2_branch2b
I1030 11:14:16.064314 26474 net.cpp:100] Creating Layer scale4b2_branch2b
I1030 11:14:16.064318 26474 net.cpp:444] scale4b2_branch2b <- res4b2_branch2b
I1030 11:14:16.064324 26474 net.cpp:405] scale4b2_branch2b -> res4b2_branch2b (in-place)
I1030 11:14:16.064354 26474 layer_factory.hpp:77] Creating layer scale4b2_branch2b
I1030 11:14:16.064431 26474 net.cpp:150] Setting up scale4b2_branch2b
I1030 11:14:16.064438 26474 net.cpp:157] Top shape: 1 256 38 63 (612864)
I1030 11:14:16.064442 26474 net.cpp:165] Memory required for data: 2327882580
I1030 11:14:16.064450 26474 layer_factory.hpp:77] Creating layer res4b2_branch2b_relu
I1030 11:14:16.064457 26474 net.cpp:100] Creating Layer res4b2_branch2b_relu
I1030 11:14:16.064461 26474 net.cpp:444] res4b2_branch2b_relu <- res4b2_branch2b
I1030 11:14:16.064467 26474 net.cpp:405] res4b2_branch2b_relu -> res4b2_branch2b (in-place)
I1030 11:14:16.064473 26474 net.cpp:150] Setting up res4b2_branch2b_relu
I1030 11:14:16.064479 26474 net.cpp:157] Top shape: 1 256 38 63 (612864)
I1030 11:14:16.064483 26474 net.cpp:165] Memory required for data: 2330334036
I1030 11:14:16.064487 26474 layer_factory.hpp:77] Creating layer res4b2_branch2c
I1030 11:14:16.064496 26474 net.cpp:100] Creating Layer res4b2_branch2c
I1030 11:14:16.064501 26474 net.cpp:444] res4b2_branch2c <- res4b2_branch2b
I1030 11:14:16.064505 26474 net.cpp:418] res4b2_branch2c -> res4b2_branch2c
I1030 11:14:16.065027 26474 net.cpp:150] Setting up res4b2_branch2c
I1030 11:14:16.065037 26474 net.cpp:157] Top shape: 1 1024 38 63 (2451456)
I1030 11:14:16.065040 26474 net.cpp:165] Memory required for data: 2340139860
I1030 11:14:16.065047 26474 layer_factory.hpp:77] Creating layer bn4b2_branch2c
I1030 11:14:16.065053 26474 net.cpp:100] Creating Layer bn4b2_branch2c
I1030 11:14:16.065058 26474 net.cpp:444] bn4b2_branch2c <- res4b2_branch2c
I1030 11:14:16.065064 26474 net.cpp:405] bn4b2_branch2c -> res4b2_branch2c (in-place)
I1030 11:14:16.065182 26474 net.cpp:150] Setting up bn4b2_branch2c
I1030 11:14:16.065188 26474 net.cpp:157] Top shape: 1 1024 38 63 (2451456)
I1030 11:14:16.065192 26474 net.cpp:165] Memory required for data: 2349945684
I1030 11:14:16.065201 26474 layer_factory.hpp:77] Creating layer scale4b2_branch2c
I1030 11:14:16.065208 26474 net.cpp:100] Creating Layer scale4b2_branch2c
I1030 11:14:16.065212 26474 net.cpp:444] scale4b2_branch2c <- res4b2_branch2c
I1030 11:14:16.065218 26474 net.cpp:405] scale4b2_branch2c -> res4b2_branch2c (in-place)
I1030 11:14:16.065248 26474 layer_factory.hpp:77] Creating layer scale4b2_branch2c
I1030 11:14:16.065332 26474 net.cpp:150] Setting up scale4b2_branch2c
I1030 11:14:16.065340 26474 net.cpp:157] Top shape: 1 1024 38 63 (2451456)
I1030 11:14:16.065345 26474 net.cpp:165] Memory required for data: 2359751508
I1030 11:14:16.065351 26474 layer_factory.hpp:77] Creating layer res4b2
I1030 11:14:16.065357 26474 net.cpp:100] Creating Layer res4b2
I1030 11:14:16.065362 26474 net.cpp:444] res4b2 <- res4b1_res4b1_relu_0_split_1
I1030 11:14:16.065368 26474 net.cpp:444] res4b2 <- res4b2_branch2c
I1030 11:14:16.065374 26474 net.cpp:418] res4b2 -> res4b2
I1030 11:14:16.065395 26474 net.cpp:150] Setting up res4b2
I1030 11:14:16.065402 26474 net.cpp:157] Top shape: 1 1024 38 63 (2451456)
I1030 11:14:16.065407 26474 net.cpp:165] Memory required for data: 2369557332
I1030 11:14:16.065412 26474 layer_factory.hpp:77] Creating layer res4b2_relu
I1030 11:14:16.065419 26474 net.cpp:100] Creating Layer res4b2_relu
I1030 11:14:16.065423 26474 net.cpp:444] res4b2_relu <- res4b2
I1030 11:14:16.065429 26474 net.cpp:405] res4b2_relu -> res4b2 (in-place)
I1030 11:14:16.065436 26474 net.cpp:150] Setting up res4b2_relu
I1030 11:14:16.065443 26474 net.cpp:157] Top shape: 1 1024 38 63 (2451456)
I1030 11:14:16.065446 26474 net.cpp:165] Memory required for data: 2379363156
I1030 11:14:16.065450 26474 layer_factory.hpp:77] Creating layer res4b2_res4b2_relu_0_split
I1030 11:14:16.065457 26474 net.cpp:100] Creating Layer res4b2_res4b2_relu_0_split
I1030 11:14:16.065461 26474 net.cpp:444] res4b2_res4b2_relu_0_split <- res4b2
I1030 11:14:16.065466 26474 net.cpp:418] res4b2_res4b2_relu_0_split -> res4b2_res4b2_relu_0_split_0
I1030 11:14:16.065474 26474 net.cpp:418] res4b2_res4b2_relu_0_split -> res4b2_res4b2_relu_0_split_1
I1030 11:14:16.065500 26474 net.cpp:150] Setting up res4b2_res4b2_relu_0_split
I1030 11:14:16.065505 26474 net.cpp:157] Top shape: 1 1024 38 63 (2451456)
I1030 11:14:16.065511 26474 net.cpp:157] Top shape: 1 1024 38 63 (2451456)
I1030 11:14:16.065516 26474 net.cpp:165] Memory required for data: 2398974804
I1030 11:14:16.065521 26474 layer_factory.hpp:77] Creating layer res4b3_branch2a
I1030 11:14:16.065529 26474 net.cpp:100] Creating Layer res4b3_branch2a
I1030 11:14:16.065533 26474 net.cpp:444] res4b3_branch2a <- res4b2_res4b2_relu_0_split_0
I1030 11:14:16.065538 26474 net.cpp:418] res4b3_branch2a -> res4b3_branch2a
I1030 11:14:16.066207 26474 net.cpp:150] Setting up res4b3_branch2a
I1030 11:14:16.066220 26474 net.cpp:157] Top shape: 1 256 38 63 (612864)
I1030 11:14:16.066222 26474 net.cpp:165] Memory required for data: 2401426260
I1030 11:14:16.066228 26474 layer_factory.hpp:77] Creating layer bn4b3_branch2a
I1030 11:14:16.066237 26474 net.cpp:100] Creating Layer bn4b3_branch2a
I1030 11:14:16.066241 26474 net.cpp:444] bn4b3_branch2a <- res4b3_branch2a
I1030 11:14:16.066247 26474 net.cpp:405] bn4b3_branch2a -> res4b3_branch2a (in-place)
I1030 11:14:16.066365 26474 net.cpp:150] Setting up bn4b3_branch2a
I1030 11:14:16.066370 26474 net.cpp:157] Top shape: 1 256 38 63 (612864)
I1030 11:14:16.066375 26474 net.cpp:165] Memory required for data: 2403877716
I1030 11:14:16.066383 26474 layer_factory.hpp:77] Creating layer scale4b3_branch2a
I1030 11:14:16.066390 26474 net.cpp:100] Creating Layer scale4b3_branch2a
I1030 11:14:16.066395 26474 net.cpp:444] scale4b3_branch2a <- res4b3_branch2a
I1030 11:14:16.066400 26474 net.cpp:405] scale4b3_branch2a -> res4b3_branch2a (in-place)
I1030 11:14:16.066426 26474 layer_factory.hpp:77] Creating layer scale4b3_branch2a
I1030 11:14:16.066498 26474 net.cpp:150] Setting up scale4b3_branch2a
I1030 11:14:16.066504 26474 net.cpp:157] Top shape: 1 256 38 63 (612864)
I1030 11:14:16.066509 26474 net.cpp:165] Memory required for data: 2406329172
I1030 11:14:16.066516 26474 layer_factory.hpp:77] Creating layer res4b3_branch2a_relu
I1030 11:14:16.066521 26474 net.cpp:100] Creating Layer res4b3_branch2a_relu
I1030 11:14:16.066526 26474 net.cpp:444] res4b3_branch2a_relu <- res4b3_branch2a
I1030 11:14:16.066531 26474 net.cpp:405] res4b3_branch2a_relu -> res4b3_branch2a (in-place)
I1030 11:14:16.066539 26474 net.cpp:150] Setting up res4b3_branch2a_relu
I1030 11:14:16.066543 26474 net.cpp:157] Top shape: 1 256 38 63 (612864)
I1030 11:14:16.066546 26474 net.cpp:165] Memory required for data: 2408780628
I1030 11:14:16.066550 26474 layer_factory.hpp:77] Creating layer res4b3_branch2b
I1030 11:14:16.066558 26474 net.cpp:100] Creating Layer res4b3_branch2b
I1030 11:14:16.066562 26474 net.cpp:444] res4b3_branch2b <- res4b3_branch2a
I1030 11:14:16.066568 26474 net.cpp:418] res4b3_branch2b -> res4b3_branch2b
I1030 11:14:16.067381 26474 net.cpp:150] Setting up res4b3_branch2b
I1030 11:14:16.067391 26474 net.cpp:157] Top shape: 1 256 38 63 (612864)
I1030 11:14:16.067395 26474 net.cpp:165] Memory required for data: 2411232084
I1030 11:14:16.067400 26474 layer_factory.hpp:77] Creating layer bn4b3_branch2b
I1030 11:14:16.067409 26474 net.cpp:100] Creating Layer bn4b3_branch2b
I1030 11:14:16.067412 26474 net.cpp:444] bn4b3_branch2b <- res4b3_branch2b
I1030 11:14:16.067417 26474 net.cpp:405] bn4b3_branch2b -> res4b3_branch2b (in-place)
I1030 11:14:16.067543 26474 net.cpp:150] Setting up bn4b3_branch2b
I1030 11:14:16.067550 26474 net.cpp:157] Top shape: 1 256 38 63 (612864)
I1030 11:14:16.067553 26474 net.cpp:165] Memory required for data: 2413683540
I1030 11:14:16.067562 26474 layer_factory.hpp:77] Creating layer scale4b3_branch2b
I1030 11:14:16.067579 26474 net.cpp:100] Creating Layer scale4b3_branch2b
I1030 11:14:16.067584 26474 net.cpp:444] scale4b3_branch2b <- res4b3_branch2b
I1030 11:14:16.067589 26474 net.cpp:405] scale4b3_branch2b -> res4b3_branch2b (in-place)
I1030 11:14:16.067617 26474 layer_factory.hpp:77] Creating layer scale4b3_branch2b
I1030 11:14:16.067693 26474 net.cpp:150] Setting up scale4b3_branch2b
I1030 11:14:16.067699 26474 net.cpp:157] Top shape: 1 256 38 63 (612864)
I1030 11:14:16.067704 26474 net.cpp:165] Memory required for data: 2416134996
I1030 11:14:16.067711 26474 layer_factory.hpp:77] Creating layer res4b3_branch2b_relu
I1030 11:14:16.067718 26474 net.cpp:100] Creating Layer res4b3_branch2b_relu
I1030 11:14:16.067723 26474 net.cpp:444] res4b3_branch2b_relu <- res4b3_branch2b
I1030 11:14:16.067728 26474 net.cpp:405] res4b3_branch2b_relu -> res4b3_branch2b (in-place)
I1030 11:14:16.067734 26474 net.cpp:150] Setting up res4b3_branch2b_relu
I1030 11:14:16.067740 26474 net.cpp:157] Top shape: 1 256 38 63 (612864)
I1030 11:14:16.067744 26474 net.cpp:165] Memory required for data: 2418586452
I1030 11:14:16.067749 26474 layer_factory.hpp:77] Creating layer res4b3_branch2c
I1030 11:14:16.067756 26474 net.cpp:100] Creating Layer res4b3_branch2c
I1030 11:14:16.067760 26474 net.cpp:444] res4b3_branch2c <- res4b3_branch2b
I1030 11:14:16.067766 26474 net.cpp:418] res4b3_branch2c -> res4b3_branch2c
I1030 11:14:16.068349 26474 net.cpp:150] Setting up res4b3_branch2c
I1030 11:14:16.068361 26474 net.cpp:157] Top shape: 1 1024 38 63 (2451456)
I1030 11:14:16.068364 26474 net.cpp:165] Memory required for data: 2428392276
I1030 11:14:16.068370 26474 layer_factory.hpp:77] Creating layer bn4b3_branch2c
I1030 11:14:16.068378 26474 net.cpp:100] Creating Layer bn4b3_branch2c
I1030 11:14:16.068383 26474 net.cpp:444] bn4b3_branch2c <- res4b3_branch2c
I1030 11:14:16.068389 26474 net.cpp:405] bn4b3_branch2c -> res4b3_branch2c (in-place)
I1030 11:14:16.068516 26474 net.cpp:150] Setting up bn4b3_branch2c
I1030 11:14:16.068521 26474 net.cpp:157] Top shape: 1 1024 38 63 (2451456)
I1030 11:14:16.068526 26474 net.cpp:165] Memory required for data: 2438198100
I1030 11:14:16.068536 26474 layer_factory.hpp:77] Creating layer scale4b3_branch2c
I1030 11:14:16.068542 26474 net.cpp:100] Creating Layer scale4b3_branch2c
I1030 11:14:16.068547 26474 net.cpp:444] scale4b3_branch2c <- res4b3_branch2c
I1030 11:14:16.068552 26474 net.cpp:405] scale4b3_branch2c -> res4b3_branch2c (in-place)
I1030 11:14:16.068578 26474 layer_factory.hpp:77] Creating layer scale4b3_branch2c
I1030 11:14:16.068656 26474 net.cpp:150] Setting up scale4b3_branch2c
I1030 11:14:16.068663 26474 net.cpp:157] Top shape: 1 1024 38 63 (2451456)
I1030 11:14:16.068668 26474 net.cpp:165] Memory required for data: 2448003924
I1030 11:14:16.068675 26474 layer_factory.hpp:77] Creating layer res4b3
I1030 11:14:16.068681 26474 net.cpp:100] Creating Layer res4b3
I1030 11:14:16.068686 26474 net.cpp:444] res4b3 <- res4b2_res4b2_relu_0_split_1
I1030 11:14:16.068691 26474 net.cpp:444] res4b3 <- res4b3_branch2c
I1030 11:14:16.068697 26474 net.cpp:418] res4b3 -> res4b3
I1030 11:14:16.068717 26474 net.cpp:150] Setting up res4b3
I1030 11:14:16.068722 26474 net.cpp:157] Top shape: 1 1024 38 63 (2451456)
I1030 11:14:16.068727 26474 net.cpp:165] Memory required for data: 2457809748
I1030 11:14:16.068732 26474 layer_factory.hpp:77] Creating layer res4b3_relu
I1030 11:14:16.068737 26474 net.cpp:100] Creating Layer res4b3_relu
I1030 11:14:16.068742 26474 net.cpp:444] res4b3_relu <- res4b3
I1030 11:14:16.068747 26474 net.cpp:405] res4b3_relu -> res4b3 (in-place)
I1030 11:14:16.068753 26474 net.cpp:150] Setting up res4b3_relu
I1030 11:14:16.068759 26474 net.cpp:157] Top shape: 1 1024 38 63 (2451456)
I1030 11:14:16.068763 26474 net.cpp:165] Memory required for data: 2467615572
I1030 11:14:16.068768 26474 layer_factory.hpp:77] Creating layer res4b3_res4b3_relu_0_split
I1030 11:14:16.068774 26474 net.cpp:100] Creating Layer res4b3_res4b3_relu_0_split
I1030 11:14:16.068778 26474 net.cpp:444] res4b3_res4b3_relu_0_split <- res4b3
I1030 11:14:16.068783 26474 net.cpp:418] res4b3_res4b3_relu_0_split -> res4b3_res4b3_relu_0_split_0
I1030 11:14:16.068789 26474 net.cpp:418] res4b3_res4b3_relu_0_split -> res4b3_res4b3_relu_0_split_1
I1030 11:14:16.068815 26474 net.cpp:150] Setting up res4b3_res4b3_relu_0_split
I1030 11:14:16.068821 26474 net.cpp:157] Top shape: 1 1024 38 63 (2451456)
I1030 11:14:16.068826 26474 net.cpp:157] Top shape: 1 1024 38 63 (2451456)
I1030 11:14:16.068831 26474 net.cpp:165] Memory required for data: 2487227220
I1030 11:14:16.068835 26474 layer_factory.hpp:77] Creating layer res4b4_branch2a
I1030 11:14:16.068843 26474 net.cpp:100] Creating Layer res4b4_branch2a
I1030 11:14:16.068847 26474 net.cpp:444] res4b4_branch2a <- res4b3_res4b3_relu_0_split_0
I1030 11:14:16.068852 26474 net.cpp:418] res4b4_branch2a -> res4b4_branch2a
I1030 11:14:16.069480 26474 net.cpp:150] Setting up res4b4_branch2a
I1030 11:14:16.069504 26474 net.cpp:157] Top shape: 1 256 38 63 (612864)
I1030 11:14:16.069509 26474 net.cpp:165] Memory required for data: 2489678676
I1030 11:14:16.069519 26474 layer_factory.hpp:77] Creating layer bn4b4_branch2a
I1030 11:14:16.069531 26474 net.cpp:100] Creating Layer bn4b4_branch2a
I1030 11:14:16.069537 26474 net.cpp:444] bn4b4_branch2a <- res4b4_branch2a
I1030 11:14:16.069546 26474 net.cpp:405] bn4b4_branch2a -> res4b4_branch2a (in-place)
I1030 11:14:16.069703 26474 net.cpp:150] Setting up bn4b4_branch2a
I1030 11:14:16.069712 26474 net.cpp:157] Top shape: 1 256 38 63 (612864)
I1030 11:14:16.069716 26474 net.cpp:165] Memory required for data: 2492130132
I1030 11:14:16.069727 26474 layer_factory.hpp:77] Creating layer scale4b4_branch2a
I1030 11:14:16.069738 26474 net.cpp:100] Creating Layer scale4b4_branch2a
I1030 11:14:16.069743 26474 net.cpp:444] scale4b4_branch2a <- res4b4_branch2a
I1030 11:14:16.069752 26474 net.cpp:405] scale4b4_branch2a -> res4b4_branch2a (in-place)
I1030 11:14:16.069789 26474 layer_factory.hpp:77] Creating layer scale4b4_branch2a
I1030 11:14:16.069890 26474 net.cpp:150] Setting up scale4b4_branch2a
I1030 11:14:16.069898 26474 net.cpp:157] Top shape: 1 256 38 63 (612864)
I1030 11:14:16.069905 26474 net.cpp:165] Memory required for data: 2494581588
I1030 11:14:16.069914 26474 layer_factory.hpp:77] Creating layer res4b4_branch2a_relu
I1030 11:14:16.069924 26474 net.cpp:100] Creating Layer res4b4_branch2a_relu
I1030 11:14:16.069946 26474 net.cpp:444] res4b4_branch2a_relu <- res4b4_branch2a
I1030 11:14:16.069952 26474 net.cpp:405] res4b4_branch2a_relu -> res4b4_branch2a (in-place)
I1030 11:14:16.069962 26474 net.cpp:150] Setting up res4b4_branch2a_relu
I1030 11:14:16.069969 26474 net.cpp:157] Top shape: 1 256 38 63 (612864)
I1030 11:14:16.069974 26474 net.cpp:165] Memory required for data: 2497033044
I1030 11:14:16.069979 26474 layer_factory.hpp:77] Creating layer res4b4_branch2b
I1030 11:14:16.069995 26474 net.cpp:100] Creating Layer res4b4_branch2b
I1030 11:14:16.070000 26474 net.cpp:444] res4b4_branch2b <- res4b4_branch2a
I1030 11:14:16.070008 26474 net.cpp:418] res4b4_branch2b -> res4b4_branch2b
I1030 11:14:16.071055 26474 net.cpp:150] Setting up res4b4_branch2b
I1030 11:14:16.071087 26474 net.cpp:157] Top shape: 1 256 38 63 (612864)
I1030 11:14:16.071090 26474 net.cpp:165] Memory required for data: 2499484500
I1030 11:14:16.071101 26474 layer_factory.hpp:77] Creating layer bn4b4_branch2b
I1030 11:14:16.071115 26474 net.cpp:100] Creating Layer bn4b4_branch2b
I1030 11:14:16.071121 26474 net.cpp:444] bn4b4_branch2b <- res4b4_branch2b
I1030 11:14:16.071130 26474 net.cpp:405] bn4b4_branch2b -> res4b4_branch2b (in-place)
I1030 11:14:16.071279 26474 net.cpp:150] Setting up bn4b4_branch2b
I1030 11:14:16.071286 26474 net.cpp:157] Top shape: 1 256 38 63 (612864)
I1030 11:14:16.071290 26474 net.cpp:165] Memory required for data: 2501935956
I1030 11:14:16.071300 26474 layer_factory.hpp:77] Creating layer scale4b4_branch2b
I1030 11:14:16.071310 26474 net.cpp:100] Creating Layer scale4b4_branch2b
I1030 11:14:16.071315 26474 net.cpp:444] scale4b4_branch2b <- res4b4_branch2b
I1030 11:14:16.071321 26474 net.cpp:405] scale4b4_branch2b -> res4b4_branch2b (in-place)
I1030 11:14:16.071352 26474 layer_factory.hpp:77] Creating layer scale4b4_branch2b
I1030 11:14:16.071436 26474 net.cpp:150] Setting up scale4b4_branch2b
I1030 11:14:16.071442 26474 net.cpp:157] Top shape: 1 256 38 63 (612864)
I1030 11:14:16.071447 26474 net.cpp:165] Memory required for data: 2504387412
I1030 11:14:16.071455 26474 layer_factory.hpp:77] Creating layer res4b4_branch2b_relu
I1030 11:14:16.071460 26474 net.cpp:100] Creating Layer res4b4_branch2b_relu
I1030 11:14:16.071465 26474 net.cpp:444] res4b4_branch2b_relu <- res4b4_branch2b
I1030 11:14:16.071470 26474 net.cpp:405] res4b4_branch2b_relu -> res4b4_branch2b (in-place)
I1030 11:14:16.071477 26474 net.cpp:150] Setting up res4b4_branch2b_relu
I1030 11:14:16.071482 26474 net.cpp:157] Top shape: 1 256 38 63 (612864)
I1030 11:14:16.071486 26474 net.cpp:165] Memory required for data: 2506838868
I1030 11:14:16.071491 26474 layer_factory.hpp:77] Creating layer res4b4_branch2c
I1030 11:14:16.071498 26474 net.cpp:100] Creating Layer res4b4_branch2c
I1030 11:14:16.071502 26474 net.cpp:444] res4b4_branch2c <- res4b4_branch2b
I1030 11:14:16.071508 26474 net.cpp:418] res4b4_branch2c -> res4b4_branch2c
I1030 11:14:16.072078 26474 net.cpp:150] Setting up res4b4_branch2c
I1030 11:14:16.072088 26474 net.cpp:157] Top shape: 1 1024 38 63 (2451456)
I1030 11:14:16.072091 26474 net.cpp:165] Memory required for data: 2516644692
I1030 11:14:16.072096 26474 layer_factory.hpp:77] Creating layer bn4b4_branch2c
I1030 11:14:16.072104 26474 net.cpp:100] Creating Layer bn4b4_branch2c
I1030 11:14:16.072108 26474 net.cpp:444] bn4b4_branch2c <- res4b4_branch2c
I1030 11:14:16.072115 26474 net.cpp:405] bn4b4_branch2c -> res4b4_branch2c (in-place)
I1030 11:14:16.072235 26474 net.cpp:150] Setting up bn4b4_branch2c
I1030 11:14:16.072242 26474 net.cpp:157] Top shape: 1 1024 38 63 (2451456)
I1030 11:14:16.072244 26474 net.cpp:165] Memory required for data: 2526450516
I1030 11:14:16.072253 26474 layer_factory.hpp:77] Creating layer scale4b4_branch2c
I1030 11:14:16.072259 26474 net.cpp:100] Creating Layer scale4b4_branch2c
I1030 11:14:16.072263 26474 net.cpp:444] scale4b4_branch2c <- res4b4_branch2c
I1030 11:14:16.072268 26474 net.cpp:405] scale4b4_branch2c -> res4b4_branch2c (in-place)
I1030 11:14:16.072295 26474 layer_factory.hpp:77] Creating layer scale4b4_branch2c
I1030 11:14:16.072371 26474 net.cpp:150] Setting up scale4b4_branch2c
I1030 11:14:16.072377 26474 net.cpp:157] Top shape: 1 1024 38 63 (2451456)
I1030 11:14:16.072381 26474 net.cpp:165] Memory required for data: 2536256340
I1030 11:14:16.072388 26474 layer_factory.hpp:77] Creating layer res4b4
I1030 11:14:16.072394 26474 net.cpp:100] Creating Layer res4b4
I1030 11:14:16.072399 26474 net.cpp:444] res4b4 <- res4b3_res4b3_relu_0_split_1
I1030 11:14:16.072404 26474 net.cpp:444] res4b4 <- res4b4_branch2c
I1030 11:14:16.072409 26474 net.cpp:418] res4b4 -> res4b4
I1030 11:14:16.072429 26474 net.cpp:150] Setting up res4b4
I1030 11:14:16.072434 26474 net.cpp:157] Top shape: 1 1024 38 63 (2451456)
I1030 11:14:16.072439 26474 net.cpp:165] Memory required for data: 2546062164
I1030 11:14:16.072443 26474 layer_factory.hpp:77] Creating layer res4b4_relu
I1030 11:14:16.072449 26474 net.cpp:100] Creating Layer res4b4_relu
I1030 11:14:16.072453 26474 net.cpp:444] res4b4_relu <- res4b4
I1030 11:14:16.072459 26474 net.cpp:405] res4b4_relu -> res4b4 (in-place)
I1030 11:14:16.072464 26474 net.cpp:150] Setting up res4b4_relu
I1030 11:14:16.072469 26474 net.cpp:157] Top shape: 1 1024 38 63 (2451456)
I1030 11:14:16.072474 26474 net.cpp:165] Memory required for data: 2555867988
I1030 11:14:16.072477 26474 layer_factory.hpp:77] Creating layer res4b4_res4b4_relu_0_split
I1030 11:14:16.072484 26474 net.cpp:100] Creating Layer res4b4_res4b4_relu_0_split
I1030 11:14:16.072487 26474 net.cpp:444] res4b4_res4b4_relu_0_split <- res4b4
I1030 11:14:16.072492 26474 net.cpp:418] res4b4_res4b4_relu_0_split -> res4b4_res4b4_relu_0_split_0
I1030 11:14:16.072499 26474 net.cpp:418] res4b4_res4b4_relu_0_split -> res4b4_res4b4_relu_0_split_1
I1030 11:14:16.072525 26474 net.cpp:150] Setting up res4b4_res4b4_relu_0_split
I1030 11:14:16.072530 26474 net.cpp:157] Top shape: 1 1024 38 63 (2451456)
I1030 11:14:16.072535 26474 net.cpp:157] Top shape: 1 1024 38 63 (2451456)
I1030 11:14:16.072538 26474 net.cpp:165] Memory required for data: 2575479636
I1030 11:14:16.072542 26474 layer_factory.hpp:77] Creating layer res4b5_branch2a
I1030 11:14:16.072549 26474 net.cpp:100] Creating Layer res4b5_branch2a
I1030 11:14:16.072553 26474 net.cpp:444] res4b5_branch2a <- res4b4_res4b4_relu_0_split_0
I1030 11:14:16.072559 26474 net.cpp:418] res4b5_branch2a -> res4b5_branch2a
I1030 11:14:16.073025 26474 net.cpp:150] Setting up res4b5_branch2a
I1030 11:14:16.073035 26474 net.cpp:157] Top shape: 1 256 38 63 (612864)
I1030 11:14:16.073038 26474 net.cpp:165] Memory required for data: 2577931092
I1030 11:14:16.073045 26474 layer_factory.hpp:77] Creating layer bn4b5_branch2a
I1030 11:14:16.073051 26474 net.cpp:100] Creating Layer bn4b5_branch2a
I1030 11:14:16.073055 26474 net.cpp:444] bn4b5_branch2a <- res4b5_branch2a
I1030 11:14:16.073062 26474 net.cpp:405] bn4b5_branch2a -> res4b5_branch2a (in-place)
I1030 11:14:16.073175 26474 net.cpp:150] Setting up bn4b5_branch2a
I1030 11:14:16.073181 26474 net.cpp:157] Top shape: 1 256 38 63 (612864)
I1030 11:14:16.073186 26474 net.cpp:165] Memory required for data: 2580382548
I1030 11:14:16.073195 26474 layer_factory.hpp:77] Creating layer scale4b5_branch2a
I1030 11:14:16.073201 26474 net.cpp:100] Creating Layer scale4b5_branch2a
I1030 11:14:16.073205 26474 net.cpp:444] scale4b5_branch2a <- res4b5_branch2a
I1030 11:14:16.073210 26474 net.cpp:405] scale4b5_branch2a -> res4b5_branch2a (in-place)
I1030 11:14:16.073237 26474 layer_factory.hpp:77] Creating layer scale4b5_branch2a
I1030 11:14:16.073307 26474 net.cpp:150] Setting up scale4b5_branch2a
I1030 11:14:16.073313 26474 net.cpp:157] Top shape: 1 256 38 63 (612864)
I1030 11:14:16.073318 26474 net.cpp:165] Memory required for data: 2582834004
I1030 11:14:16.073325 26474 layer_factory.hpp:77] Creating layer res4b5_branch2a_relu
I1030 11:14:16.073331 26474 net.cpp:100] Creating Layer res4b5_branch2a_relu
I1030 11:14:16.073335 26474 net.cpp:444] res4b5_branch2a_relu <- res4b5_branch2a
I1030 11:14:16.073341 26474 net.cpp:405] res4b5_branch2a_relu -> res4b5_branch2a (in-place)
I1030 11:14:16.073348 26474 net.cpp:150] Setting up res4b5_branch2a_relu
I1030 11:14:16.073353 26474 net.cpp:157] Top shape: 1 256 38 63 (612864)
I1030 11:14:16.073356 26474 net.cpp:165] Memory required for data: 2585285460
I1030 11:14:16.073361 26474 layer_factory.hpp:77] Creating layer res4b5_branch2b
I1030 11:14:16.073369 26474 net.cpp:100] Creating Layer res4b5_branch2b
I1030 11:14:16.073372 26474 net.cpp:444] res4b5_branch2b <- res4b5_branch2a
I1030 11:14:16.073377 26474 net.cpp:418] res4b5_branch2b -> res4b5_branch2b
I1030 11:14:16.074190 26474 net.cpp:150] Setting up res4b5_branch2b
I1030 11:14:16.074201 26474 net.cpp:157] Top shape: 1 256 38 63 (612864)
I1030 11:14:16.074205 26474 net.cpp:165] Memory required for data: 2587736916
I1030 11:14:16.074211 26474 layer_factory.hpp:77] Creating layer bn4b5_branch2b
I1030 11:14:16.074218 26474 net.cpp:100] Creating Layer bn4b5_branch2b
I1030 11:14:16.074223 26474 net.cpp:444] bn4b5_branch2b <- res4b5_branch2b
I1030 11:14:16.074229 26474 net.cpp:405] bn4b5_branch2b -> res4b5_branch2b (in-place)
I1030 11:14:16.074344 26474 net.cpp:150] Setting up bn4b5_branch2b
I1030 11:14:16.074350 26474 net.cpp:157] Top shape: 1 256 38 63 (612864)
I1030 11:14:16.074355 26474 net.cpp:165] Memory required for data: 2590188372
I1030 11:14:16.074364 26474 layer_factory.hpp:77] Creating layer scale4b5_branch2b
I1030 11:14:16.074370 26474 net.cpp:100] Creating Layer scale4b5_branch2b
I1030 11:14:16.074374 26474 net.cpp:444] scale4b5_branch2b <- res4b5_branch2b
I1030 11:14:16.074380 26474 net.cpp:405] scale4b5_branch2b -> res4b5_branch2b (in-place)
I1030 11:14:16.074407 26474 layer_factory.hpp:77] Creating layer scale4b5_branch2b
I1030 11:14:16.074491 26474 net.cpp:150] Setting up scale4b5_branch2b
I1030 11:14:16.074498 26474 net.cpp:157] Top shape: 1 256 38 63 (612864)
I1030 11:14:16.074502 26474 net.cpp:165] Memory required for data: 2592639828
I1030 11:14:16.074511 26474 layer_factory.hpp:77] Creating layer res4b5_branch2b_relu
I1030 11:14:16.074515 26474 net.cpp:100] Creating Layer res4b5_branch2b_relu
I1030 11:14:16.074519 26474 net.cpp:444] res4b5_branch2b_relu <- res4b5_branch2b
I1030 11:14:16.074525 26474 net.cpp:405] res4b5_branch2b_relu -> res4b5_branch2b (in-place)
I1030 11:14:16.074532 26474 net.cpp:150] Setting up res4b5_branch2b_relu
I1030 11:14:16.074537 26474 net.cpp:157] Top shape: 1 256 38 63 (612864)
I1030 11:14:16.074542 26474 net.cpp:165] Memory required for data: 2595091284
I1030 11:14:16.074553 26474 layer_factory.hpp:77] Creating layer res4b5_branch2c
I1030 11:14:16.074560 26474 net.cpp:100] Creating Layer res4b5_branch2c
I1030 11:14:16.074564 26474 net.cpp:444] res4b5_branch2c <- res4b5_branch2b
I1030 11:14:16.074570 26474 net.cpp:418] res4b5_branch2c -> res4b5_branch2c
I1030 11:14:16.075067 26474 net.cpp:150] Setting up res4b5_branch2c
I1030 11:14:16.075076 26474 net.cpp:157] Top shape: 1 1024 38 63 (2451456)
I1030 11:14:16.075080 26474 net.cpp:165] Memory required for data: 2604897108
I1030 11:14:16.075086 26474 layer_factory.hpp:77] Creating layer bn4b5_branch2c
I1030 11:14:16.075094 26474 net.cpp:100] Creating Layer bn4b5_branch2c
I1030 11:14:16.075099 26474 net.cpp:444] bn4b5_branch2c <- res4b5_branch2c
I1030 11:14:16.075105 26474 net.cpp:405] bn4b5_branch2c -> res4b5_branch2c (in-place)
I1030 11:14:16.075230 26474 net.cpp:150] Setting up bn4b5_branch2c
I1030 11:14:16.075237 26474 net.cpp:157] Top shape: 1 1024 38 63 (2451456)
I1030 11:14:16.075242 26474 net.cpp:165] Memory required for data: 2614702932
I1030 11:14:16.075250 26474 layer_factory.hpp:77] Creating layer scale4b5_branch2c
I1030 11:14:16.075256 26474 net.cpp:100] Creating Layer scale4b5_branch2c
I1030 11:14:16.075260 26474 net.cpp:444] scale4b5_branch2c <- res4b5_branch2c
I1030 11:14:16.075268 26474 net.cpp:405] scale4b5_branch2c -> res4b5_branch2c (in-place)
I1030 11:14:16.075295 26474 layer_factory.hpp:77] Creating layer scale4b5_branch2c
I1030 11:14:16.075374 26474 net.cpp:150] Setting up scale4b5_branch2c
I1030 11:14:16.075381 26474 net.cpp:157] Top shape: 1 1024 38 63 (2451456)
I1030 11:14:16.075387 26474 net.cpp:165] Memory required for data: 2624508756
I1030 11:14:16.075399 26474 layer_factory.hpp:77] Creating layer res4b5
I1030 11:14:16.075405 26474 net.cpp:100] Creating Layer res4b5
I1030 11:14:16.075410 26474 net.cpp:444] res4b5 <- res4b4_res4b4_relu_0_split_1
I1030 11:14:16.075417 26474 net.cpp:444] res4b5 <- res4b5_branch2c
I1030 11:14:16.075423 26474 net.cpp:418] res4b5 -> res4b5
I1030 11:14:16.075443 26474 net.cpp:150] Setting up res4b5
I1030 11:14:16.075448 26474 net.cpp:157] Top shape: 1 1024 38 63 (2451456)
I1030 11:14:16.075453 26474 net.cpp:165] Memory required for data: 2634314580
I1030 11:14:16.075456 26474 layer_factory.hpp:77] Creating layer res4b5_relu
I1030 11:14:16.075461 26474 net.cpp:100] Creating Layer res4b5_relu
I1030 11:14:16.075466 26474 net.cpp:444] res4b5_relu <- res4b5
I1030 11:14:16.075472 26474 net.cpp:405] res4b5_relu -> res4b5 (in-place)
I1030 11:14:16.075479 26474 net.cpp:150] Setting up res4b5_relu
I1030 11:14:16.075484 26474 net.cpp:157] Top shape: 1 1024 38 63 (2451456)
I1030 11:14:16.075489 26474 net.cpp:165] Memory required for data: 2644120404
I1030 11:14:16.075492 26474 layer_factory.hpp:77] Creating layer res4b5_res4b5_relu_0_split
I1030 11:14:16.075498 26474 net.cpp:100] Creating Layer res4b5_res4b5_relu_0_split
I1030 11:14:16.075502 26474 net.cpp:444] res4b5_res4b5_relu_0_split <- res4b5
I1030 11:14:16.075507 26474 net.cpp:418] res4b5_res4b5_relu_0_split -> res4b5_res4b5_relu_0_split_0
I1030 11:14:16.075515 26474 net.cpp:418] res4b5_res4b5_relu_0_split -> res4b5_res4b5_relu_0_split_1
I1030 11:14:16.075541 26474 net.cpp:150] Setting up res4b5_res4b5_relu_0_split
I1030 11:14:16.075547 26474 net.cpp:157] Top shape: 1 1024 38 63 (2451456)
I1030 11:14:16.075552 26474 net.cpp:157] Top shape: 1 1024 38 63 (2451456)
I1030 11:14:16.075557 26474 net.cpp:165] Memory required for data: 2663732052
I1030 11:14:16.075568 26474 layer_factory.hpp:77] Creating layer res4b6_branch2a
I1030 11:14:16.075577 26474 net.cpp:100] Creating Layer res4b6_branch2a
I1030 11:14:16.075590 26474 net.cpp:444] res4b6_branch2a <- res4b5_res4b5_relu_0_split_0
I1030 11:14:16.075598 26474 net.cpp:418] res4b6_branch2a -> res4b6_branch2a
I1030 11:14:16.076112 26474 net.cpp:150] Setting up res4b6_branch2a
I1030 11:14:16.076131 26474 net.cpp:157] Top shape: 1 256 38 63 (612864)
I1030 11:14:16.076135 26474 net.cpp:165] Memory required for data: 2666183508
I1030 11:14:16.076140 26474 layer_factory.hpp:77] Creating layer bn4b6_branch2a
I1030 11:14:16.076148 26474 net.cpp:100] Creating Layer bn4b6_branch2a
I1030 11:14:16.076153 26474 net.cpp:444] bn4b6_branch2a <- res4b6_branch2a
I1030 11:14:16.076159 26474 net.cpp:405] bn4b6_branch2a -> res4b6_branch2a (in-place)
I1030 11:14:16.076292 26474 net.cpp:150] Setting up bn4b6_branch2a
I1030 11:14:16.076299 26474 net.cpp:157] Top shape: 1 256 38 63 (612864)
I1030 11:14:16.076305 26474 net.cpp:165] Memory required for data: 2668634964
I1030 11:14:16.076314 26474 layer_factory.hpp:77] Creating layer scale4b6_branch2a
I1030 11:14:16.076323 26474 net.cpp:100] Creating Layer scale4b6_branch2a
I1030 11:14:16.076326 26474 net.cpp:444] scale4b6_branch2a <- res4b6_branch2a
I1030 11:14:16.076333 26474 net.cpp:405] scale4b6_branch2a -> res4b6_branch2a (in-place)
I1030 11:14:16.076373 26474 layer_factory.hpp:77] Creating layer scale4b6_branch2a
I1030 11:14:16.076453 26474 net.cpp:150] Setting up scale4b6_branch2a
I1030 11:14:16.076460 26474 net.cpp:157] Top shape: 1 256 38 63 (612864)
I1030 11:14:16.076465 26474 net.cpp:165] Memory required for data: 2671086420
I1030 11:14:16.076472 26474 layer_factory.hpp:77] Creating layer res4b6_branch2a_relu
I1030 11:14:16.076478 26474 net.cpp:100] Creating Layer res4b6_branch2a_relu
I1030 11:14:16.076483 26474 net.cpp:444] res4b6_branch2a_relu <- res4b6_branch2a
I1030 11:14:16.076488 26474 net.cpp:405] res4b6_branch2a_relu -> res4b6_branch2a (in-place)
I1030 11:14:16.076495 26474 net.cpp:150] Setting up res4b6_branch2a_relu
I1030 11:14:16.076500 26474 net.cpp:157] Top shape: 1 256 38 63 (612864)
I1030 11:14:16.076504 26474 net.cpp:165] Memory required for data: 2673537876
I1030 11:14:16.076509 26474 layer_factory.hpp:77] Creating layer res4b6_branch2b
I1030 11:14:16.076519 26474 net.cpp:100] Creating Layer res4b6_branch2b
I1030 11:14:16.076521 26474 net.cpp:444] res4b6_branch2b <- res4b6_branch2a
I1030 11:14:16.076527 26474 net.cpp:418] res4b6_branch2b -> res4b6_branch2b
I1030 11:14:16.077410 26474 net.cpp:150] Setting up res4b6_branch2b
I1030 11:14:16.077424 26474 net.cpp:157] Top shape: 1 256 38 63 (612864)
I1030 11:14:16.077426 26474 net.cpp:165] Memory required for data: 2675989332
I1030 11:14:16.077433 26474 layer_factory.hpp:77] Creating layer bn4b6_branch2b
I1030 11:14:16.077442 26474 net.cpp:100] Creating Layer bn4b6_branch2b
I1030 11:14:16.077447 26474 net.cpp:444] bn4b6_branch2b <- res4b6_branch2b
I1030 11:14:16.077453 26474 net.cpp:405] bn4b6_branch2b -> res4b6_branch2b (in-place)
I1030 11:14:16.077586 26474 net.cpp:150] Setting up bn4b6_branch2b
I1030 11:14:16.077594 26474 net.cpp:157] Top shape: 1 256 38 63 (612864)
I1030 11:14:16.077597 26474 net.cpp:165] Memory required for data: 2678440788
I1030 11:14:16.077605 26474 layer_factory.hpp:77] Creating layer scale4b6_branch2b
I1030 11:14:16.077613 26474 net.cpp:100] Creating Layer scale4b6_branch2b
I1030 11:14:16.077617 26474 net.cpp:444] scale4b6_branch2b <- res4b6_branch2b
I1030 11:14:16.077623 26474 net.cpp:405] scale4b6_branch2b -> res4b6_branch2b (in-place)
I1030 11:14:16.077656 26474 layer_factory.hpp:77] Creating layer scale4b6_branch2b
I1030 11:14:16.077733 26474 net.cpp:150] Setting up scale4b6_branch2b
I1030 11:14:16.077739 26474 net.cpp:157] Top shape: 1 256 38 63 (612864)
I1030 11:14:16.077744 26474 net.cpp:165] Memory required for data: 2680892244
I1030 11:14:16.077750 26474 layer_factory.hpp:77] Creating layer res4b6_branch2b_relu
I1030 11:14:16.077759 26474 net.cpp:100] Creating Layer res4b6_branch2b_relu
I1030 11:14:16.077764 26474 net.cpp:444] res4b6_branch2b_relu <- res4b6_branch2b
I1030 11:14:16.077769 26474 net.cpp:405] res4b6_branch2b_relu -> res4b6_branch2b (in-place)
I1030 11:14:16.077777 26474 net.cpp:150] Setting up res4b6_branch2b_relu
I1030 11:14:16.077782 26474 net.cpp:157] Top shape: 1 256 38 63 (612864)
I1030 11:14:16.077786 26474 net.cpp:165] Memory required for data: 2683343700
I1030 11:14:16.077790 26474 layer_factory.hpp:77] Creating layer res4b6_branch2c
I1030 11:14:16.077798 26474 net.cpp:100] Creating Layer res4b6_branch2c
I1030 11:14:16.077802 26474 net.cpp:444] res4b6_branch2c <- res4b6_branch2b
I1030 11:14:16.077808 26474 net.cpp:418] res4b6_branch2c -> res4b6_branch2c
I1030 11:14:16.078460 26474 net.cpp:150] Setting up res4b6_branch2c
I1030 11:14:16.078470 26474 net.cpp:157] Top shape: 1 1024 38 63 (2451456)
I1030 11:14:16.078474 26474 net.cpp:165] Memory required for data: 2693149524
I1030 11:14:16.078480 26474 layer_factory.hpp:77] Creating layer bn4b6_branch2c
I1030 11:14:16.078488 26474 net.cpp:100] Creating Layer bn4b6_branch2c
I1030 11:14:16.078493 26474 net.cpp:444] bn4b6_branch2c <- res4b6_branch2c
…
I1030 11:14:16.133304 26474 net.cpp:100] Creating Layer res5a_branch1
I1030 11:14:16.133308 26474 net.cpp:444] res5a_branch1 <- res4b22_res4b22_relu_0_split_0
I1030 11:14:16.133314 26474 net.cpp:418] res5a_branch1 -> res5a_branch1
I1030 11:14:16.136183 26474 net.cpp:150] Setting up res5a_branch1
I1030 11:14:16.136211 26474 net.cpp:157] Top shape: 1 2048 38 63 (4902912)
I1030 11:14:16.136215 26474 net.cpp:165] Memory required for data: 4193440596
I1030 11:14:16.136224 26474 layer_factory.hpp:77] Creating layer bn5a_branch1
I1030 11:14:16.136234 26474 net.cpp:100] Creating Layer bn5a_branch1
I1030 11:14:16.136240 26474 net.cpp:444] bn5a_branch1 <- res5a_branch1
I1030 11:14:16.136248 26474 net.cpp:405] bn5a_branch1 -> res5a_branch1 (in-place)
I1030 11:14:16.136400 26474 net.cpp:150] Setting up bn5a_branch1
I1030 11:14:16.136407 26474 net.cpp:157] Top shape: 1 2048 38 63 (4902912)
I1030 11:14:16.136411 26474 net.cpp:165] Memory required for data: 4213052244
I1030 11:14:16.136420 26474 layer_factory.hpp:77] Creating layer scale5a_branch1
I1030 11:14:16.136428 26474 net.cpp:100] Creating Layer scale5a_branch1
I1030 11:14:16.136431 26474 net.cpp:444] scale5a_branch1 <- res5a_branch1
I1030 11:14:16.136437 26474 net.cpp:405] scale5a_branch1 -> res5a_branch1 (in-place)
I1030 11:14:16.136482 26474 layer_factory.hpp:77] Creating layer scale5a_branch1
I1030 11:14:16.136910 26474 net.cpp:150] Setting up scale5a_branch1
I1030 11:14:16.136919 26474 net.cpp:157] Top shape: 1 2048 38 63 (4902912)
I1030 11:14:16.136924 26474 net.cpp:165] Memory required for data: 4232663892
I1030 11:14:16.136930 26474 layer_factory.hpp:77] Creating layer res5a_branch2a
I1030 11:14:16.136940 26474 net.cpp:100] Creating Layer res5a_branch2a
I1030 11:14:16.136946 26474 net.cpp:444] res5a_branch2a <- res4b22_res4b22_relu_0_split_1
I1030 11:14:16.136952 26474 net.cpp:418] res5a_branch2a -> res5a_branch2a
I1030 11:14:16.137703 26474 net.cpp:150] Setting up res5a_branch2a
I1030 11:14:16.137712 26474 net.cpp:157] Top shape: 1 512 38 63 (1225728)
I1030 11:14:16.137717 26474 net.cpp:165] Memory required for data: 4237566804
I1030 11:14:16.137722 26474 layer_factory.hpp:77] Creating layer bn5a_branch2a
I1030 11:14:16.137729 26474 net.cpp:100] Creating Layer bn5a_branch2a
I1030 11:14:16.137734 26474 net.cpp:444] bn5a_branch2a <- res5a_branch2a
I1030 11:14:16.137740 26474 net.cpp:405] bn5a_branch2a -> res5a_branch2a (in-place)
I1030 11:14:16.137887 26474 net.cpp:150] Setting up bn5a_branch2a
I1030 11:14:16.137893 26474 net.cpp:157] Top shape: 1 512 38 63 (1225728)
I1030 11:14:16.137897 26474 net.cpp:165] Memory required for data: 4242469716
I1030 11:14:16.137905 26474 layer_factory.hpp:77] Creating layer scale5a_branch2a
I1030 11:14:16.137912 26474 net.cpp:100] Creating Layer scale5a_branch2a
I1030 11:14:16.137917 26474 net.cpp:444] scale5a_branch2a <- res5a_branch2a
I1030 11:14:16.137923 26474 net.cpp:405] scale5a_branch2a -> res5a_branch2a (in-place)
I1030 11:14:16.137961 26474 layer_factory.hpp:77] Creating layer scale5a_branch2a
I1030 11:14:16.138051 26474 net.cpp:150] Setting up scale5a_branch2a
I1030 11:14:16.138058 26474 net.cpp:157] Top shape: 1 512 38 63 (1225728)
I1030 11:14:16.138062 26474 net.cpp:165] Memory required for data: 4247372628
I1030 11:14:16.138069 26474 layer_factory.hpp:77] Creating layer res5a_branch2a_relu
I1030 11:14:16.138077 26474 net.cpp:100] Creating Layer res5a_branch2a_relu
I1030 11:14:16.138082 26474 net.cpp:444] res5a_branch2a_relu <- res5a_branch2a
I1030 11:14:16.138087 26474 net.cpp:405] res5a_branch2a_relu -> res5a_branch2a (in-place)
I1030 11:14:16.138094 26474 net.cpp:150] Setting up res5a_branch2a_relu
I1030 11:14:16.138100 26474 net.cpp:157] Top shape: 1 512 38 63 (1225728)
I1030 11:14:16.138104 26474 net.cpp:165] Memory required for data: 4252275540
I1030 11:14:16.138108 26474 layer_factory.hpp:77] Creating layer res5a_branch2b
I1030 11:14:16.138118 26474 net.cpp:100] Creating Layer res5a_branch2b
I1030 11:14:16.138121 26474 net.cpp:444] res5a_branch2b <- res5a_branch2a
I1030 11:14:16.138129 26474 net.cpp:418] res5a_branch2b -> res5a_branch2b
I1030 11:14:16.143524 26474 net.cpp:150] Setting up res5a_branch2b
I1030 11:14:16.143573 26474 net.cpp:157] Top shape: 1 512 38 63 (1225728)
I1030 11:14:16.143577 26474 net.cpp:165] Memory required for data: 4257178452
I1030 11:14:16.143590 26474 layer_factory.hpp:77] Creating layer bn5a_branch2b
I1030 11:14:16.143606 26474 net.cpp:100] Creating Layer bn5a_branch2b
I1030 11:14:16.143615 26474 net.cpp:444] bn5a_branch2b <- res5a_branch2b
I1030 11:14:16.143625 26474 net.cpp:405] bn5a_branch2b -> res5a_branch2b (in-place)
I1030 11:14:16.143823 26474 net.cpp:150] Setting up bn5a_branch2b
I1030 11:14:16.143831 26474 net.cpp:157] Top shape: 1 512 38 63 (1225728)
I1030 11:14:16.143836 26474 net.cpp:165] Memory required for data: 4262081364
I1030 11:14:16.143846 26474 layer_factory.hpp:77] Creating layer scale5a_branch2b
I1030 11:14:16.143857 26474 net.cpp:100] Creating Layer scale5a_branch2b
I1030 11:14:16.143862 26474 net.cpp:444] scale5a_branch2b <- res5a_branch2b
I1030 11:14:16.143867 26474 net.cpp:405] scale5a_branch2b -> res5a_branch2b (in-place)
I1030 11:14:16.143908 26474 layer_factory.hpp:77] Creating layer scale5a_branch2b
I1030 11:14:16.144003 26474 net.cpp:150] Setting up scale5a_branch2b
I1030 11:14:16.144011 26474 net.cpp:157] Top shape: 1 512 38 63 (1225728)
I1030 11:14:16.144016 26474 net.cpp:165] Memory required for data: 4266984276
I1030 11:14:16.144022 26474 layer_factory.hpp:77] Creating layer res5a_branch2b_relu
I1030 11:14:16.144031 26474 net.cpp:100] Creating Layer res5a_branch2b_relu
I1030 11:14:16.144035 26474 net.cpp:444] res5a_branch2b_relu <- res5a_branch2b
I1030 11:14:16.144042 26474 net.cpp:405] res5a_branch2b_relu -> res5a_branch2b (in-place)
I1030 11:14:16.144049 26474 net.cpp:150] Setting up res5a_branch2b_relu
I1030 11:14:16.144054 26474 net.cpp:157] Top shape: 1 512 38 63 (1225728)
I1030 11:14:16.144058 26474 net.cpp:165] Memory required for data: 4271887188
I1030 11:14:16.144063 26474 layer_factory.hpp:77] Creating layer res5a_branch2c
I1030 11:14:16.144071 26474 net.cpp:100] Creating Layer res5a_branch2c
I1030 11:14:16.144075 26474 net.cpp:444] res5a_branch2c <- res5a_branch2b
I1030 11:14:16.144081 26474 net.cpp:418] res5a_branch2c -> res5a_branch2c
I1030 11:14:16.145493 26474 net.cpp:150] Setting up res5a_branch2c
I1030 11:14:16.145508 26474 net.cpp:157] Top shape: 1 2048 38 63 (4902912)
I1030 11:14:16.145511 26474 net.cpp:165] Memory required for data: 4291498836
I1030 11:14:16.145517 26474 layer_factory.hpp:77] Creating layer bn5a_branch2c
I1030 11:14:16.145525 26474 net.cpp:100] Creating Layer bn5a_branch2c
I1030 11:14:16.145530 26474 net.cpp:444] bn5a_branch2c <- res5a_branch2c
I1030 11:14:16.145537 26474 net.cpp:405] bn5a_branch2c -> res5a_branch2c (in-place)
I1030 11:14:16.145679 26474 net.cpp:150] Setting up bn5a_branch2c
I1030 11:14:16.145686 26474 net.cpp:157] Top shape: 1 2048 38 63 (4902912)
I1030 11:14:16.145689 26474 net.cpp:165] Memory required for data: 4311110484
I1030 11:14:16.145699 26474 layer_factory.hpp:77] Creating layer scale5a_branch2c
I1030 11:14:16.145705 26474 net.cpp:100] Creating Layer scale5a_branch2c
I1030 11:14:16.145709 26474 net.cpp:444] scale5a_branch2c <- res5a_branch2c
I1030 11:14:16.145716 26474 net.cpp:405] scale5a_branch2c -> res5a_branch2c (in-place)
I1030 11:14:16.145748 26474 layer_factory.hpp:77] Creating layer scale5a_branch2c
I1030 11:14:16.145826 26474 net.cpp:150] Setting up scale5a_branch2c
I1030 11:14:16.145833 26474 net.cpp:157] Top shape: 1 2048 38 63 (4902912)
I1030 11:14:16.145838 26474 net.cpp:165] Memory required for data: 4330722132
I1030 11:14:16.145845 26474 layer_factory.hpp:77] Creating layer res5a
I1030 11:14:16.145851 26474 net.cpp:100] Creating Layer res5a
I1030 11:14:16.145858 26474 net.cpp:444] res5a <- res5a_branch1
I1030 11:14:16.145862 26474 net.cpp:444] res5a <- res5a_branch2c
I1030 11:14:16.145869 26474 net.cpp:418] res5a -> res5a
I1030 11:14:16.145889 26474 net.cpp:150] Setting up res5a
I1030 11:14:16.145895 26474 net.cpp:157] Top shape: 1 2048 38 63 (4902912)
I1030 11:14:16.145900 26474 net.cpp:165] Memory required for data: 4350333780
I1030 11:14:16.145905 26474 layer_factory.hpp:77] Creating layer res5a_relu
I1030 11:14:16.145911 26474 net.cpp:100] Creating Layer res5a_relu
I1030 11:14:16.145915 26474 net.cpp:444] res5a_relu <- res5a
I1030 11:14:16.145920 26474 net.cpp:405] res5a_relu -> res5a (in-place)
I1030 11:14:16.145925 26474 net.cpp:150] Setting up res5a_relu
I1030 11:14:16.145936 26474 net.cpp:157] Top shape: 1 2048 38 63 (4902912)
I1030 11:14:16.145939 26474 net.cpp:165] Memory required for data: 4369945428
I1030 11:14:16.145942 26474 layer_factory.hpp:77] Creating layer res5a_res5a_relu_0_split
I1030 11:14:16.145949 26474 net.cpp:100] Creating Layer res5a_res5a_relu_0_split
I1030 11:14:16.145953 26474 net.cpp:444] res5a_res5a_relu_0_split <- res5a
I1030 11:14:16.145959 26474 net.cpp:418] res5a_res5a_relu_0_split -> res5a_res5a_relu_0_split_0
I1030 11:14:16.145965 26474 net.cpp:418] res5a_res5a_relu_0_split -> res5a_res5a_relu_0_split_1
I1030 11:14:16.145994 26474 net.cpp:150] Setting up res5a_res5a_relu_0_split
I1030 11:14:16.146000 26474 net.cpp:157] Top shape: 1 2048 38 63 (4902912)
I1030 11:14:16.146006 26474 net.cpp:157] Top shape: 1 2048 38 63 (4902912)
I1030 11:14:16.146010 26474 net.cpp:165] Memory required for data: 4409168724
I1030 11:14:16.146015 26474 layer_factory.hpp:77] Creating layer res5b_branch2a
I1030 11:14:16.146023 26474 net.cpp:100] Creating Layer res5b_branch2a
I1030 11:14:16.146028 26474 net.cpp:444] res5b_branch2a <- res5a_res5a_relu_0_split_0
I1030 11:14:16.146034 26474 net.cpp:418] res5b_branch2a -> res5b_branch2a
I1030 11:14:16.147424 26474 net.cpp:150] Setting up res5b_branch2a
I1030 11:14:16.147439 26474 net.cpp:157] Top shape: 1 512 38 63 (1225728)
I1030 11:14:16.147441 26474 net.cpp:165] Memory required for data: 4414071636
I1030 11:14:16.147449 26474 layer_factory.hpp:77] Creating layer bn5b_branch2a
I1030 11:14:16.147457 26474 net.cpp:100] Creating Layer bn5b_branch2a
I1030 11:14:16.147462 26474 net.cpp:444] bn5b_branch2a <- res5b_branch2a
I1030 11:14:16.147469 26474 net.cpp:405] bn5b_branch2a -> res5b_branch2a (in-place)
I1030 11:14:16.147606 26474 net.cpp:150] Setting up bn5b_branch2a
I1030 11:14:16.147614 26474 net.cpp:157] Top shape: 1 512 38 63 (1225728)
I1030 11:14:16.147616 26474 net.cpp:165] Memory required for data: 4418974548
I1030 11:14:16.147624 26474 layer_factory.hpp:77] Creating layer scale5b_branch2a
I1030 11:14:16.147631 26474 net.cpp:100] Creating Layer scale5b_branch2a
I1030 11:14:16.147635 26474 net.cpp:444] scale5b_branch2a <- res5b_branch2a
I1030 11:14:16.147642 26474 net.cpp:405] scale5b_branch2a -> res5b_branch2a (in-place)
I1030 11:14:16.147671 26474 layer_factory.hpp:77] Creating layer scale5b_branch2a
I1030 11:14:16.147753 26474 net.cpp:150] Setting up scale5b_branch2a
I1030 11:14:16.147759 26474 net.cpp:157] Top shape: 1 512 38 63 (1225728)
I1030 11:14:16.147763 26474 net.cpp:165] Memory required for data: 4423877460
I1030 11:14:16.147769 26474 layer_factory.hpp:77] Creating layer res5b_branch2a_relu
I1030 11:14:16.147776 26474 net.cpp:100] Creating Layer res5b_branch2a_relu
I1030 11:14:16.147780 26474 net.cpp:444] res5b_branch2a_relu <- res5b_branch2a
I1030 11:14:16.147786 26474 net.cpp:405] res5b_branch2a_relu -> res5b_branch2a (in-place)
I1030 11:14:16.147792 26474 net.cpp:150] Setting up res5b_branch2a_relu
I1030 11:14:16.147797 26474 net.cpp:157] Top shape: 1 512 38 63 (1225728)
I1030 11:14:16.147801 26474 net.cpp:165] Memory required for data: 4428780372
I1030 11:14:16.147805 26474 layer_factory.hpp:77] Creating layer res5b_branch2b
I1030 11:14:16.147814 26474 net.cpp:100] Creating Layer res5b_branch2b
I1030 11:14:16.147817 26474 net.cpp:444] res5b_branch2b <- res5b_branch2a
I1030 11:14:16.147822 26474 net.cpp:418] res5b_branch2b -> res5b_branch2b
I1030 11:14:16.151123 26474 net.cpp:150] Setting up res5b_branch2b
I1030 11:14:16.151151 26474 net.cpp:157] Top shape: 1 512 38 63 (1225728)
I1030 11:14:16.151154 26474 net.cpp:165] Memory required for data: 4433683284
I1030 11:14:16.151162 26474 layer_factory.hpp:77] Creating layer bn5b_branch2b
I1030 11:14:16.151172 26474 net.cpp:100] Creating Layer bn5b_branch2b
I1030 11:14:16.151180 26474 net.cpp:444] bn5b_branch2b <- res5b_branch2b
I1030 11:14:16.151186 26474 net.cpp:405] bn5b_branch2b -> res5b_branch2b (in-place)
I1030 11:14:16.151350 26474 net.cpp:150] Setting up bn5b_branch2b
I1030 11:14:16.151357 26474 net.cpp:157] Top shape: 1 512 38 63 (1225728)
I1030 11:14:16.151361 26474 net.cpp:165] Memory required for data: 4438586196
I1030 11:14:16.151371 26474 layer_factory.hpp:77] Creating layer scale5b_branch2b
I1030 11:14:16.151377 26474 net.cpp:100] Creating Layer scale5b_branch2b
I1030 11:14:16.151391 26474 net.cpp:444] scale5b_branch2b <- res5b_branch2b
I1030 11:14:16.151397 26474 net.cpp:405] scale5b_branch2b -> res5b_branch2b (in-place)
I1030 11:14:16.151429 26474 layer_factory.hpp:77] Creating layer scale5b_branch2b
I1030 11:14:16.151516 26474 net.cpp:150] Setting up scale5b_branch2b
I1030 11:14:16.151523 26474 net.cpp:157] Top shape: 1 512 38 63 (1225728)
I1030 11:14:16.151527 26474 net.cpp:165] Memory required for data: 4443489108
I1030 11:14:16.151535 26474 layer_factory.hpp:77] Creating layer res5b_branch2b_relu
I1030 11:14:16.151541 26474 net.cpp:100] Creating Layer res5b_branch2b_relu
I1030 11:14:16.151546 26474 net.cpp:444] res5b_branch2b_relu <- res5b_branch2b
I1030 11:14:16.151551 26474 net.cpp:405] res5b_branch2b_relu -> res5b_branch2b (in-place)
I1030 11:14:16.151559 26474 net.cpp:150] Setting up res5b_branch2b_relu
I1030 11:14:16.151564 26474 net.cpp:157] Top shape: 1 512 38 63 (1225728)
I1030 11:14:16.151568 26474 net.cpp:165] Memory required for data: 4448392020
I1030 11:14:16.151572 26474 layer_factory.hpp:77] Creating layer res5b_branch2c
I1030 11:14:16.151582 26474 net.cpp:100] Creating Layer res5b_branch2c
I1030 11:14:16.151587 26474 net.cpp:444] res5b_branch2c <- res5b_branch2b
I1030 11:14:16.151592 26474 net.cpp:418] res5b_branch2c -> res5b_branch2c
I1030 11:14:16.153208 26474 net.cpp:150] Setting up res5b_branch2c
I1030 11:14:16.153225 26474 net.cpp:157] Top shape: 1 2048 38 63 (4902912)
I1030 11:14:16.153228 26474 net.cpp:165] Memory required for data: 4468003668
I1030 11:14:16.153235 26474 layer_factory.hpp:77] Creating layer bn5b_branch2c
I1030 11:14:16.153244 26474 net.cpp:100] Creating Layer bn5b_branch2c
I1030 11:14:16.153250 26474 net.cpp:444] bn5b_branch2c <- res5b_branch2c
I1030 11:14:16.153256 26474 net.cpp:405] bn5b_branch2c -> res5b_branch2c (in-place)
I1030 11:14:16.153391 26474 net.cpp:150] Setting up bn5b_branch2c
I1030 11:14:16.153398 26474 net.cpp:157] Top shape: 1 2048 38 63 (4902912)
I1030 11:14:16.153401 26474 net.cpp:165] Memory required for data: 4487615316
I1030 11:14:16.153411 26474 layer_factory.hpp:77] Creating layer scale5b_branch2c
I1030 11:14:16.153420 26474 net.cpp:100] Creating Layer scale5b_branch2c
I1030 11:14:16.153424 26474 net.cpp:444] scale5b_branch2c <- res5b_branch2c
I1030 11:14:16.153430 26474 net.cpp:405] scale5b_branch2c -> res5b_branch2c (in-place)
I1030 11:14:16.153468 26474 layer_factory.hpp:77] Creating layer scale5b_branch2c
I1030 11:14:16.153558 26474 net.cpp:150] Setting up scale5b_branch2c
I1030 11:14:16.153565 26474 net.cpp:157] Top shape: 1 2048 38 63 (4902912)
I1030 11:14:16.153569 26474 net.cpp:165] Memory required for data: 4507226964
I1030 11:14:16.153576 26474 layer_factory.hpp:77] Creating layer res5b
I1030 11:14:16.153586 26474 net.cpp:100] Creating Layer res5b
I1030 11:14:16.153591 26474 net.cpp:444] res5b <- res5a_res5a_relu_0_split_1
I1030 11:14:16.153597 26474 net.cpp:444] res5b <- res5b_branch2c
I1030 11:14:16.153604 26474 net.cpp:418] res5b -> res5b
I1030 11:14:16.153638 26474 net.cpp:150] Setting up res5b
I1030 11:14:16.153645 26474 net.cpp:157] Top shape: 1 2048 38 63 (4902912)
I1030 11:14:16.153650 26474 net.cpp:165] Memory required for data: 4526838612
I1030 11:14:16.153656 26474 layer_factory.hpp:77] Creating layer res5b_relu
I1030 11:14:16.153664 26474 net.cpp:100] Creating Layer res5b_relu
I1030 11:14:16.153668 26474 net.cpp:444] res5b_relu <- res5b
I1030 11:14:16.153673 26474 net.cpp:405] res5b_relu -> res5b (in-place)
I1030 11:14:16.153681 26474 net.cpp:150] Setting up res5b_relu
I1030 11:14:16.153687 26474 net.cpp:157] Top shape: 1 2048 38 63 (4902912)
I1030 11:14:16.153690 26474 net.cpp:165] Memory required for data: 4546450260
I1030 11:14:16.153695 26474 layer_factory.hpp:77] Creating layer res5b_res5b_relu_0_split
I1030 11:14:16.153703 26474 net.cpp:100] Creating Layer res5b_res5b_relu_0_split
I1030 11:14:16.153707 26474 net.cpp:444] res5b_res5b_relu_0_split <- res5b
I1030 11:14:16.153712 26474 net.cpp:418] res5b_res5b_relu_0_split -> res5b_res5b_relu_0_split_0
I1030 11:14:16.153720 26474 net.cpp:418] res5b_res5b_relu_0_split -> res5b_res5b_relu_0_split_1
I1030 11:14:16.153758 26474 net.cpp:150] Setting up res5b_res5b_relu_0_split
I1030 11:14:16.153764 26474 net.cpp:157] Top shape: 1 2048 38 63 (4902912)
I1030 11:14:16.153769 26474 net.cpp:157] Top shape: 1 2048 38 63 (4902912)
I1030 11:14:16.153774 26474 net.cpp:165] Memory required for data: 4585673556
I1030 11:14:16.153779 26474 layer_factory.hpp:77] Creating layer res5c_branch2a
I1030 11:14:16.153791 26474 net.cpp:100] Creating Layer res5c_branch2a
I1030 11:14:16.153796 26474 net.cpp:444] res5c_branch2a <- res5b_res5b_relu_0_split_0
I1030 11:14:16.153803 26474 net.cpp:418] res5c_branch2a -> res5c_branch2a
I1030 11:14:16.157176 26474 net.cpp:150] Setting up res5c_branch2a
I1030 11:14:16.157225 26474 net.cpp:157] Top shape: 1 512 38 63 (1225728)
I1030 11:14:16.157230 26474 net.cpp:165] Memory required for data: 4590576468
I1030 11:14:16.157244 26474 layer_factory.hpp:77] Creating layer bn5c_branch2a
I1030 11:14:16.157261 26474 net.cpp:100] Creating Layer bn5c_branch2a
I1030 11:14:16.157270 26474 net.cpp:444] bn5c_branch2a <- res5c_branch2a
I1030 11:14:16.157279 26474 net.cpp:405] bn5c_branch2a -> res5c_branch2a (in-place)
I1030 11:14:16.157480 26474 net.cpp:150] Setting up bn5c_branch2a
I1030 11:14:16.157487 26474 net.cpp:157] Top shape: 1 512 38 63 (1225728)
I1030 11:14:16.157491 26474 net.cpp:165] Memory required for data: 4595479380
I1030 11:14:16.157501 26474 layer_factory.hpp:77] Creating layer scale5c_branch2a
I1030 11:14:16.157511 26474 net.cpp:100] Creating Layer scale5c_branch2a
I1030 11:14:16.157516 26474 net.cpp:444] scale5c_branch2a <- res5c_branch2a
I1030 11:14:16.157523 26474 net.cpp:405] scale5c_branch2a -> res5c_branch2a (in-place)
I1030 11:14:16.157560 26474 layer_factory.hpp:77] Creating layer scale5c_branch2a
I1030 11:14:16.157676 26474 net.cpp:150] Setting up scale5c_branch2a
I1030 11:14:16.157682 26474 net.cpp:157] Top shape: 1 512 38 63 (1225728)
I1030 11:14:16.157686 26474 net.cpp:165] Memory required for data: 4600382292
I1030 11:14:16.157693 26474 layer_factory.hpp:77] Creating layer res5c_branch2a_relu
I1030 11:14:16.157699 26474 net.cpp:100] Creating Layer res5c_branch2a_relu
I1030 11:14:16.157704 26474 net.cpp:444] res5c_branch2a_relu <- res5c_branch2a
I1030 11:14:16.157709 26474 net.cpp:405] res5c_branch2a_relu -> res5c_branch2a (in-place)
I1030 11:14:16.157716 26474 net.cpp:150] Setting up res5c_branch2a_relu
I1030 11:14:16.157721 26474 net.cpp:157] Top shape: 1 512 38 63 (1225728)
I1030 11:14:16.157726 26474 net.cpp:165] Memory required for data: 4605285204
I1030 11:14:16.157729 26474 layer_factory.hpp:77] Creating layer res5c_branch2b
I1030 11:14:16.157738 26474 net.cpp:100] Creating Layer res5c_branch2b
I1030 11:14:16.157742 26474 net.cpp:444] res5c_branch2b <- res5c_branch2a
I1030 11:14:16.157747 26474 net.cpp:418] res5c_branch2b -> res5c_branch2b
I1030 11:14:16.161026 26474 net.cpp:150] Setting up res5c_branch2b
I1030 11:14:16.161058 26474 net.cpp:157] Top shape: 1 512 38 63 (1225728)
I1030 11:14:16.161062 26474 net.cpp:165] Memory required for data: 4610188116
I1030 11:14:16.161070 26474 layer_factory.hpp:77] Creating layer bn5c_branch2b
I1030 11:14:16.161082 26474 net.cpp:100] Creating Layer bn5c_branch2b
I1030 11:14:16.161088 26474 net.cpp:444] bn5c_branch2b <- res5c_branch2b
I1030 11:14:16.161097 26474 net.cpp:405] bn5c_branch2b -> res5c_branch2b (in-place)
I1030 11:14:16.161249 26474 net.cpp:150] Setting up bn5c_branch2b
I1030 11:14:16.161257 26474 net.cpp:157] Top shape: 1 512 38 63 (1225728)
I1030 11:14:16.161260 26474 net.cpp:165] Memory required for data: 4615091028
I1030 11:14:16.161268 26474 layer_factory.hpp:77] Creating layer scale5c_branch2b
I1030 11:14:16.161275 26474 net.cpp:100] Creating Layer scale5c_branch2b
I1030 11:14:16.161279 26474 net.cpp:444] scale5c_branch2b <- res5c_branch2b
I1030 11:14:16.161283 26474 net.cpp:405] scale5c_branch2b -> res5c_branch2b (in-place)
I1030 11:14:16.161315 26474 layer_factory.hpp:77] Creating layer scale5c_branch2b
I1030 11:14:16.161399 26474 net.cpp:150] Setting up scale5c_branch2b
I1030 11:14:16.161406 26474 net.cpp:157] Top shape: 1 512 38 63 (1225728)
I1030 11:14:16.161411 26474 net.cpp:165] Memory required for data: 4619993940
I1030 11:14:16.161417 26474 layer_factory.hpp:77] Creating layer res5c_branch2b_relu
I1030 11:14:16.161424 26474 net.cpp:100] Creating Layer res5c_branch2b_relu
I1030 11:14:16.161429 26474 net.cpp:444] res5c_branch2b_relu <- res5c_branch2b
I1030 11:14:16.161434 26474 net.cpp:405] res5c_branch2b_relu -> res5c_branch2b (in-place)
I1030 11:14:16.161442 26474 net.cpp:150] Setting up res5c_branch2b_relu
I1030 11:14:16.161447 26474 net.cpp:157] Top shape: 1 512 38 63 (1225728)
I1030 11:14:16.161450 26474 net.cpp:165] Memory required for data: 4624896852
I1030 11:14:16.161453 26474 layer_factory.hpp:77] Creating layer res5c_branch2c
I1030 11:14:16.161463 26474 net.cpp:100] Creating Layer res5c_branch2c
I1030 11:14:16.161465 26474 net.cpp:444] res5c_branch2c <- res5c_branch2b
I1030 11:14:16.161471 26474 net.cpp:418] res5c_branch2c -> res5c_branch2c
I1030 11:14:16.162853 26474 net.cpp:150] Setting up res5c_branch2c
I1030 11:14:16.162864 26474 net.cpp:157] Top shape: 1 2048 38 63 (4902912)
I1030 11:14:16.162868 26474 net.cpp:165] Memory required for data: 4644508500
I1030 11:14:16.162874 26474 layer_factory.hpp:77] Creating layer bn5c_branch2c
I1030 11:14:16.162883 26474 net.cpp:100] Creating Layer bn5c_branch2c
I1030 11:14:16.162889 26474 net.cpp:444] bn5c_branch2c <- res5c_branch2c
I1030 11:14:16.162894 26474 net.cpp:405] bn5c_branch2c -> res5c_branch2c (in-place)
I1030 11:14:16.163022 26474 net.cpp:150] Setting up bn5c_branch2c
I1030 11:14:16.163029 26474 net.cpp:157] Top shape: 1 2048 38 63 (4902912)
I1030 11:14:16.163033 26474 net.cpp:165] Memory required for data: 4664120148
I1030 11:14:16.163040 26474 layer_factory.hpp:77] Creating layer scale5c_branch2c
I1030 11:14:16.163048 26474 net.cpp:100] Creating Layer scale5c_branch2c
I1030 11:14:16.163051 26474 net.cpp:444] scale5c_branch2c <- res5c_branch2c
I1030 11:14:16.163058 26474 net.cpp:405] scale5c_branch2c -> res5c_branch2c (in-place)
I1030 11:14:16.163089 26474 layer_factory.hpp:77] Creating layer scale5c_branch2c
I1030 11:14:16.163187 26474 net.cpp:150] Setting up scale5c_branch2c
I1030 11:14:16.163192 26474 net.cpp:157] Top shape: 1 2048 38 63 (4902912)
I1030 11:14:16.163195 26474 net.cpp:165] Memory required for data: 4683731796
I1030 11:14:16.163203 26474 layer_factory.hpp:77] Creating layer res5c
I1030 11:14:16.163209 26474 net.cpp:100] Creating Layer res5c
I1030 11:14:16.163213 26474 net.cpp:444] res5c <- res5b_res5b_relu_0_split_1
I1030 11:14:16.163219 26474 net.cpp:444] res5c <- res5c_branch2c
I1030 11:14:16.163224 26474 net.cpp:418] res5c -> res5c
I1030 11:14:16.163245 26474 net.cpp:150] Setting up res5c
I1030 11:14:16.163250 26474 net.cpp:157] Top shape: 1 2048 38 63 (4902912)
I1030 11:14:16.163255 26474 net.cpp:165] Memory required for data: 4703343444
I1030 11:14:16.163259 26474 layer_factory.hpp:77] Creating layer res5c_relu
I1030 11:14:16.163265 26474 net.cpp:100] Creating Layer res5c_relu
I1030 11:14:16.163269 26474 net.cpp:444] res5c_relu <- res5c
I1030 11:14:16.163275 26474 net.cpp:405] res5c_relu -> res5c (in-place)
I1030 11:14:16.163280 26474 net.cpp:150] Setting up res5c_relu
I1030 11:14:16.163295 26474 net.cpp:157] Top shape: 1 2048 38 63 (4902912)
I1030 11:14:16.163300 26474 net.cpp:165] Memory required for data: 4722955092
I1030 11:14:16.163303 26474 layer_factory.hpp:77] Creating layer rpn_conv/3x3
I1030 11:14:16.163313 26474 net.cpp:100] Creating Layer rpn_conv/3x3
I1030 11:14:16.163318 26474 net.cpp:444] rpn_conv/3x3 <- res4b22_res4b22_relu_0_split_2
I1030 11:14:16.163326 26474 net.cpp:418] rpn_conv/3x3 -> rpn/output
I1030 11:14:16.269664 26474 net.cpp:150] Setting up rpn_conv/3x3
I1030 11:14:16.269697 26474 net.cpp:157] Top shape: 1 512 38 63 (1225728)
I1030 11:14:16.269701 26474 net.cpp:165] Memory required for data: 4727858004
I1030 11:14:16.269712 26474 layer_factory.hpp:77] Creating layer rpn_relu/3x3
I1030 11:14:16.269727 26474 net.cpp:100] Creating Layer rpn_relu/3x3
I1030 11:14:16.269734 26474 net.cpp:444] rpn_relu/3x3 <- rpn/output
I1030 11:14:16.269742 26474 net.cpp:405] rpn_relu/3x3 -> rpn/output (in-place)
I1030 11:14:16.269752 26474 net.cpp:150] Setting up rpn_relu/3x3
I1030 11:14:16.269757 26474 net.cpp:157] Top shape: 1 512 38 63 (1225728)
I1030 11:14:16.269762 26474 net.cpp:165] Memory required for data: 4732760916
I1030 11:14:16.269767 26474 layer_factory.hpp:77] Creating layer rpn/output_rpn_relu/3x3_0_split
I1030 11:14:16.269775 26474 net.cpp:100] Creating Layer rpn/output_rpn_relu/3x3_0_split
I1030 11:14:16.269779 26474 net.cpp:444] rpn/output_rpn_relu/3x3_0_split <- rpn/output
I1030 11:14:16.269785 26474 net.cpp:418] rpn/output_rpn_relu/3x3_0_split -> rpn/output_rpn_relu/3x3_0_split_0
I1030 11:14:16.269793 26474 net.cpp:418] rpn/output_rpn_relu/3x3_0_split -> rpn/output_rpn_relu/3x3_0_split_1
I1030 11:14:16.269824 26474 net.cpp:150] Setting up rpn/output_rpn_relu/3x3_0_split
I1030 11:14:16.269829 26474 net.cpp:157] Top shape: 1 512 38 63 (1225728)
I1030 11:14:16.269835 26474 net.cpp:157] Top shape: 1 512 38 63 (1225728)
I1030 11:14:16.269840 26474 net.cpp:165] Memory required for data: 4742566740
I1030 11:14:16.269845 26474 layer_factory.hpp:77] Creating layer rpn_cls_score
I1030 11:14:16.269855 26474 net.cpp:100] Creating Layer rpn_cls_score
I1030 11:14:16.269860 26474 net.cpp:444] rpn_cls_score <- rpn/output_rpn_relu/3x3_0_split_0
I1030 11:14:16.269866 26474 net.cpp:418] rpn_cls_score -> rpn_cls_score
I1030 11:14:16.270249 26474 net.cpp:150] Setting up rpn_cls_score
I1030 11:14:16.270256 26474 net.cpp:157] Top shape: 1 18 38 63 (43092)
I1030 11:14:16.270261 26474 net.cpp:165] Memory required for data: 4742739108
I1030 11:14:16.270267 26474 layer_factory.hpp:77] Creating layer rpn_cls_score_rpn_cls_score_0_split
I1030 11:14:16.270273 26474 net.cpp:100] Creating Layer rpn_cls_score_rpn_cls_score_0_split
I1030 11:14:16.270278 26474 net.cpp:444] rpn_cls_score_rpn_cls_score_0_split <- rpn_cls_score
I1030 11:14:16.270283 26474 net.cpp:418] rpn_cls_score_rpn_cls_score_0_split -> rpn_cls_score_rpn_cls_score_0_split_0
I1030 11:14:16.270292 26474 net.cpp:418] rpn_cls_score_rpn_cls_score_0_split -> rpn_cls_score_rpn_cls_score_0_split_1
I1030 11:14:16.270319 26474 net.cpp:150] Setting up rpn_cls_score_rpn_cls_score_0_split
I1030 11:14:16.270325 26474 net.cpp:157] Top shape: 1 18 38 63 (43092)
I1030 11:14:16.270329 26474 net.cpp:157] Top shape: 1 18 38 63 (43092)
I1030 11:14:16.270334 26474 net.cpp:165] Memory required for data: 4743083844
I1030 11:14:16.270337 26474 layer_factory.hpp:77] Creating layer rpn_bbox_pred
I1030 11:14:16.270346 26474 net.cpp:100] Creating Layer rpn_bbox_pred
I1030 11:14:16.270350 26474 net.cpp:444] rpn_bbox_pred <- rpn/output_rpn_relu/3x3_0_split_1
I1030 11:14:16.270356 26474 net.cpp:418] rpn_bbox_pred -> rpn_bbox_pred
I1030 11:14:16.270915 26474 net.cpp:150] Setting up rpn_bbox_pred
I1030 11:14:16.270921 26474 net.cpp:157] Top shape: 1 36 38 63 (86184)
I1030 11:14:16.270925 26474 net.cpp:165] Memory required for data: 4743428580
I1030 11:14:16.270932 26474 layer_factory.hpp:77] Creating layer rpn_bbox_pred_rpn_bbox_pred_0_split
I1030 11:14:16.270938 26474 net.cpp:100] Creating Layer rpn_bbox_pred_rpn_bbox_pred_0_split
I1030 11:14:16.270942 26474 net.cpp:444] rpn_bbox_pred_rpn_bbox_pred_0_split <- rpn_bbox_pred
I1030 11:14:16.270948 26474 net.cpp:418] rpn_bbox_pred_rpn_bbox_pred_0_split -> rpn_bbox_pred_rpn_bbox_pred_0_split_0
I1030 11:14:16.270956 26474 net.cpp:418] rpn_bbox_pred_rpn_bbox_pred_0_split -> rpn_bbox_pred_rpn_bbox_pred_0_split_1
I1030 11:14:16.270983 26474 net.cpp:150] Setting up rpn_bbox_pred_rpn_bbox_pred_0_split
I1030 11:14:16.270989 26474 net.cpp:157] Top shape: 1 36 38 63 (86184)
I1030 11:14:16.270994 26474 net.cpp:157] Top shape: 1 36 38 63 (86184)
I1030 11:14:16.270998 26474 net.cpp:165] Memory required for data: 4744118052
I1030 11:14:16.271011 26474 layer_factory.hpp:77] Creating layer rpn_cls_score_reshape
I1030 11:14:16.271023 26474 net.cpp:100] Creating Layer rpn_cls_score_reshape
I1030 11:14:16.271028 26474 net.cpp:444] rpn_cls_score_reshape <- rpn_cls_score_rpn_cls_score_0_split_0
I1030 11:14:16.271034 26474 net.cpp:418] rpn_cls_score_reshape -> rpn_cls_score_reshape
I1030 11:14:16.271059 26474 net.cpp:150] Setting up rpn_cls_score_reshape
I1030 11:14:16.271072 26474 net.cpp:157] Top shape: 1 2 342 63 (43092)
I1030 11:14:16.271076 26474 net.cpp:165] Memory required for data: 4744290420
I1030 11:14:16.271080 26474 layer_factory.hpp:77] Creating layer rpn_cls_score_reshape_rpn_cls_score_reshape_0_split
I1030 11:14:16.271086 26474 net.cpp:100] Creating Layer rpn_cls_score_reshape_rpn_cls_score_reshape_0_split
I1030 11:14:16.271090 26474 net.cpp:444] rpn_cls_score_reshape_rpn_cls_score_reshape_0_split <- rpn_cls_score_reshape
I1030 11:14:16.271096 26474 net.cpp:418] rpn_cls_score_reshape_rpn_cls_score_reshape_0_split -> rpn_cls_score_reshape_rpn_cls_score_reshape_0_split_0
I1030 11:14:16.271103 26474 net.cpp:418] rpn_cls_score_reshape_rpn_cls_score_reshape_0_split -> rpn_cls_score_reshape_rpn_cls_score_reshape_0_split_1
I1030 11:14:16.271129 26474 net.cpp:150] Setting up rpn_cls_score_reshape_rpn_cls_score_reshape_0_split
I1030 11:14:16.271136 26474 net.cpp:157] Top shape: 1 2 342 63 (43092)
I1030 11:14:16.271141 26474 net.cpp:157] Top shape: 1 2 342 63 (43092)
I1030 11:14:16.271144 26474 net.cpp:165] Memory required for data: 4744635156
I1030 11:14:16.271149 26474 layer_factory.hpp:77] Creating layer rpn-data
I1030 11:14:16.271497 26474 net.cpp:100] Creating Layer rpn-data
I1030 11:14:16.271504 26474 net.cpp:444] rpn-data <- rpn_cls_score_rpn_cls_score_0_split_1
I1030 11:14:16.271512 26474 net.cpp:444] rpn-data <- gt_boxes_input-data_2_split_0
I1030 11:14:16.271517 26474 net.cpp:444] rpn-data <- im_info_input-data_1_split_0
I1030 11:14:16.271522 26474 net.cpp:444] rpn-data <- data_input-data_0_split_1
I1030 11:14:16.271529 26474 net.cpp:418] rpn-data -> rpn_labels
I1030 11:14:16.271538 26474 net.cpp:418] rpn-data -> rpn_bbox_targets
I1030 11:14:16.271545 26474 net.cpp:418] rpn-data -> rpn_bbox_inside_weights
I1030 11:14:16.271553 26474 net.cpp:418] rpn-data -> rpn_bbox_outside_weights
I1030 11:14:16.272075 26474 net.cpp:150] Setting up rpn-data
I1030 11:14:16.272086 26474 net.cpp:157] Top shape: 1 1 342 63 (21546)
I1030 11:14:16.272091 26474 net.cpp:157] Top shape: 1 36 38 63 (86184)
I1030 11:14:16.272097 26474 net.cpp:157] Top shape: 1 36 38 63 (86184)
I1030 11:14:16.272102 26474 net.cpp:157] Top shape: 1 36 38 63 (86184)
I1030 11:14:16.272106 26474 net.cpp:165] Memory required for data: 4745755548
I1030 11:14:16.272110 26474 layer_factory.hpp:77] Creating layer rpn_loss_cls
I1030 11:14:16.272119 26474 net.cpp:100] Creating Layer rpn_loss_cls
I1030 11:14:16.272124 26474 net.cpp:444] rpn_loss_cls <- rpn_cls_score_reshape_rpn_cls_score_reshape_0_split_0
I1030 11:14:16.272130 26474 net.cpp:444] rpn_loss_cls <- rpn_labels
…
I1030 11:14:16.273035 26474 net.cpp:157] Top shape: (1)
I1030 11:14:16.273037 26474 net.cpp:160]     with loss weight 1
I1030 11:14:16.273043 26474 net.cpp:165] Memory required for data: 4745755556
I1030 11:14:16.273048 26474 layer_factory.hpp:77] Creating layer rpn_cls_prob
I1030 11:14:16.273054 26474 net.cpp:100] Creating Layer rpn_cls_prob
I1030 11:14:16.273058 26474 net.cpp:444] rpn_cls_prob <- rpn_cls_score_reshape_rpn_cls_score_reshape_0_split_1
I1030 11:14:16.273066 26474 net.cpp:418] rpn_cls_prob -> rpn_cls_prob
I1030 11:14:16.273111 26474 net.cpp:150] Setting up rpn_cls_prob
I1030 11:14:16.273118 26474 net.cpp:157] Top shape: 1 2 342 63 (43092)
I1030 11:14:16.273123 26474 net.cpp:165] Memory required for data: 4745927924
I1030 11:14:16.273126 26474 layer_factory.hpp:77] Creating layer rpn_cls_prob_reshape
I1030 11:14:16.273133 26474 net.cpp:100] Creating Layer rpn_cls_prob_reshape
I1030 11:14:16.273138 26474 net.cpp:444] rpn_cls_prob_reshape <- rpn_cls_prob
I1030 11:14:16.273144 26474 net.cpp:418] rpn_cls_prob_reshape -> rpn_cls_prob_reshape
I1030 11:14:16.273165 26474 net.cpp:150] Setting up rpn_cls_prob_reshape
I1030 11:14:16.273170 26474 net.cpp:157] Top shape: 1 18 38 63 (43092)
I1030 11:14:16.273175 26474 net.cpp:165] Memory required for data: 4746100292
I1030 11:14:16.273180 26474 layer_factory.hpp:77] Creating layer proposal
I1030 11:14:16.273710 26474 net.cpp:100] Creating Layer proposal
I1030 11:14:16.273720 26474 net.cpp:444] proposal <- rpn_cls_prob_reshape
I1030 11:14:16.273725 26474 net.cpp:444] proposal <- rpn_bbox_pred_rpn_bbox_pred_0_split_1
I1030 11:14:16.273730 26474 net.cpp:444] proposal <- im_info_input-data_1_split_1
I1030 11:14:16.273737 26474 net.cpp:418] proposal -> rpn_rois
I1030 11:14:16.274294 26474 net.cpp:150] Setting up proposal
I1030 11:14:16.274304 26474 net.cpp:157] Top shape: 1 5 (5)
I1030 11:14:16.274308 26474 net.cpp:165] Memory required for data: 4746100312
I1030 11:14:16.274312 26474 layer_factory.hpp:77] Creating layer roi-data
I1030 11:14:16.274410 26474 net.cpp:100] Creating Layer roi-data
I1030 11:14:16.274418 26474 net.cpp:444] roi-data <- rpn_rois
I1030 11:14:16.274423 26474 net.cpp:444] roi-data <- gt_boxes_input-data_2_split_1
I1030 11:14:16.274430 26474 net.cpp:418] roi-data -> rois
I1030 11:14:16.274438 26474 net.cpp:418] roi-data -> labels
I1030 11:14:16.274447 26474 net.cpp:418] roi-data -> bbox_targets
I1030 11:14:16.274454 26474 net.cpp:418] roi-data -> bbox_inside_weights
I1030 11:14:16.274461 26474 net.cpp:418] roi-data -> bbox_outside_weights
I1030 11:14:16.274735 26474 net.cpp:150] Setting up roi-data
I1030 11:14:16.274745 26474 net.cpp:157] Top shape: 1 5 1 1 (5)
I1030 11:14:16.274750 26474 net.cpp:157] Top shape: 1 1 1 1 (1)
I1030 11:14:16.274755 26474 net.cpp:157] Top shape: 1 8 1 1 (8)
I1030 11:14:16.274761 26474 net.cpp:157] Top shape: 1 8 1 1 (8)
I1030 11:14:16.274765 26474 net.cpp:157] Top shape: 1 8 1 1 (8)
I1030 11:14:16.274770 26474 net.cpp:165] Memory required for data: 4746100432
I1030 11:14:16.274773 26474 layer_factory.hpp:77] Creating layer rois_roi-data_0_split
I1030 11:14:16.274780 26474 net.cpp:100] Creating Layer rois_roi-data_0_split
I1030 11:14:16.274785 26474 net.cpp:444] rois_roi-data_0_split <- rois
I1030 11:14:16.274791 26474 net.cpp:418] rois_roi-data_0_split -> rois_roi-data_0_split_0
I1030 11:14:16.274798 26474 net.cpp:418] rois_roi-data_0_split -> rois_roi-data_0_split_1
I1030 11:14:16.274806 26474 net.cpp:418] rois_roi-data_0_split -> rois_roi-data_0_split_2
I1030 11:14:16.274840 26474 net.cpp:150] Setting up rois_roi-data_0_split
I1030 11:14:16.274847 26474 net.cpp:157] Top shape: 1 5 1 1 (5)
I1030 11:14:16.274852 26474 net.cpp:157] Top shape: 1 5 1 1 (5)
I1030 11:14:16.274857 26474 net.cpp:157] Top shape: 1 5 1 1 (5)
I1030 11:14:16.274862 26474 net.cpp:165] Memory required for data: 4746100492
I1030 11:14:16.274866 26474 layer_factory.hpp:77] Creating layer labels_roi-data_1_split
I1030 11:14:16.274871 26474 net.cpp:100] Creating Layer labels_roi-data_1_split
I1030 11:14:16.274875 26474 net.cpp:444] labels_roi-data_1_split <- labels
I1030 11:14:16.274881 26474 net.cpp:418] labels_roi-data_1_split -> labels_roi-data_1_split_0
I1030 11:14:16.274888 26474 net.cpp:418] labels_roi-data_1_split -> labels_roi-data_1_split_1
I1030 11:14:16.274914 26474 net.cpp:150] Setting up labels_roi-data_1_split
I1030 11:14:16.274920 26474 net.cpp:157] Top shape: 1 1 1 1 (1)
I1030 11:14:16.274924 26474 net.cpp:157] Top shape: 1 1 1 1 (1)
I1030 11:14:16.274929 26474 net.cpp:165] Memory required for data: 4746100500
I1030 11:14:16.274931 26474 layer_factory.hpp:77] Creating layer bbox_targets_roi-data_2_split
I1030 11:14:16.274937 26474 net.cpp:100] Creating Layer bbox_targets_roi-data_2_split
I1030 11:14:16.274942 26474 net.cpp:444] bbox_targets_roi-data_2_split <- bbox_targets
I1030 11:14:16.274947 26474 net.cpp:418] bbox_targets_roi-data_2_split -> bbox_targets_roi-data_2_split_0
I1030 11:14:16.274955 26474 net.cpp:418] bbox_targets_roi-data_2_split -> bbox_targets_roi-data_2_split_1
I1030 11:14:16.274981 26474 net.cpp:150] Setting up bbox_targets_roi-data_2_split
I1030 11:14:16.274986 26474 net.cpp:157] Top shape: 1 8 1 1 (8)
I1030 11:14:16.274991 26474 net.cpp:157] Top shape: 1 8 1 1 (8)
I1030 11:14:16.274996 26474 net.cpp:165] Memory required for data: 4746100564
I1030 11:14:16.275001 26474 layer_factory.hpp:77] Creating layer bbox_inside_weights_roi-data_3_split
I1030 11:14:16.275007 26474 net.cpp:100] Creating Layer bbox_inside_weights_roi-data_3_split
I1030 11:14:16.275010 26474 net.cpp:444] bbox_inside_weights_roi-data_3_split <- bbox_inside_weights
I1030 11:14:16.275015 26474 net.cpp:418] bbox_inside_weights_roi-data_3_split -> bbox_inside_weights_roi-data_3_split_0
I1030 11:14:16.275022 26474 net.cpp:418] bbox_inside_weights_roi-data_3_split -> bbox_inside_weights_roi-data_3_split_1
I1030 11:14:16.275048 26474 net.cpp:150] Setting up bbox_inside_weights_roi-data_3_split
I1030 11:14:16.275053 26474 net.cpp:157] Top shape: 1 8 1 1 (8)
I1030 11:14:16.275056 26474 net.cpp:157] Top shape: 1 8 1 1 (8)
I1030 11:14:16.275060 26474 net.cpp:165] Memory required for data: 4746100628
I1030 11:14:16.275064 26474 layer_factory.hpp:77] Creating layer conv_new_1
I1030 11:14:16.275074 26474 net.cpp:100] Creating Layer conv_new_1
I1030 11:14:16.275077 26474 net.cpp:444] conv_new_1 <- res5c
I1030 11:14:16.275084 26474 net.cpp:418] conv_new_1 -> conv_new_1
I1030 11:14:16.321593 26474 net.cpp:150] Setting up conv_new_1
I1030 11:14:16.321619 26474 net.cpp:157] Top shape: 1 1024 38 63 (2451456)
I1030 11:14:16.321624 26474 net.cpp:165] Memory required for data: 4755906452
I1030 11:14:16.321635 26474 layer_factory.hpp:77] Creating layer conv_new_1_relu
I1030 11:14:16.321643 26474 net.cpp:100] Creating Layer conv_new_1_relu
I1030 11:14:16.321651 26474 net.cpp:444] conv_new_1_relu <- conv_new_1
I1030 11:14:16.321660 26474 net.cpp:405] conv_new_1_relu -> conv_new_1 (in-place)
I1030 11:14:16.321669 26474 net.cpp:150] Setting up conv_new_1_relu
I1030 11:14:16.321673 26474 net.cpp:157] Top shape: 1 1024 38 63 (2451456)
I1030 11:14:16.321678 26474 net.cpp:165] Memory required for data: 4765712276
I1030 11:14:16.321684 26474 layer_factory.hpp:77] Creating layer conv_new_1_conv_new_1_relu_0_split
I1030 11:14:16.321691 26474 net.cpp:100] Creating Layer conv_new_1_conv_new_1_relu_0_split
I1030 11:14:16.321696 26474 net.cpp:444] conv_new_1_conv_new_1_relu_0_split <- conv_new_1
I1030 11:14:16.321701 26474 net.cpp:418] conv_new_1_conv_new_1_relu_0_split -> conv_new_1_conv_new_1_relu_0_split_0
I1030 11:14:16.321707 26474 net.cpp:418] conv_new_1_conv_new_1_relu_0_split -> conv_new_1_conv_new_1_relu_0_split_1
I1030 11:14:16.321738 26474 net.cpp:150] Setting up conv_new_1_conv_new_1_relu_0_split
I1030 11:14:16.321744 26474 net.cpp:157] Top shape: 1 1024 38 63 (2451456)
I1030 11:14:16.321750 26474 net.cpp:157] Top shape: 1 1024 38 63 (2451456)
I1030 11:14:16.321754 26474 net.cpp:165] Memory required for data: 4785323924
I1030 11:14:16.321758 26474 layer_factory.hpp:77] Creating layer rfcn_cls
I1030 11:14:16.321768 26474 net.cpp:100] Creating Layer rfcn_cls
I1030 11:14:16.321773 26474 net.cpp:444] rfcn_cls <- conv_new_1_conv_new_1_relu_0_split_0
I1030 11:14:16.321780 26474 net.cpp:418] rfcn_cls -> rfcn_cls
I1030 11:14:16.345657 26474 net.cpp:150] Setting up rfcn_cls
I1030 11:14:16.345684 26474 net.cpp:157] Top shape: 1 1029 38 63 (2463426)
I1030 11:14:16.345686 26474 net.cpp:165] Memory required for data: 4795177628
I1030 11:14:16.345697 26474 layer_factory.hpp:77] Creating layer rfcn_bbox
I1030 11:14:16.345711 26474 net.cpp:100] Creating Layer rfcn_bbox
I1030 11:14:16.345721 26474 net.cpp:444] rfcn_bbox <- conv_new_1_conv_new_1_relu_0_split_1
I1030 11:14:16.345732 26474 net.cpp:418] rfcn_bbox -> rfcn_bbox
I1030 11:14:16.355023 26474 net.cpp:150] Setting up rfcn_bbox
I1030 11:14:16.355051 26474 net.cpp:157] Top shape: 1 392 38 63 (938448)
I1030 11:14:16.355056 26474 net.cpp:165] Memory required for data: 4798931420
I1030 11:14:16.355065 26474 layer_factory.hpp:77] Creating layer psroipooled_cls_rois
I1030 11:14:16.355084 26474 net.cpp:100] Creating Layer psroipooled_cls_rois
I1030 11:14:16.355092 26474 net.cpp:444] psroipooled_cls_rois <- rfcn_cls
I1030 11:14:16.355099 26474 net.cpp:444] psroipooled_cls_rois <- rois_roi-data_0_split_0
I1030 11:14:16.355108 26474 net.cpp:418] psroipooled_cls_rois -> psroipooled_cls_rois
I1030 11:14:16.355119 26474 psroi_pooling_layer.cpp:26] Spatial scale: 0.0625
I1030 11:14:16.355157 26474 net.cpp:150] Setting up psroipooled_cls_rois
I1030 11:14:16.355164 26474 net.cpp:157] Top shape: 1 21 7 7 (1029)
I1030 11:14:16.355168 26474 net.cpp:165] Memory required for data: 4798935536
I1030 11:14:16.355172 26474 layer_factory.hpp:77] Creating layer ave_cls_score_rois
I1030 11:14:16.355180 26474 net.cpp:100] Creating Layer ave_cls_score_rois
I1030 11:14:16.355185 26474 net.cpp:444] ave_cls_score_rois <- psroipooled_cls_rois
I1030 11:14:16.355190 26474 net.cpp:418] ave_cls_score_rois -> cls_score
I1030 11:14:16.355212 26474 net.cpp:150] Setting up ave_cls_score_rois
I1030 11:14:16.355218 26474 net.cpp:157] Top shape: 1 21 1 1 (21)
I1030 11:14:16.355222 26474 net.cpp:165] Memory required for data: 4798935620
I1030 11:14:16.355227 26474 layer_factory.hpp:77] Creating layer cls_score_ave_cls_score_rois_0_split
I1030 11:14:16.355234 26474 net.cpp:100] Creating Layer cls_score_ave_cls_score_rois_0_split
I1030 11:14:16.355238 26474 net.cpp:444] cls_score_ave_cls_score_rois_0_split <- cls_score
I1030 11:14:16.355244 26474 net.cpp:418] cls_score_ave_cls_score_rois_0_split -> cls_score_ave_cls_score_rois_0_split_0
I1030 11:14:16.355254 26474 net.cpp:418] cls_score_ave_cls_score_rois_0_split -> cls_score_ave_cls_score_rois_0_split_1
I1030 11:14:16.355260 26474 net.cpp:418] cls_score_ave_cls_score_rois_0_split -> cls_score_ave_cls_score_rois_0_split_2
I1030 11:14:16.355296 26474 net.cpp:150] Setting up cls_score_ave_cls_score_rois_0_split
I1030 11:14:16.355304 26474 net.cpp:157] Top shape: 1 21 1 1 (21)
I1030 11:14:16.355309 26474 net.cpp:157] Top shape: 1 21 1 1 (21)
I1030 11:14:16.355314 26474 net.cpp:157] Top shape: 1 21 1 1 (21)
I1030 11:14:16.355317 26474 net.cpp:165] Memory required for data: 4798935872
I1030 11:14:16.355321 26474 layer_factory.hpp:77] Creating layer psroipooled_loc_rois
I1030 11:14:16.355329 26474 net.cpp:100] Creating Layer psroipooled_loc_rois
I1030 11:14:16.355332 26474 net.cpp:444] psroipooled_loc_rois <- rfcn_bbox
I1030 11:14:16.355339 26474 net.cpp:444] psroipooled_loc_rois <- rois_roi-data_0_split_1
I1030 11:14:16.355345 26474 net.cpp:418] psroipooled_loc_rois -> psroipooled_loc_rois
I1030 11:14:16.355351 26474 psroi_pooling_layer.cpp:26] Spatial scale: 0.0625
I1030 11:14:16.355378 26474 net.cpp:150] Setting up psroipooled_loc_rois
I1030 11:14:16.355384 26474 net.cpp:157] Top shape: 1 8 7 7 (392)
I1030 11:14:16.355388 26474 net.cpp:165] Memory required for data: 4798937440
I1030 11:14:16.355393 26474 layer_factory.hpp:77] Creating layer ave_bbox_pred_rois
I1030 11:14:16.355406 26474 net.cpp:100] Creating Layer ave_bbox_pred_rois
I1030 11:14:16.355410 26474 net.cpp:444] ave_bbox_pred_rois <- psroipooled_loc_rois
I1030 11:14:16.355415 26474 net.cpp:418] ave_bbox_pred_rois -> bbox_pred
I1030 11:14:16.355437 26474 net.cpp:150] Setting up ave_bbox_pred_rois
I1030 11:14:16.355444 26474 net.cpp:157] Top shape: 1 8 1 1 (8)
I1030 11:14:16.355448 26474 net.cpp:165] Memory required for data: 4798937472
I1030 11:14:16.355453 26474 layer_factory.hpp:77] Creating layer bbox_pred_ave_bbox_pred_rois_0_split
I1030 11:14:16.355459 26474 net.cpp:100] Creating Layer bbox_pred_ave_bbox_pred_rois_0_split
I1030 11:14:16.355463 26474 net.cpp:444] bbox_pred_ave_bbox_pred_rois_0_split <- bbox_pred
I1030 11:14:16.355470 26474 net.cpp:418] bbox_pred_ave_bbox_pred_rois_0_split -> bbox_pred_ave_bbox_pred_rois_0_split_0
I1030 11:14:16.355478 26474 net.cpp:418] bbox_pred_ave_bbox_pred_rois_0_split -> bbox_pred_ave_bbox_pred_rois_0_split_1
I1030 11:14:16.355505 26474 net.cpp:150] Setting up bbox_pred_ave_bbox_pred_rois_0_split
I1030 11:14:16.355511 26474 net.cpp:157] Top shape: 1 8 1 1 (8)
I1030 11:14:16.355516 26474 net.cpp:157] Top shape: 1 8 1 1 (8)
I1030 11:14:16.355520 26474 net.cpp:165] Memory required for data: 4798937536
I1030 11:14:16.355525 26474 layer_factory.hpp:77] Creating layer per_roi_loss_cls
I1030 11:14:16.355533 26474 net.cpp:100] Creating Layer per_roi_loss_cls
I1030 11:14:16.355537 26474 net.cpp:444] per_roi_loss_cls <- cls_score_ave_cls_score_rois_0_split_0
I1030 11:14:16.355542 26474 net.cpp:444] per_roi_loss_cls <- labels_roi-data_1_split_0
I1030 11:14:16.355550 26474 net.cpp:418] per_roi_loss_cls -> temp_loss_cls
I1030 11:14:16.355556 26474 net.cpp:418] per_roi_loss_cls -> temp_prob_cls
I1030 11:14:16.355563 26474 net.cpp:418] per_roi_loss_cls -> per_roi_loss_cls
I1030 11:14:16.355573 26474 layer_factory.hpp:77] Creating layer per_roi_loss_cls
I1030 11:14:16.355648 26474 net.cpp:150] Setting up per_roi_loss_cls
I1030 11:14:16.355654 26474 net.cpp:157] Top shape: (1)
I1030 11:14:16.355659 26474 net.cpp:157] Top shape: 1 21 1 1 (21)
I1030 11:14:16.355664 26474 net.cpp:157] Top shape: 1 1 1 1 (1)
I1030 11:14:16.355669 26474 net.cpp:165] Memory required for data: 4798937628
I1030 11:14:16.355672 26474 layer_factory.hpp:77] Creating layer per_roi_loss_bbox
I1030 11:14:16.355680 26474 net.cpp:100] Creating Layer per_roi_loss_bbox
I1030 11:14:16.355684 26474 net.cpp:444] per_roi_loss_bbox <- bbox_pred_ave_bbox_pred_rois_0_split_0
I1030 11:14:16.355690 26474 net.cpp:444] per_roi_loss_bbox <- bbox_targets_roi-data_2_split_0
I1030 11:14:16.355695 26474 net.cpp:444] per_roi_loss_bbox <- bbox_inside_weights_roi-data_3_split_0
I1030 11:14:16.355701 26474 net.cpp:418] per_roi_loss_bbox -> temp_loss_bbox
I1030 11:14:16.355710 26474 net.cpp:418] per_roi_loss_bbox -> per_roi_loss_bbox
I1030 11:14:16.355747 26474 net.cpp:150] Setting up per_roi_loss_bbox
I1030 11:14:16.355753 26474 net.cpp:157] Top shape: (1)
I1030 11:14:16.355757 26474 net.cpp:157] Top shape: 1 1 1 1 (1)
I1030 11:14:16.355762 26474 net.cpp:165] Memory required for data: 4798937636
I1030 11:14:16.355765 26474 layer_factory.hpp:77] Creating layer per_roi_loss
I1030 11:14:16.355772 26474 net.cpp:100] Creating Layer per_roi_loss
I1030 11:14:16.355777 26474 net.cpp:444] per_roi_loss <- per_roi_loss_cls
I1030 11:14:16.355782 26474 net.cpp:444] per_roi_loss <- per_roi_loss_bbox
I1030 11:14:16.355787 26474 net.cpp:418] per_roi_loss -> per_roi_loss
I1030 11:14:16.355808 26474 net.cpp:150] Setting up per_roi_loss
I1030 11:14:16.355813 26474 net.cpp:157] Top shape: 1 1 1 1 (1)
I1030 11:14:16.355818 26474 net.cpp:165] Memory required for data: 4798937640
I1030 11:14:16.355821 26474 layer_factory.hpp:77] Creating layer annotator_detector
I1030 11:14:16.355834 26474 net.cpp:100] Creating Layer annotator_detector
I1030 11:14:16.355837 26474 net.cpp:444] annotator_detector <- rois_roi-data_0_split_2
I1030 11:14:16.355842 26474 net.cpp:444] annotator_detector <- per_roi_loss
I1030 11:14:16.355847 26474 net.cpp:444] annotator_detector <- labels_roi-data_1_split_1
I1030 11:14:16.355852 26474 net.cpp:444] annotator_detector <- bbox_inside_weights_roi-data_3_split_1
I1030 11:14:16.355859 26474 net.cpp:418] annotator_detector -> labels_ohem
I1030 11:14:16.355865 26474 net.cpp:418] annotator_detector -> bbox_loss_weights_ohem
I1030 11:14:16.355896 26474 net.cpp:150] Setting up annotator_detector
I1030 11:14:16.355903 26474 net.cpp:157] Top shape: 1 1 1 1 (1)
I1030 11:14:16.355907 26474 net.cpp:157] Top shape: 1 8 1 1 (8)
I1030 11:14:16.355911 26474 net.cpp:165] Memory required for data: 4798937676
I1030 11:14:16.355916 26474 layer_factory.hpp:77] Creating layer labels_ohem_annotator_detector_0_split
I1030 11:14:16.355922 26474 net.cpp:100] Creating Layer labels_ohem_annotator_detector_0_split
I1030 11:14:16.355927 26474 net.cpp:444] labels_ohem_annotator_detector_0_split <- labels_ohem
I1030 11:14:16.355934 26474 net.cpp:418] labels_ohem_annotator_detector_0_split -> labels_ohem_annotator_detector_0_split_0
I1030 11:14:16.355942 26474 net.cpp:418] labels_ohem_annotator_detector_0_split -> labels_ohem_annotator_detector_0_split_1
I1030 11:14:16.355970 26474 net.cpp:150] Setting up labels_ohem_annotator_detector_0_split
I1030 11:14:16.355976 26474 net.cpp:157] Top shape: 1 1 1 1 (1)
I1030 11:14:16.355981 26474 net.cpp:157] Top shape: 1 1 1 1 (1)
I1030 11:14:16.355985 26474 net.cpp:165] Memory required for data: 4798937684
I1030 11:14:16.355989 26474 layer_factory.hpp:77] Creating layer silence
I1030 11:14:16.355998 26474 net.cpp:100] Creating Layer silence
I1030 11:14:16.356001 26474 net.cpp:444] silence <- bbox_outside_weights
I1030 11:14:16.356006 26474 net.cpp:444] silence <- temp_loss_cls
I1030 11:14:16.356011 26474 net.cpp:444] silence <- temp_prob_cls
…
